models/PID_ML/TPC/simple_model_211.onnx (onnx, 27305 bytes, 5 tensors)

input.bias f4 [100]
0	0xbe0650f4	-0.13116819
1	0x3e5f42d6	0.2180284
2	0x3d3abda5	0.045591015
3	0x3ecf7a0f	0.4052281
4	0x3e06b0f7	0.13153444
5	0x3e191f92	0.1495345
6	0xbe1eeea5	-0.15520723
7	0xbd001a1a	-0.031274892
8	0xbe697d30	-0.22801661
9	0xbe7b1e1a	-0.24523202
10	0x3aa637dc	0.0012681442
11	0x3cf28ceb	0.02960821
12	0xbcb799e9	-0.022412257
13	0x3e44fd2e	0.19237205
14	0xbe9dbcf6	-0.30808228
15	0xbeba91c4	-0.36439335
16	0x3dcdf444	0.100563556
17	0x3e8da05f	0.27661416
18	0x3e6f2241	0.2335291
19	0xbe7e1883	-0.24814038
20	0xbe61d3a2	-0.22053388
21	0xbe4a5c00	-0.19761658
22	0xba4dab8e	-0.0007845693
23	0xbeaae4a4	-0.33377564
24	0x3dd2227c	0.102604836
25	0xbe984a86	-0.29744357
26	0xbe841bd2	-0.25802475
27	0xbd7a3b7f	-0.061091896
28	0xbe54e1ce	-0.20789263
29	0xbe8976dd	-0.26848498
30	0xbdfa0f9e	-0.1221001
31	0xbe7ca5d6	-0.24672636
32	0xbe841e50	-0.25804377
33	0xbe8d8776	-0.2764241
34	0x3cf5e2c9	0.030015366
35	0xbe9cde01	-0.30638126
36	0xbd98f899	-0.07469291
37	0x3dcd617c	0.10028359
38	0xbeb7f416	-0.3592841
39	0xbd55301e	-0.05204784
40	0x3d59c5e4	0.05316724
41	0xbbc112ab	-0.005892118
42	0xbcf7da01	-0.03025532
43	0x3d7919d2	0.06081564
44	0xbea9c6fc	-0.33159626
45	0xbe237399	-0.15962066
46	0x3e96aa6a	0.2942689
47	0xbe8051ba	-0.25062352
48	0x3ddbe51c	0.107370585
49	0xbc74bed1	-0.014938072
50	0xbe00dc38	-0.12584007
51	0x3e860345	0.2617437
52	0xbe49275e	-0.19643924
53	0xbd8dbc54	-0.06920686
54	0xbd143bd6	-0.036189876
55	0xbe33cbe4	-0.17558247
56	0xbe93dfdd	-0.28881732
57	0xbc8f1fe1	-0.017471256
58	0x3d8a6ee1	0.0675943
59	0xbe828559	-0.2549236
60	0x3e1c34b0	0.15254474
61	0xbeb911f9	-0.36146525
62	0xbe11ff6f	-0.14257596
63	0xbe84ca6d	-0.2593569
64	0xbc7e4696	-0.015519759
65	0x3e2014c2	0.15632918
66	0x3dafb256	0.08578937
67	0x3e2ab63e	0.16671082
68	0x3e04d917	0.12973438
69	0xbe6db4a5	-0.23213442
70	0xbe3b066b	-0.18264167
71	0xbde169e1	-0.11006523
72	0xbe471103	-0.19440083
73	0x3dce5883	0.10075476
74	0xbe57fb77	-0.2109202
75	0xbe84cd94	-0.25938094
76	0xbea531a5	-0.32264438
77	0x3e1f7e6b	0.15575568
78	0x3e659ddd	0.22423501
79	0xbe077676	-0.13228783
80	0x3d4a4ce6	0.049389742
81	0xbe29e2f7	-0.16590486
82	0x3e143720	0.14474154
83	0x3e18840c	0.14894122
84	0xbdc3df97	-0.09564131
85	0x3eb81940	0.35956764
86	0xbe876e46	-0.2645132
87	0xbe397e35	-0.1811455
88	0xbec7bbfa	-0.39010602
89	0xbe209273	-0.15680866
90	0x3dc71cc7	0.09722286
91	0x3ebc93b6	0.36831445
92	0xbe3ac082	-0.18237498
93	0xbec4425f	-0.38331887
94	0xbd8900c1	-0.06689597
95	0xbe2db2cd	-0.16962738
96	0x3e5527bf	0.20815943
97	0xbc93f5ff	-0.018061636
98	0x3e8a4fec	0.270141
99	0x3e614962	0.2200065

l_2.bias f4 [50]
0	0x3f06eedc	0.5270822
1	0x3f3bb180	0.7331772
2	0x3f3660d0	0.71241474
3	0x3f451060	0.7697811
4	0x3f3d2bc3	0.738949
5	0x3ee8bee5	0.4545814
6	0xbe5c22d6	-0.21497664
7	0xbe33ce33	-0.17559128
8	0x3f365780	0.71227264
9	0x3f40c159	0.75295025
10	0x3f1952d5	0.59892017
11	0x3f3d5cb4	0.7396958
12	0x3f4fd346	0.8118175
13	0xbe869be9	-0.26290825
14	0xbe1fdbe1	-0.15611221
15	0x3f6649d5	0.8995641
16	0x3f408c47	0.75214046
17	0xbec4a2aa	-0.38405353
18	0x3f367774	0.7127602
19	0x3f0d60cd	0.5522583
20	0x3f4213a6	0.7581123
21	0x3f213e7b	0.6298596
22	0x3f299898	0.66248465
23	0xbd742649	-0.059606824
24	0x3f29b000	0.6628418
25	0x3f341d17	0.7035689
26	0x3f5f3d72	0.87203133
27	0x3f46e8cf	0.7769899
28	0xbea0d7b3	-0.31414565
29	0x3eedd4fe	0.46451563
30	0x3f39e62d	0.72616845
31	0x3f3b5194	0.73171353
32	0x3f2e6a45	0.68130904
33	0x3f56f2b0	0.8396406
34	0x3f4528ef	0.77015585
35	0x3f51cf6b	0.8195712
36	0x3ea113c3	0.3146039
37	0xbdcee932	-0.10103072
38	0x3f0c9c7b	0.5492627
39	0x3f569177	0.8381571
40	0xbeaf23ed	-0.34207097
41	0xbea56f99	-0.32311705
42	0xbe7a28f8	-0.24429691
43	0x3f01e8cf	0.5074586
44	0xbec1df4e	-0.3786568
45	0x3f35bc64	0.70990586
46	0xbe594645	-0.21218212
47	0x3f530867	0.82434696
48	0x3f3bc0dd	0.7334116
49	0xbec8e021	-0.39233497

18 f4 [15, 100]
0	0x40b5d855	5.6826577
1	0xc1047355	-8.278157
2	0x40db2e41	6.849396
3	0x40b53861	5.663132
4	0x40bfdfe1	5.996079
5	0xc0a01736	-5.0028334
6	0x406de95b	3.717368
7	0x3f17609b	0.59131783
8	0xc0e7dcd7	-7.245708
9	0x40bd80a7	5.9219546
10	0x40bf2a97	5.973949
11	0xc04d1a29	-3.2047217
12	0x40ab1604	5.3464375
13	0xc0285664	-2.6302729
14	0x40ae3d16	5.444957
15	0xc0e91b05	-7.2845483
16	0x40eba716	7.364146
17	0x40cf2d48	6.4742775
18	0xc0f34ec4	-7.603365
19	0x40b706bd	5.7195725
20	0xc0801a9c	-4.003248
21	0x40c5dac2	6.182954
22	0x40b755f8	5.729244
23	0x4098acf1	4.771111
24	0x40dcdeec	6.902212
25	0x40a108ad	5.032309
26	0x40cd81a2	6.4220743
27	0xc0ddbfef	-6.9296794
28	0x40995cd8	4.7925835
29	0xc02d103d	-2.704116
30	0x40e1d719	7.057507
31	0x40b8a07b	5.76959
32	0xc0e1e9a2	-7.0597696
33	0x40889abb	4.268888
34	0x40add6c7	5.432468
35	0x40be52d9	5.9476132
36	0x40d3a0ca	6.6133776
37	0xc103422d	-8.203656
38	0xc0350731	-2.828564
39	0x40acf095	5.404368
40	0x404e1f7e	3.2206721
41	0x402c134a	2.6886773
42	0x405f2e6a	3.487208
43	0x40941a27	4.6281924
44	0xc0e863a4	-7.262163
45	0xc0f8ebbf	-7.7787776
46	0x3fc694d0	1.5514164
47	0xc04b9e23	-3.181527
48	0xc0e8e82d	-7.278342
49	0x40cdf95b	6.436689
50	0x40d77e7c	6.73419
51	0x409cbeae	4.8982763
52	0xc0c2dd95	-6.0895486
53	0x40ba38b6	5.8194227
54	0x408453b0	4.1352158
55	0xc0cf8f73	-6.486261
56	0x401aad4d	2.4168274
57	0x40b0f143	5.529451
58	0x40c9d844	6.3076496
59	0xc0330e0a	-2.7977319
60	0xc0f1cabe	-7.555999
61	0x4006da8c	2.107089
62	0xc0e07c41	-7.0151677
63	0x409fbe4f	4.991981
64	0xbfc14e2f	-1.5101985
65	0x4094810a	4.640752
66	0xc0b1c463	-5.555223
67	0xc0f4c9ea	-7.6496477
68	0x40d0a357	6.519939
69	0x40cc18b2	6.3780146
70	0xc03330e4	-2.799859
71	0xc0cd8959	-6.423016
72	0x40cfeef9	6.4979215
73	0x40b77eac	5.734213
74	0x40d99640	6.799591
75	0x40cbcadc	6.368513
76	0x3f692717	0.9107527
77	0xc0f1c28f	-7.555
78	0xc02793ca	-2.6183953
79	0xc0bcf11b	-5.904432
80	0x4095105d	4.6582475
81	0x40b78ae0	5.7357025
82	0x40b724d8	5.7232475
83	0x40ac204b	5.378942
84	0xc0f3b656	-7.616008
85	0x400864b5	2.1311467
86	0xc0f2cf94	-7.587839
87	0x405ee3e7	3.48266
88	0xc0d07f4e	-6.51554
89	0x40b8ae22	5.7712564
90	0xc0f092dd	-7.5179276
91	0x405b8156	3.429769
92	0x40715c3a	3.771254
93	0x40b7eb04	5.7474384
94	0x40598cf7	3.3992288
95	0x40b27de3	5.577867
96	0x40a7b29c	5.240553
97	0x40d8a4b8	6.7701073
98	0xc1080b0a	-8.502695
99	0xc0c13337	-6.037502
100	0x3bdcfec4	0.0067442376
101	0xbcf6cc34	-0.030126669
102	0x3ae487a0	0.0017435439
103	0x3c43c383	0.011948469
104	0x3c121831	0.0089169005
105	0x3aea3225	0.0017867727
106	0x3aac67d4	0.0013153502
107	0xbbddbdf1	-0.0067670275
108	0x3b09d899	0.0021033643
109	0x3c023df7	0.007949344
110	0x3c2490f8	0.010044329
111	0x3c04f058	0.008113943
112	0x3bcc3888	0.006232325
113	0x3ac854dc	0.0015284079
114	0xbd54223e	-0.05179047
115	0x3bdde53f	0.006771713
116	0x39f64306	0.00046970713
117	0x3c2859ec	0.010275345
118	0xba90efba	-0.0011057772
119	0xbd908e45	-0.07058386
120	0x3c03f76d	0.008054596
121	0xb9833852	-0.0002502823
122	0xbd577be5	-0.05260839
123	0x3b48cd2a	0.0030639865
124	0xbc364a80	-0.011126161
125	0xbd96c20d	-0.07361231
126	0xbd37060f	-0.044683512
127	0x3b035a85	0.0020042968
128	0x3b7e078b	0.003876182
129	0x3b3101cf	0.0027009135
130	0x3c0d635b	0.008629645
131	0x3c0d57e2	0.00862691
132	0x3a91b60f	0.001111688
133	0xbda41f60	-0.08013797
134	0xbbd0d40d	-0.0063729347
135	0x3c2f6dcd	0.010707331
136	0x3b631a9a	0.0034653307
137	0xbba74631	-0.005104803
138	0x3c45da10	0.012075916
139	0x3baf7ec0	0.005355686
140	0x3b81c1c8	0.003959868
141	0x3baf93ff	0.0053582187
142	0xbd433c1b	-0.047664743
143	0x3b730a55	0.0037085016
144	0x3b535a6f	0.0032249948
145	0xbd249bb8	-0.040187567
146	0x3ba39f99	0.0049933908
147	0x3c217ce0	0.009856433
148	0x3baa5901	0.0051985984
149	0x3b3a4688	0.0028423388
150	0x3c56ef08	0.013118513
151	0x39d566ce	0.0004070312
152	0x3bb36b92	0.00547547
153	0x3bdea67c	0.006794749
154	0xba3056c4	-0.0006726796
155	0x3b3fd127	0.0029268952
156	0xbdabfc2d	-0.08397708
157	0xbce952a2	-0.028481785
158	0x3b99ca09	0.004693274
159	0x3b82ed76	0.0039955927
160	0xbd4bc689	-0.049749885
161	0x3c33efe4	0.010982487
162	0xbc89a2d6	-0.016801279
163	0x3b249adc	0.0025116717
164	0x3c1a778f	0.009427919
165	0x3befa6e0	0.007313594
166	0xbd4eeaa2	-0.050516732
167	0xbc9ba638	-0.019000158
168	0x3cb3b967	0.021938993
169	0xbcd6f902	-0.026241783
170	0xbc78abeb	-0.015177707
171	0x3ac8d6bb	0.0015322784
172	0xbd4ac359	-0.049502704
173	0x3c3de492	0.01159014
174	0xbc943710	-0.018092662
175	0xbd06fff2	-0.032958932
176	0x3bfa84e8	0.007645238
177	0x39695288	0.00022251357
178	0x3b5769de	0.0032869498
179	0x3a96b1dc	0.0011497098
180	0xb9d52033	-0.00040650516
181	0x3bb1a04e	0.005420721
182	0x3b5d8936	0.0033803708
183	0xbd7be90a	-0.06150154
184	0x3b971337	0.004610445
185	0x3b040ab3	0.0020147979
186	0x3b0cda7c	0.0021492532
187	0x3c03ae7c	0.008037206
188	0x3adf6afc	0.0017045434
189	0xbd37335a	-0.044726707
190	0xbc560f1f	-0.013065129
191	0x3b94e86d	0.004544309
192	0x3a5db8ab	0.00084579986
193	0x3c58a940	0.013223946
194	0x3bac55ee	0.005259267
195	0xb97cc0e6	-0.00024104453
196	0x39c1dede	0.00036977878
197	0xbc746021	-0.014915497
198	0xbd021cbe	-0.031765692
199	0xbcd9f53d	-0.026606197
200	0xbdbef933	-0.09324875
201	0xbe88eff7	-0.2674558
202	0x3e96b86a	0.29437572
203	0xbe7b536b	-0.2454354
204	0xbec0acbb	-0.37631783
205	0xbe103ff3	-0.14086895
206	0xbe079d4f	-0.13243602
207	0x3d1b8a52	0.03797371
208	0xbe43b708	-0.1911279
209	0x3e9cf37e	0.3065452
210	0xbdc9e872	-0.098587885
211	0xbe53a18e	-0.20667097
212	0xbe12efbc	-0.14349264
213	0xbcccd21e	-0.025002535
214	0x3f0dfe12	0.55465806
215	0x3ef4f543	0.4784337
216	0xbd8a0407	-0.067390494
217	0xbe1835c6	-0.14864263
218	0xbe94ea85	-0.29085174
219	0x3c1aaf04	0.009441141
220	0x3de2f69c	0.11082193
221	0x3e995f7b	0.29955658
222	0xbc35566d	-0.011067969
223	0xbf05857d	-0.5215681
224	0x3f099da8	0.5375619
225	0x3eba29eb	0.36360106
226	0x3ee52838	0.44757247
227	0xbe3d87ac	-0.18508786
228	0x3e34aa6a	0.17643133
229	0xbdb23268	-0.087010205
230	0xbe0795f8	-0.13240802
231	0x3e4ff272	0.2030733
232	0x3d5c2d4b	0.053754132
233	0x3f1d00cf	0.6132936
234	0xbe1030f1	-0.1408117
235	0x3d37b292	0.044848032
236	0xbf1703ef	-0.5899038
237	0x3d197f58	0.03747496
238	0x3e23aa39	0.15982904
239	0xbeb3fa89	-0.3515208
240	0xbec248c2	-0.37946135
241	0x3eae39fe	0.3402862
242	0x3d29fd44	0.0415013
243	0xbd638840	-0.05554986
244	0xbe584384	-0.21119505
245	0xbd682a5a	-0.056681015
246	0xbcf8f7fa	-0.030391682
247	0x3e9b4b12	0.30330712
248	0xbea1f18c	-0.31629598
249	0xbf1e13a0	-0.61748695
250	0xb809e694	-3.2878088e-05
251	0x3ef59516	0.47965306
252	0xbec62833	-0.38702545
253	0xbed62f1b	-0.41832814
254	0x3ee31f64	0.44359887
255	0xbbbdd05c	-0.0057926606

19 f4 [100, 50]
0	0x3e450d02	0.19243243
1	0x3d85b2be	0.06528233
2	0x3cb1f3ab	0.021722635
3	0x3e6168f0	0.22012687
4	0x3d0137ff	0.031547543
5	0xbc3373b5	-0.01095288
6	0x3e99a5ea	0.30009395
7	0x3f011d5b	0.5043542
8	0xbd278e95	-0.04090746
9	0xbc6231dd	-0.013805834
10	0xbd20ca2f	-0.039255317
11	0xbe238d75	-0.1597193
12	0x3d7cb653	0.061697315
13	0x3ebe14c6	0.37125224
14	0x3ed7e233	0.42164764
15	0x3de98d5f	0.114039175
16	0x3d2b91ba	0.041887023
17	0x3db88dff	0.090114586
18	0x3cd6b3ab	0.02620872
19	0xbe113348	-0.14179718
20	0x3d0dd139	0.03462336
21	0xbec1096e	-0.37702507
22	0x3e11b0f2	0.14227656
23	0x3f0943e2	0.53619206
24	0x3e09cb2f	0.13456415
25	0x3df6c519	0.12049312
26	0xbc322179	-0.010872238
27	0x3d5f0217	0.054445352
28	0x3e4766ee	0.19472858
29	0x3e78e62b	0.24306552
30	0xbe695ab1	-0.22788502
31	0x3d99c139	0.075075574
32	0xbe4e4d6f	-0.20146726
33	0xbd88bea4	-0.06676987
34	0x3dc9600b	0.09832772
35	0xbd0bdfa1	-0.034148816
36	0x3eb6df38	0.35717177
37	0x3f015167	0.50514835
38	0x3e2ac9d5	0.16678555
39	0xbe2a6161	-0.1663871
40	0x3e81a331	0.25319818
41	0x3ebbf2a6	0.36708564
42	0x3ed2f123	0.41199598
43	0x3e982132	0.29712826
44	0x3e88fb40	0.2675419
45	0xbc14c9ea	-0.009081343
46	0x3e951982	0.29121023
47	0x3d05b9e9	0.032648
48	0x3e2fdc17	0.17173801
49	0x3e8657b0	0.26238775
50	0x3d9644d3	0.07337346
51	0xbd18165e	-0.037130706
52	0xbd2834dc	-0.041066036
53	0xbc670639	-0.014100605
54	0xbd1eb246	-0.038744234
55	0x3d3f9c99	0.046780203
56	0xbe3971ba	-0.1810979
57	0xbe93a2e0	-0.288352
58	0xbd1d54e0	-0.03841102
59	0xbcb22b29	-0.021749096
60	0xbd573ed7	-0.052550163
61	0xbb86c421	-0.004112736
62	0xbe1be22c	-0.15222996
63	0xbdc4ecce	-0.096154794
64	0xbe843f43	-0.25829515
65	0xbdb2d944	-0.087328464
66	0xbe224093	-0.15844946
67	0x3c9760a9	0.018478708
68	0xbcff66fa	-0.031177033
69	0xbdaabb97	-0.08336561
70	0x3d70ade1	0.058759574
71	0x3d18338c	0.037158534
72	0x3d022a80	0.031778812
73	0xbea04376	-0.3130147
74	0x3d7f7eb8	0.062376708
75	0x3d520534	0.051274493
76	0xbc63e157	-0.013908706
77	0x3cc475f1	0.02398202
78	0x3e190a1c	0.14945263
79	0x3d67f01d	0.056625474
80	0xbd2bb12d	-0.041917015
81	0x3d32b5c1	0.043630365
82	0x3b404ece	0.0029343846
83	0x3d75c43c	0.060001597
84	0x3d03a430	0.032139003
85	0x3d805653	0.06266465
86	0x3d6b1de9	0.05740157
87	0xbe9809a9	-0.2969487
88	0x3d273f43	0.040831815
89	0xbdd38de5	-0.103297986
90	0xbe25af61	-0.16180183
91	0xbe1f704b	-0.1557018
92	0xbe8ad4a5	-0.2711536
93	0x3d7a872b	0.061164062
94	0xbe2572c6	-0.16157064
95	0xbddd083b	-0.107925855
96	0xbdfecf94	-0.12441936
97	0x3d05ec30	0.03269595
98	0x3d391d58	0.045194
99	0xbd204dd7	-0.039136734
100	0x3de22c38	0.1104359
101	0xbcad4a77	-0.021153672
102	0xbdc151c4	-0.09439424
103	0x3b9dc6ff	0.004814982
104	0xbd7fb9c0	-0.062433004
105	0x3e6a8a1c	0.22904247
106	0x3e40cab5	0.18827327
107	0x3e300aed	0.17191668
108	0x3dab8813	0.083755635
109	0x3d03f11d	0.032212365
110	0xbd3cd250	-0.046099007
111	0xbe250a05	-0.16117103
112	0xbd3dc38d	-0.04632907
113	0x3e8ba263	0.2727233
114	0x3e032e65	0.12810667
115	0xbdb1d918	-0.086839855
116	0xbd591ee6	-0.053007983
117	0x3dad8b6e	0.0847386
118	0x3d98e9da	0.07466479
119	0x3dd938b4	0.106065184
120	0xbcfc07eb	-0.030765494
121	0xbe28974f	-0.1646397
122	0x3d2e1996	0.04250487
123	0x3e665523	0.22493415
124	0xbdd8c2dd	-0.10584042
125	0xbd3121fb	-0.043245297
126	0xbe161301	-0.14655687
127	0xbdbb630b	-0.0914975
128	0xbdb6bbf0	-0.08922565
129	0x3d3a42a4	0.04547371
130	0xbe478645	-0.19484814
131	0xbd02b5a4	-0.031911507
132	0xbd9627ac	-0.073317856
133	0xbc9f764e	-0.019465592
134	0xbdc0e389	-0.09418399
135	0xbde9c54b	-0.11414584
136	0x3e333482	0.17500499
137	0x3e545b00	0.20737839
138	0x3cdb48e5	0.026768157
139	0x3bb10d9b	0.005403233
140	0x3dffb757	0.12486141
141	0x3eab42d3	0.3344942
142	0x3e4df601	0.20113374
143	0x3ddadfb0	0.10687196
144	0x3e3db1e1	0.18524887
145	0x3da517bf	0.0806117
146	0x3e0eed87	0.13957797
147	0xbe43d666	-0.19124755
148	0xbd69a416	-0.05704125
149	0x3e0ea342	0.13929465
150	0xbd67ba76	-0.056574307
151	0x3d9cb27e	0.07651232
152	0xbccc4784	-0.024936445
153	0xbc20930e	-0.009800686
154	0x3da9a528	0.08283454
155	0x3d31d519	0.043416116
156	0x3d4a5c1a	0.04940424
157	0x3d0b5f84	0.034026638
158	0x3c29805d	0.010345546
159	0xbe4bfe4d	-0.19921227
160	0x3dfb4553	0.12269082
161	0xbe05ecb4	-0.13078576
162	0xbc48d306	-0.012257343
163	0x3cfcf257	0.030877275
164	0x3c933e7d	0.017974133
165	0xbd1e9b92	-0.038722582
166	0x3a1ce57d	0.0005985124
167	0x3bd24426	0.0064168153
168	0xbd17f572	-0.03709931
169	0xbda14213	-0.07873931
170	0x3d7fede2	0.062482722
171	0x3e269452	0.16267517
172	0x3dcec549	0.10096223
173	0x3d8aaeb1	0.06771601
174	0x3ccec4f3	0.025240397
175	0x3c9fff1c	0.019530825
176	0xbd26b71d	-0.040701974
177	0xbba6feb2	-0.00509628
178	0xbc550509	-0.013001689
179	0x3d52ef08	0.05149749
180	0xbd8bedd7	-0.06832474
181	0x3a55919a	0.00081470015
182	0x3dfb4517	0.12269037
183	0x3ab29186	0.0013623692
184	0x3b99949c	0.004686905
185	0xbcfba31d	-0.030717427
186	0x3deac58d	0.11463461
187	0x3d9a957c	0.07548043
188	0xbe13ad4e	-0.14421579
189	0xbc9fd513	-0.019510781
190	0x3d6c7ffb	0.05773924
191	0xbca6b7d6	-0.020351332
192	0xbc9ab42b	-0.018884739
193	0x3b52a91d	0.0032144256
194	0x3d9f280d	0.07771311
195	0xbcf04c47	-0.029333247
196	0x3d3855d3	0.045003723
197	0xbd978e8b	-0.07400235
198	0xbea440aa	-0.32080585
199	0xbcc01783	-0.023448711
200	0x3e1c4c61	0.15263511
201	0xbd39d2d6	-0.045367084
202	0xbcafd025	-0.021461556
203	0x3ddd5c68	0.10808641
204	0x3dea0614	0.114269406
205	0x3dd529c1	0.104083546
206	0x3ea05bfb	0.31320176
207	0x3eadd40e	0.33950847
208	0xbd7bad6a	-0.061444677
209	0x3dbd535b	0.092444144
210	0x3d8c074c	0.06837329
211	0xbdd647f2	-0.10462941
212	0xbad51c00	-0.0016258955
213	0x3e2e9b4d	0.1705143
214	0x3ea8faad	0.3300375
215	0x3d9337e9	0.071883984
216	0x3d7a7b02	0.061152466
217	0x3de1b1cc	0.1102024
218	0xbdef23f8	-0.11676782
219	0x3c612873	0.013742554
220	0xbd74592f	-0.059655365
221	0xbe037e8b	-0.12841241
222	0xbd833db8	-0.06408256
223	0x3e9ad6ed	0.302421
224	0xbd02c0e5	-0.03192224
225	0x3dbd4bd4	0.09242979
226	0x3e185a1e	0.14878127
227	0x3db1363d	0.08652923
228	0x3e0c5179	0.13702954
229	0x3d4a4be5	0.049388785
230	0xbda011d7	-0.07815903
231	0xbe149599	-0.14510192
232	0xbe2167df	-0.1576228
233	0x3cff1f38	0.031142816
234	0xbc90bf70	-0.01766941
235	0xbd5837ce	-0.052787594
236	0x3de3fd93	0.1113235
237	0x3ebc7310	0.36806536
238	0x3d2b8030	0.041870296
239	0xbcb572a8	-0.022149399
240	0x3e345606	0.1761094
241	0x3ea9b398	0.33144832
242	0x3eb45e57	0.35228226
243	0x3e5e6992	0.2171996
244	0x3e583b98	0.21116483
245	0x3dba01ed	0.090823986
246	0x3e85b353	0.26113376
247	0xbdbda8ab	-0.092606865
248	0xbd4af627	-0.049551155
249	0x3e10c00b	0.14135759
250	0xbcff1949	-0.031139987
251	0xbd77b732	-0.060477443
252	0xbea55363	-0.32290182
253	0xbc6a5b56	-0.014304003
254	0xbd359a07	-0.044336345
255	0xbdc48e9c	-0.09597513

20 f4 [50, 1]
0	0x3ddcc1e6	0.10779171
1	0x3d6641cd	0.056215096
2	0x3d81c173	0.06335726
3	0x3d984660	0.07435298
4	0x3d9a311a	0.07528897
5	0x3dc6ad95	0.09701077
6	0xbe93dd85	-0.28879943
7	0xbe107e1c	-0.14110607
8	0x3d31e0a5	0.04342713
9	0x3d796bfa	0.06089399
10	0x3da8ae42	0.08236362
11	0x3d2e23a8	0.042514473
12	0x3d89cbab	0.067283
13	0xbe852352	-0.2600351
14	0xbda9dc92	-0.082940236
15	0x3d8a429b	0.06750985
16	0x3d8fd2f2	0.070226565
17	0xbef28849	-0.47369602
18	0x3d317b36	0.043330394
19	0x3dd2e4f7	0.10297578
20	0x3d9a8ff5	0.07546989
21	0x3d74897c	0.059701428
22	0x3d5486e5	0.051886458
23	0xbdc7e8a6	-0.09761171
24	0x3d91efc0	0.07125807
25	0x3dbc0163	0.09179952
26	0x3d9469ce	0.07246743
27	0x3d55604d	0.052093793
28	0xbe47dfa1	-0.19518901
29	0x3e3afa5c	0.18259567
30	0x3d566141	0.052338842
31	0x3d848fcb	0.06472739
32	0x3d5df226	0.05418601
33	0x3d8bbf3c	0.068235844
34	0x3d674028	0.05645767
35	0x3d80660a	0.062694624
36	0x3e3ff228	0.18744719
37	0xbdd23c74	-0.10265437
38	0x3dfcae91	0.123379834
39	0x3d3feaf7	0.04685494
40	0xbe55d1f1	-0.20880868
41	0xbe920fa5	-0.2852756
42	0xbe7edafc	-0.24888223
43	0x3e43a442	0.19105628
44	0xbe965f03	-0.29369363
45	0x3d755eca	0.05990485
46	0xbe8c65c8	-0.27421403
47	0x3d9a52f6	0.07535355
48	0x3d8f16f8	0.06986803
49	0xbece564f	-0.40300223
