models/PID_ML/TPC/simple_model_2212.onnx (onnx, 27305 bytes, 5 tensors)

input.bias f4 [100]
0	0xbe42ef9b	-0.19036715
1	0x3e35abb8	0.17741287
2	0x3e337896	0.17526469
3	0xbe5f2c8a	-0.21794334
4	0x3b8ea697	0.004353355
5	0x3dce160f	0.10062801
6	0x3dde262a	0.10847123
7	0xbe9b2eae	-0.3030905
8	0x3dfe5064	0.12417677
9	0x3c9f7087	0.019462837
10	0x3e960ae6	0.2930519
11	0x3c944de0	0.01810354
12	0x3dc86504	0.09784892
13	0xbee386f8	-0.4443891
14	0xbeefbd0d	-0.46823922
15	0xbec9839f	-0.3935823
16	0xbe54fa2a	-0.20798555
17	0xbee4a35b	-0.4465588
18	0xbdfa282b	-0.12214693
19	0xbe995d3a	-0.2995394
20	0xbe1eba82	-0.15500835
21	0x3dec2dd9	0.11532182
22	0xbf00ea2d	-0.50357324
23	0xbe93f4c5	-0.28897682
24	0xbea48552	-0.32132965
25	0x3e5dccda	0.21660176
26	0x3dc5eb1a	0.09663983
27	0x3d69c211	0.05706984
28	0x3d61a082	0.055084713
29	0xbd15011c	-0.03637801
30	0xbcc2827a	-0.023743857
31	0x3e85f911	0.26166585
32	0x3e3fcc8a	0.18730369
33	0xbe805fb6	-0.25073022
34	0x3e7df786	0.24801454
35	0xbde5c469	-0.11219103
36	0x3c207cac	0.009795349
37	0xbcc7f081	-0.024406673
38	0x3dbf4f38	0.09341282
39	0xbd1f1854	-0.03884156
40	0x3cf5e9e0	0.030018747
41	0xbe52eeb8	-0.20598876
42	0xbd2c04ce	-0.04199677
43	0xbe9eeb94	-0.31039107
44	0xbe9c12e1	-0.30483153
45	0x3ca0f9fe	0.019650456
46	0xbe093cee	-0.13402149
47	0xbe623a5d	-0.22092576
48	0x3d0532c5	0.03251912
49	0x3d5b4f41	0.05354238
50	0xbec11847	-0.37713835
51	0xbeb16fdd	-0.34655657
52	0x3dd1acca	0.10238035
53	0xbdee26f8	-0.116285264
54	0xbd90c7d1	-0.07069362
55	0xbe8278bf	-0.25482747
56	0xbe11812a	-0.14209428
57	0x3c25fe3f	0.010131418
58	0xbe127e92	-0.14306095
59	0x3e43f7f1	0.19137551
60	0xbece4649	-0.40287998
61	0xbe10ee63	-0.14153437
62	0xbcdea7ac	-0.027179562
63	0x3d6ebeab	0.058287304
64	0xbea897be	-0.3292827
65	0xbde587ce	-0.11207543
66	0xbeb9b7ac	-0.36272943
67	0xbd26b83a	-0.040703036
68	0x3e7e6f17	0.24847065
69	0x3df10977	0.117693834
70	0xbe18ac1c	-0.14909405
71	0xbdab6195	-0.08368222
72	0xbe621b1e	-0.22080657
73	0xbedf7720	-0.43645573
74	0xbdb91257	-0.09036701
75	0xbe55da24	-0.20883995
76	0x3e962649	0.29326084
77	0xbeb766ea	-0.35820705
78	0xbeab7298	-0.33485866
79	0xbdec8381	-0.1154852
80	0xbeb2d71d	-0.34929743
81	0xbe080d13	-0.13286237
82	0x3d348311	0.044070307
83	0xbeb9a1ad	-0.3625616
84	0xbd8353cc	-0.06412467
85	0x3d07cd82	0.033154972
86	0xbe1ef7d8	-0.15524232
87	0xbe298976	-0.16556343
88	0xbeb872d3	-0.36025104
89	0x3e6cae1c	0.23113292
90	0xbea86f0f	-0.3289723
91	0x3d138066	0.036011122
92	0xbeac801a	-0.33691484
93	0xbec2b39f	-0.38027665
94	0xbeca193f	-0.39472386
95	0xbcc5f520	-0.024164736
96	0xbf09b9b4	-0.53798985
97	0x3d906d67	0.07052117
98	0x3ca85897	0.020550055
99	0x3c9857ce	0.018596556

l_2.bias f4 [50]
0	0xbebae392	-0.36501747
1	0x3fdcd8fc	1.7253718
2	0xbf1f6c2b	-0.62274426
3	0xbd5a4066	-0.05328407
4	0x3f2709e8	0.6524949
5	0xbee47005	-0.44616714
6	0xbeec2af2	-0.46126515
7	0x3f01c9b4	0.506984
8	0xbe984f42	-0.2974797
9	0x3ed97286	0.42470187
10	0xbe97a81d	-0.29620448
11	0x3f81c049	1.0136806
12	0x3f9b6501	1.2140199
13	0xbf1ecd90	-0.62032413
14	0xbd2da6aa	-0.04239527
15	0x3f107c26	0.56439435
16	0xbef962d2	-0.48708206
17	0x3c7ea4b0	0.015542194
18	0xbedfbe8a	-0.43700057
19	0x3f8ce207	1.1006478
20	0xbefe2e3c	-0.4964465
21	0xbece3fb2	-0.4028297
22	0xbf350e05	-0.7072452
23	0x3f26c2f8	0.6514125
24	0xbf0e9dd6	-0.5570959
25	0x3f89dce9	1.0770541
26	0xbee20545	-0.44144645
27	0x3f5c38db	0.86024255
28	0xbf0c3d44	-0.54780984
29	0xbe80070f	-0.25005385
30	0x3f9e7d4a	1.2381985
31	0x3fd26953	1.6438392
32	0x3f864d5b	1.0492357
33	0xbe878add	-0.26473132
34	0xbebd308a	-0.36951095
35	0x3f31cf2a	0.6945673
36	0x3ec69f27	0.387933
37	0xbe427563	-0.18990092
38	0x3f141867	0.57849735
39	0xbe4d1a57	-0.20029579
40	0xbf06b6fd	-0.5262297
41	0x3fe1d6bc	1.7643657
42	0x3f481e7f	0.78171533
43	0xbf003e97	-0.50095505
44	0x3f7afcac	0.98041797
45	0xbf1216f6	-0.57066286
46	0xbecf2b6c	-0.40462816
47	0xbefeafd3	-0.49743518
48	0x3fc73f2b	1.5566152
49	0x3f11c0c1	0.56934744

18 f4 [15, 100]
0	0x3ffbb0c4	1.966332
1	0x406944e0	3.6448288
2	0x4088c54b	4.2740836
3	0xc050e47e	-3.263946
4	0x4090cbdc	4.524885
5	0x3fdf01db	1.7422441
6	0x401c1cb6	2.4392524
7	0x40873eb1	4.2264028
8	0x40135c10	2.302494
9	0xc0605c17	-3.5056207
10	0x408ab4a4	4.334551
11	0x4053b1f7	3.307737
12	0xc07cf37c	-3.952361
13	0x40210ce7	2.5164125
14	0x40a77e68	5.2341805
15	0xc0336c7d	-2.8034966
16	0x3edacf44	0.42736256
17	0xc017ae3f	-2.3700101
18	0x405f8484	3.492463
19	0xc0045a68	-2.068018
20	0xc06842af	-3.62907
21	0x407493b0	3.8215141
22	0xc0149eaf	-2.3221853
23	0x3efefe4c	0.49803388
24	0xbfaf47d8	-1.36938
25	0x400717f1	2.1108363
26	0xc03332f2	-2.7999845
27	0xc04dfbc8	-3.2184925
28	0xc0367c13	-2.851323
29	0x4097c07a	4.7422457
30	0x409ccb83	4.8998427
31	0x408621c5	4.1916223
32	0x3ff129ba	1.8840859
33	0x40924361	4.570725
34	0x403e7ae7	2.9762514
35	0x404f172e	3.2357898
36	0x405c3841	3.4409335
37	0x402af1a1	2.6709979
38	0x408e664d	4.449988
39	0x409eca31	4.9621816
40	0x409ad257	4.8381763
41	0x40854c67	4.1655765
42	0x408be0eb	4.371206
43	0x4042f231	3.0460322
44	0x3f70fb46	0.9413341
45	0xc04d550d	-3.208316
46	0x40816644	4.0437336
47	0x409d45a5	4.9147515
48	0x402ba47b	2.681914
49	0x40099de7	2.1502626
50	0xc015df4b	-2.3417537
51	0xc0330cbf	-2.797653
52	0xc06b4244	-3.6759195
53	0x40096654	2.1468706
54	0x402d2f57	2.7060144
55	0x405906f6	3.3910499
56	0xc04c114e	-3.1885562
57	0x4085eba9	4.185017
58	0x40783c6e	3.8786883
59	0x4093724c	4.6077023
60	0x40856d47	4.1695895
61	0x4084a545	4.1451745
62	0xc05969f4	-3.3970919
63	0x400d5e52	2.2088819
64	0x401e5fc8	2.474596
65	0xc06da2e8	-3.713068
66	0xc02975c4	-2.6478128
67	0x3fd29dda	1.6454422
68	0xc05a429b	-3.4103153
69	0x40164114	2.347722
70	0xbf46ff72	-0.7773353
71	0x40903937	4.506984
72	0x4082fb63	4.093187
73	0x3ffa77fe	1.9567869
74	0xc032d802	-2.794434
75	0x4096fb28	4.7181587
76	0x3fef2717	1.8683804
77	0x4066d503	3.6067512
78	0x408aae7b	4.333799
79	0x4053ef01	3.3114626
80	0xc00f6eba	-2.2411332
81	0xbfbf2355	-1.4932657
82	0x400dee3a	2.2176652
83	0x4000f87c	2.0151663
84	0xc04c5470	-3.1926537
85	0x409a370d	4.81922
86	0x408cb823	4.3974776
87	0x40968985	4.704287
88	0x407b461b	3.926154
89	0x401915a0	2.391945
90	0xc075d6f7	-3.8412454
91	0xc038f9f0	-2.890255
92	0xc01d13cb	-2.454333
93	0x40387bbb	2.882552
94	0xc0582010	-3.376957
95	0xc03d0280	-2.9532776
96	0xbef92d95	-0.4866759
97	0x400115b8	2.0169506
98	0xc05ff7b3	-3.4994934
99	0xc06f653f	-3.7405546
100	0x3d8e448d	0.06946669
101	0xbd825526	-0.06363897
102	0xbd3556ed	-0.044272352
103	0x3b37c4f8	0.0028040987
104	0xbd01e782	-0.031714924
105	0xbc2da73a	-0.010598952
106	0x3d5b6e30	0.05357188
107	0xbdadaf43	-0.08480694
108	0x3de8b2c3	0.11362221
109	0x3cb33bea	0.021879155
110	0x3d119802	0.035545357
111	0x3b87428b	0.0041278056
112	0x3b7247ac	0.003696899
113	0x3db416c3	0.08793404
114	0xbbe950ec	-0.0071202423
115	0xbcc6f96c	-0.024288855
116	0x3dd467d6	0.10371368
117	0x3b1175f7	0.0022195557
118	0xbb5f4048	-0.0034065414
119	0x3dd469ec	0.103717655
120	0xbd7ca020	-0.061676145
121	0xbd86b252	-0.06576981
122	0x3abc3158	0.0014357967
123	0x3c93028e	0.017945554
124	0x3e5d7cd1	0.21629645
125	0x3dc285ec	0.094982
126	0xbb504332	-0.0031778333
127	0xbad8e927	-0.0016548977
128	0xba804626	-0.0009786531
129	0xbd459410	-0.048236907
130	0xbbc842d8	-0.006111484
131	0x3d5b68b3	0.053566646
132	0x3dd5c738	0.104383886
133	0xbae781aa	-0.0017662544
134	0x3d42274b	0.047400754
135	0x3cfb6b8b	0.030690929
136	0xbc87b762	-0.016566936
137	0x3d9e4d8e	0.07729636
138	0xbd371870	-0.04470104
139	0xbb2cdf08	-0.0026378054
140	0xbb083104	-0.0020781169
141	0x3a82b93e	0.0009973419
142	0xbac0b652	-0.0014702773
143	0xbd2364dc	-0.03989111
144	0x3dc1f66f	0.094708316
145	0x3bec9a0b	0.007220512
146	0xbd121414	-0.03566368
147	0xbc94a400	-0.018144608
148	0xbd0c0744	-0.034186617
149	0xbc9b467d	-0.01895451
150	0x3c10e42a	0.008843461
151	0x3b520d0b	0.0032051231
152	0x3b667f33	0.0035171031
153	0x3df3f2db	0.119115554
154	0xbd7852f8	-0.060626
155	0xbc355b3d	-0.011069116
156	0xbc433160	-0.011913627
157	0xbc87e3bc	-0.016588084
158	0xbc80b16b	-0.0157096
159	0xbb753296	-0.0037414185
160	0x3ca6c806	0.02035905
161	0xbd66c9f6	-0.05634495
162	0x3b445d5e	0.0029962878
163	0x3dc4a3d2	0.09601559
164	0xbd5d009c	-0.05395566
165	0x3bc8323c	0.006109504
166	0xb95b614c	-0.00020921713
167	0x3d11d6d2	0.03560526
168	0x3c0c7606	0.008573061
169	0x3d1bccf9	0.038037274
170	0x3d7c49be	0.061593764
171	0xbbaf0637	-0.005341317
172	0xbd5b08b8	-0.05347511
173	0x3dd9edf5	0.1064109
174	0xbc1e407b	-0.009658928
175	0xbbf2fb1c	-0.0074151885
176	0x3d45929e	0.04823553
177	0x3be485c3	0.0069739535
178	0xba35613c	-0.0006919091
179	0xbc955af9	-0.018231856
180	0x3d955f46	0.072935626
181	0x3d7cd617	0.06172761
182	0x3d7e4892	0.062080927
183	0x3dfadd5f	0.122492544
184	0x3ccf4ecb	0.025306126
185	0xbadd9f98	-0.0016908525
186	0xbd074f6c	-0.033034727
187	0xbd7fb137	-0.062424865
188	0xbd19aebb	-0.03752015
189	0x3d841b1b	0.064504825
190	0x3c9d696c	0.019215308
191	0x3b676f69	0.0035314208
192	0x3b0341eb	0.0020028304
193	0xbb7e0b38	-0.003876401
194	0xbb72e1e6	-0.0037060915
195	0xbd01c379	-0.031680558
196	0x3dbfa35d	0.09357331
197	0x3d377c08	0.04479602
198	0xbbaf773d	-0.0053547905
199	0xbb093d90	-0.0020941235
200	0x3e939e97	0.28831932
201	0x3d6b81c3	0.057496797
202	0xbe314e88	-0.17315114
203	0xbe08f841	-0.13375951
204	0x3e2bfad3	0.167949
205	0xbf23fc37	-0.64056724
206	0xbdabaade	-0.083822
207	0xbe322999	-0.17398681
208	0xbe0ee306	-0.1395379
209	0x3dc9f985	0.09862045
210	0x3dbcbf03	0.0921612
211	0xbe46a887	-0.19400226
212	0x3dffd185	0.124911346
213	0x3ec60453	0.38675174
214	0xbd30275b	-0.043006282
215	0xbe412aaa	-0.18863931
216	0x3d9fec48	0.07808739
217	0xbc2175a2	-0.009854706
218	0x3ee27fb8	0.44238067
219	0x3ec380a3	0.3818408
220	0xbc952d02	-0.018209938
221	0x3e2b1447	0.16706954
222	0xbe95acdf	-0.29233453
223	0xbe0e94a0	-0.13923883
224	0x3e7f06f9	0.24905004
225	0xbd164c28	-0.036693722
226	0xbee1aa92	-0.44075447
227	0x3dbcab86	0.09212403
228	0xbe17b456	-0.14814886
229	0xbe3353fa	-0.17512503
230	0xbda8bd23	-0.082392
231	0x3e10765c	0.1410765
232	0x3e789516	0.24275622
233	0x3e82aa04	0.25520337
234	0x3e00b1c4	0.12567812
235	0xbd1174d8	-0.03551182
236	0xbebfeec1	-0.37486842
237	0x3dad4888	0.084611
238	0x3dd7fef4	0.10546675
239	0xbe8fbc4a	-0.2807334
240	0x3eaa4693	0.3325697
241	0x3dfd80bb	0.12378069
242	0x3e0824c5	0.13295276
243	0xbe913e4f	-0.2836785
244	0x3e7307b8	0.23733413
245	0x3e00179d	0.12509008
246	0xbc648299	-0.0139471525
247	0xbe8c48e1	-0.27399352
248	0x3dbecfac	0.09316954
249	0x3e07d76b	0.13265769
250	0xbd1924b5	-0.037388522
251	0xbdfab974	-0.122424036
252	0x3d5604c7	0.05225065
253	0x3d55fa64	0.052240744
254	0x3d80f4be	0.06296681
255	0x3e5d534d	0.21613808

19 f4 [100, 50]
0	0x3e9c5403	0.30532846
1	0xbf6d10b9	-0.9260364
2	0x3e364286	0.17798814
3	0x3e8b2073	0.27173194
4	0x3d7e9e6e	0.06216281
5	0xbd928f39	-0.07156224
6	0xbbfa8bb0	-0.0076460466
7	0xbdf9b281	-0.1219225
8	0x3e9f89e0	0.31159878
9	0xbeb81a76	-0.35957688
10	0xbe799b9c	-0.24375767
11	0xbe86a6f2	-0.26299244
12	0xbf33cbbf	-0.70232767
13	0x3ddf769d	0.109112956
14	0xbe58eec2	-0.21184829
15	0x3e14e4e7	0.14540444
16	0x3cdc5077	0.026893837
17	0x3f493736	0.7859987
18	0x3deb5adc	0.114919394
19	0xbeaca291	-0.33717778
20	0x3e9d70c6	0.30750102
21	0x3df51cca	0.11968382
22	0x3e5f482b	0.21804874
23	0xbdaf5ec2	-0.085629955
24	0x3e4a4c76	0.1975573
25	0xbec828e5	-0.390937
26	0x3e05cb9a	0.13065949
27	0xbe96ca61	-0.29451278
28	0x3d0e8d06	0.03480246
29	0x3e36eabf	0.17862986
30	0xbee5c4a4	-0.44876587
31	0xbf87ed85	-1.061936
32	0xbe630a06	-0.22171792
33	0x3eb22111	0.34790853
34	0x3e4dbd0a	0.20091644
35	0xbeb2f1c7	-0.34950086
36	0xbdc06cec	-0.09395775
37	0x3eceaeda	0.40367776
38	0x3e71aa14	0.23600036
39	0x3e41d974	0.18930608
40	0x3d6bcc2a	0.057567753
41	0xbf98de4e	-1.1942842
42	0xbee2d320	-0.443017
43	0xbc8d8ff7	-0.017280562
44	0xbef4551d	-0.47721186
45	0xbc8e4070	-0.01736471
46	0x3e22bfbe	0.15893456
47	0x3e413636	0.18868336
48	0xbf4ed8ae	-0.80799377
49	0xbe3b162b	-0.18270175
50	0xbda06a70	-0.07832801
51	0xbf750573	-0.9571144
52	0x3e4d06f5	0.20022185
53	0xbfa02591	-1.2511464
54	0xbf8f0afa	-1.1175225
55	0x3cda0edc	0.026618414
56	0x3e0e7e13	0.13915281
57	0xbf830176	-1.0234821
58	0xbf5b4f8f	-0.8566827
59	0xbeb7463a	-0.35795766
60	0x3deb0e3b	0.114773236
61	0xbf8c8c48	-1.098031
62	0xbfa4ad1d	-1.286533
63	0x3dc3c8a9	0.09559757
64	0xbeb03f2b	-0.34423193
65	0xbf80d9ad	-1.0066429
66	0x3c52e26d	0.012871367
67	0xbf4c322b	-0.7976405
68	0xc002c80b	-2.0434597
69	0xbf5b0fc5	-0.8557094
70	0x3f7cca8d	0.9874657
71	0xbe47c11f	-0.19507264
72	0x3e312db7	0.17302595
73	0xbf987209	-1.1909801
74	0x3f3cbf0d	0.7372902
75	0xbfb1270c	-1.3840041
76	0x3edeca99	0.43513945
77	0xbf673bd7	-0.90325683
78	0x3d05c5ae	0.032659225
79	0x3f9f71dd	1.2456623
80	0xbf87324b	-1.0562223
81	0xbf84560e	-1.0338762
82	0xbf9d5af5	-1.2293383
83	0xc010846f	-2.258083
84	0x3e6c3e75	0.230707
85	0xbfa08712	-1.254122
86	0xbf8ffbb4	-1.1248689
87	0xc00ed37a	-2.2316575
88	0xbfb448c5	-1.4084707
89	0xbe3311eb	-0.17487304
90	0x3ee59e16	0.44847172
91	0xbf6fdf01	-0.9369965
92	0xbf859103	-1.0434879
93	0x3f252e33	0.6452362
94	0xbf6506b6	-0.89463365
95	0x3f8920a1	1.0713083
96	0xbdbc8455	-0.09204928
97	0x3eb73e69	0.35789803
98	0xbf4e39b6	-0.8055681
99	0xbfad148b	-1.3521894
100	0xbd92b9f2	-0.071643725
101	0x3e419f46	0.18908414
102	0x3a930507	0.0011216708
103	0xbe7e714d	-0.24847908
104	0xbe85aecd	-0.26109925
105	0xbf275894	-0.65369534
106	0xbf2a5ac9	-0.6654478
107	0xbf98a709	-1.1925975
108	0xbdba3535	-0.0909218
109	0xbd3cf5c3	-0.046132814
110	0xbf0455d2	-0.5169345
111	0x3e191ddf	0.14952801
112	0x3e8141ec	0.25245607
113	0xbe59e27a	-0.212778
114	0x3e29590a	0.16537872
115	0x3ea675ba	0.32511693
116	0xbd896cbf	-0.06710195
117	0xbe3c4c0d	-0.18388386
118	0x3da327ac	0.07966551
119	0x3e251c47	0.16124068
120	0xbdacd10a	-0.084383085
121	0xbdf1b0e9	-0.11801321
122	0x3d3b7a2d	0.045770813
123	0x3f1ad754	0.60484815
124	0xbe9c31cf	-0.3050675
125	0x3e9caeaf	0.30602023
126	0xbe52b0d9	-0.20575275
127	0x3e995fd2	0.29955918
128	0xbe641916	-0.22275195
129	0xbdeea883	-0.11653235
130	0x3e9326f9	0.2874067
131	0x3ea95ecd	0.3308014
132	0x3e2ea086	0.17053422
133	0xbe2ab170	-0.1666925
134	0xbee5f75d	-0.44915286
135	0xbe13698d	-0.14395733
136	0x3f128930	0.5724058
137	0x3d18ce0d	0.03730588
138	0xbe2cca7f	-0.16874121
139	0xbdae7c1d	-0.085197665
140	0xbef1771f	-0.47161195
141	0x3e5014b5	0.20320399
142	0x3d9edbf1	0.07756794
143	0xbec233a3	-0.3793002
144	0x3f195b4b	0.59904927
145	0xbd5d276d	-0.053992677
146	0xbdf3c95f	-0.11903643
147	0xbeca9731	-0.39568475
148	0x3ce29536	0.02765904
149	0xbd373910	-0.044732153
150	0xbf00bff4	-0.502929
151	0x3f7a83b6	0.97857225
152	0xbef902c9	-0.48634937
153	0xbf342027	-0.7036156
154	0x3fcc3292	1.5952933
155	0x3e2c630d	0.1683466
156	0xbed8a877	-0.42316028
157	0x3f961ad2	1.1726935
158	0xbf1d01b3	-0.6133072
159	0x3edc1545	0.42984977
160	0xbd5ccb4a	-0.05390481
161	0x3f8cb772	1.0993483
162	0x3fa84be7	1.3148164
163	0xbf1d33e3	-0.614073
164	0x3e28e0ac	0.16491956
165	0x3f562a2f	0.8365812
166	0xbf1942d2	-0.59867585
167	0xbee0b048	-0.43884492
168	0xbf55e980	-0.8355942
169	0x3f736a56	0.9508413
170	0xbf36bbc1	-0.7138024
171	0xbec56490	-0.38553286
172	0xbf16dd8c	-0.58931804
173	0x3fbb0763	1.4611629
174	0xbed51a17	-0.41621467
175	0x3f69bf91	0.9130793
176	0xbe64fd3b	-0.22362225
177	0x3f8b2140	1.0869522
178	0xbebc8cd4	-0.36826193
179	0xbde8d4e2	-0.11368729
180	0x3f531d4a	0.82466567
181	0x3f556ecd	0.83372194
182	0x3f7f35ae	0.99691284
183	0xbf15833a	-0.5840336
184	0xbeaa0f8c	-0.33214986
185	0x3fa9d781	1.3268892
186	0x3f2c1c64	0.6723082
187	0xbf206f39	-0.6266971
188	0x3fbab64a	1.458688
189	0xbebdf59e	-0.37101454
190	0xbe14c0e9	-0.14526714
191	0x3f5e9f9d	0.869623
192	0x3fa21c96	1.2664974
193	0xbe6a1ce2	-0.2286258
194	0x3fa33e60	1.275341
195	0xbdc10de6	-0.09426479
196	0xbefa7cf4	-0.48923457
197	0xbec0367b	-0.37541565
198	0x3f544e76	0.8293222
199	0x3fb1c5cc	1.3888488
200	0xbcfc0a17	-0.03076653
201	0xbef571b8	-0.47938323
202	0x3dd49437	0.10379832
203	0xbd6b28f7	-0.057412114
204	0xbefb98ba	-0.4913996
205	0xbe150ea6	-0.14556369
206	0x3d01ca7d	0.03168725
207	0xbf212cab	-0.6295878
208	0x3dabc09f	0.08386349
209	0xbe239d00	-0.1597786
210	0xba52051f	-0.00080116274
211	0xbee5ddf9	-0.44895914
212	0xbec26e2c	-0.3797468
213	0x3e317926	0.1733137
214	0xbc191c66	-0.00934515
215	0xbef916c5	-0.48650184
216	0xbda16865	-0.0788124
217	0xbc060e28	-0.008182086
218	0x3e004e46	0.12529859
219	0xbf3070a6	-0.6892189
220	0xbc5d9a6c	-0.013525587
221	0xbd006ee2	-0.031355746
222	0x3e2779cc	0.16355056
223	0xbf309f47	-0.6899304
224	0xbd265ba2	-0.04061473
225	0xbf38cb17	-0.7218489
226	0xbc928d5f	-0.017889677
227	0xbed488a5	-0.41510502
228	0x3dd6f5d0	0.10496104
229	0xbd1d7596	-0.038442217
230	0xbeecabc5	-0.462248
231	0xbf280ed3	-0.6564762
232	0xbe9a63d2	-0.30154282
233	0x3d1a9e53	0.037748646
234	0x3e28df0f	0.1649134
235	0xbf1961dd	-0.5991495
236	0xbf185800	-0.5950928
237	0x3ddf89f7	0.109149866
238	0xbf006421	-0.50152785
239	0x3b1e5aa8	0.0024162922
240	0x3dad3999	0.084582515
241	0xbf4898b6	-0.7835802
242	0xbe9f60f1	-0.31128648
243	0x3df39b60	0.1189487
244	0xbf023e12	-0.5087596
245	0x3b27e94c	0.0025621234
246	0xbc368085	-0.01113904
247	0xbd913b95	-0.070914425
248	0xbefe99eb	-0.49726805
249	0xbea3424b	-0.31886515
250	0xbe5da88c	-0.21646327
251	0x3f5e58fd	0.86854535
252	0xbf2be609	-0.6714788
253	0xbf029c81	-0.51020056
254	0x3eeb5eb9	0.45970705
255	0xbf4126aa	-0.7544962

20 f4 [50, 1]
0	0x3c874bde	0.016515668
1	0xbce326a1	-0.02772838
2	0x3c22e3d8	0.0099420175
3	0x3cb1489c	0.021641068
4	0xba8b79dc	-0.0010641175
5	0xbda909ab	-0.08253797
6	0xbc07489d	-0.008257058
7	0xbba89f17	-0.005145918
8	0x3d0cfd38	0.034421176
9	0xbd321e0c	-0.043485686
10	0xbd806ecc	-0.06271133
11	0xbccff4cc	-0.025385283
12	0xbd40d3ef	-0.047077116
13	0x3c191c3d	0.009345111
14	0xbdb96d9a	-0.09054108
15	0xbcfeaab7	-0.031087263
16	0x3d56e24f	0.05246192
17	0x3cc95701	0.02457762
18	0x3ca861c2	0.020554427
19	0xbd51e047	-0.05123928
20	0x3d1b3ab7	0.03789779
21	0x3d112e34	0.035444453
22	0x3aa549b1	0.0012610463
23	0xbc6eee17	-0.014583132
24	0x3d1a7faa	0.037719406
25	0xbc9d4670	-0.019198626
26	0x3c52862b	0.012849371
27	0xbc0626f7	-0.008188001
28	0x3c73eb91	0.014887706
29	0x3e019389	0.12653936
30	0xbd04f93b	-0.032464247
31	0xbd1c010b	-0.038086932
32	0xbc519969	-0.0127929235
33	0x3c0ae339	0.008477026
34	0x3cbbc2db	0.022920063
35	0xbca8113c	-0.02051603
36	0xbd7707c7	-0.06031015
37	0x3c74855b	0.014924373
38	0xbd04d49a	-0.032429315
39	0x3c9f4999	0.019444274
40	0x3d0c2360	0.034213424
41	0xbd47970e	-0.04872804
42	0xbd3bf5b4	-0.045888618
43	0x3d009ba7	0.03139844
44	0xbcc9a3ff	-0.024614332
45	0x3defe486	0.11713509
46	0x3d88cfaa	0.06680234
47	0x3cb1cfb1	0.02170548
48	0xbcb40348	-0.02197422
49	0xbcdfcca3	-0.027319258
