models/PID_ML/TPC/simple_model_321.onnx (onnx, 27305 bytes, 5 tensors)

input.bias f4 [100]
0	0xbc7ff9f1	-0.0156235555
1	0x3d5d5338	0.05403444
2	0x3cc3bb6b	0.023893079
3	0x3d478dbf	0.048719164
4	0x3de2a0df	0.1106584
5	0xbea9ff10	-0.3320241
6	0xbe486d90	-0.19573045
7	0x3dd06fdc	0.101775855
8	0x3dce1eb6	0.100644514
9	0xbe16875c	-0.14700073
10	0xbe0ac136	-0.13550267
11	0x3e94612f	0.28980395
12	0x3ccf9dfc	0.025343888
13	0x3da49427	0.0803607
14	0xbd73eef0	-0.05955404
15	0xbe8e89aa	-0.27839404
16	0xbea48f49	-0.32140568
17	0xbe784a7a	-0.2424716
18	0xbd89cb40	-0.0672822
19	0x3c684a2b	0.014177839
20	0x3e363111	0.17792155
21	0xbe8496a2	-0.25896174
22	0x3e2dfbc0	0.16990566
23	0xbcff5e37	-0.031172855
24	0x3d8abe5a	0.06774588
25	0x3d62d4c3	0.055378687
26	0xbd67ef65	-0.05662479
27	0xbe7738b5	-0.24142726
28	0xbe4a593e	-0.19760606
29	0xb9ddd932	-0.00042314228
30	0x3e0b61c8	0.1361152
31	0xbdf27ffd	-0.11840818
32	0xbd06f1ce	-0.032945447
33	0xbda50c95	-0.080590405
34	0xbe830fba	-0.25597936
35	0xbe0a7cf7	-0.13524233
36	0x3e0a9a6a	0.13535467
37	0xbe1f7ad6	-0.15574202
38	0x3d9fa732	0.07795562
39	0xbdcdd3ed	-0.10050187
40	0x3e5f2800	0.21792603
41	0x3d6f6390	0.05844456
42	0xbe4d62f6	-0.20057282
43	0x3d8c5749	0.06852586
44	0xbe74e2c2	-0.23914626
45	0xbdb26aff	-0.08711814
46	0xbeb01f86	-0.3439905
47	0xbea425d1	-0.32060102
48	0x3e306298	0.1722511
49	0x3e937790	0.28802156
50	0xbe999584	-0.29996884
51	0xbe3e024a	-0.1855556
52	0x3e49b735	0.19698794
53	0x3bd35bc7	0.0064501497
54	0xbd927804	-0.071517974
55	0xbc5006c3	-0.012696925
56	0x3e60d43d	0.21955962
57	0xbd026dce	-0.031843
58	0xbdbff34a	-0.093725756
59	0xbd2acdb6	-0.041700087
60	0x3e4f5e1b	0.20250742
61	0xbc876082	-0.01652551
62	0xbe1b91e9	-0.15192379
63	0xbc8deef0	-0.017325848
64	0x3cb4cf6d	0.022071565
65	0x3cdf9f20	0.027297556
66	0xbd060fef	-0.03273004
67	0x3e33e607	0.17568217
68	0xbedc30d5	-0.43006006
69	0xbe5ba6bf	-0.21450327
70	0xbed29b74	-0.41134226
71	0xbe1af787	-0.15133487
72	0xbe9617be	-0.2931499
73	0xbd1c23ee	-0.038120203
74	0xbe80cfff	-0.25158688
75	0x3ca4aae5	0.02010102
76	0xbdb56965	-0.08857993
77	0x3c4e56a3	0.012593898
78	0xbe51aaf8	-0.20475376
79	0xbeaa7e23	-0.3329936
80	0xbd9a4d7c	-0.0753431
81	0x3e32f282	0.17475322
82	0xbac4365c	-0.0014969814
83	0x3e59a574	0.21254522
84	0xbda8d383	-0.08243468
85	0xbe81c599	-0.25346068
86	0xbe3adf3f	-0.18249224
87	0x3d8ff9a0	0.07030034
88	0xbe2f4a66	-0.17118225
89	0xbcd9fca9	-0.026609736
90	0xbe783b27	-0.24241315
91	0xbe77b708	-0.24190915
92	0x3dbea159	0.093081184
93	0x3e2d6e79	0.16936673
94	0xbdd18ab9	-0.10231537
95	0xbe101dd4	-0.14073879
96	0xbeb90676	-0.36137742
97	0xbe10e79d	-0.14150853
98	0x3e0774b5	0.13228114
99	0x3e04a6df	0.12954281

l_2.bias f4 [50]
0	0x3f598921	0.8497487
1	0x3f194ab6	0.59879625
2	0xbfb687e3	-1.4260219
3	0xbfb2838c	-1.3946395
4	0xbeef161e	-0.46696562
5	0xbef40430	-0.47659445
6	0xbf053007	-0.5202641
7	0xbf3cb7eb	-0.73718137
8	0x3f2fe0a5	0.68702155
9	0x3f4d9676	0.8030771
10	0xbf33fff2	-0.70312417
11	0xbecedfbf	-0.4040508
12	0x3f407392	0.75176346
13	0x3f43a88b	0.7642905
14	0x3f504b54	0.8136494
15	0xbf0f102e	-0.55884063
16	0xbf18fc5b	-0.59760064
17	0xbf3c43db	-0.7354104
18	0xbf3aacad	-0.7291973
19	0x3f2447fe	0.6417235
20	0xbf399504	-0.72493005
21	0xbf398f31	-0.7248412
22	0xbf181081	-0.5940018
23	0x3f1fd3a8	0.62432337
24	0x3f3f001a	0.7460953
25	0xbfbe8ba6	-1.4886367
26	0xbeb5b8d2	-0.3549257
27	0xbf0c0cdb	-0.54707116
28	0xbf551de2	-0.8324872
29	0x3f2714e6	0.65266263
30	0xbe4e3ff6	-0.20141587
31	0xbe51d893	-0.20492773
32	0x3f473480	0.77814484
33	0xbfb5a3d8	-1.4190626
34	0xbf44257e	-0.7661971
35	0xbf699814	-0.9124768
36	0x3f061e9e	0.5239047
37	0x3f26b3db	0.6511819
38	0xbe43e543	-0.19130425
39	0xbf3c0772	-0.7344886
40	0xbf30d461	-0.69074064
41	0x3f27983c	0.65466666
42	0xbed671e4	-0.41883767
43	0xbf14f15a	-0.58180773
44	0x3f3dc3c3	0.74126834
45	0x3f14ad52	0.58076966
46	0xbf83c025	-1.0293013
47	0xbf53569f	-0.8255405
48	0xbfbd8d02	-1.4808657
49	0x3f3480ed	0.70509225

18 f4 [15, 100]
0	0xc086bab7	-4.2102923
1	0xc0851bf4	-4.1596622
2	0x3fabfe60	1.3437004
3	0x3f175e06	0.59127843
4	0x3ff80ac4	1.9378285
5	0xc0aa7d38	-5.3277855
6	0xc03230d8	-2.7842312
7	0xc08a9770	-4.330986
8	0x3fd7aff6	1.6850574
9	0x3fa53b89	1.2908794
10	0x403d266b	2.9554698
11	0x3fa8ecd0	1.319727
12	0x3fa6151f	1.2975196
13	0x400065bb	2.0062091
14	0x3ffe8250	1.9883518
15	0x3fee36c8	1.8610468
16	0xc02ed879	-2.7319624
17	0xc08185f3	-4.047601
18	0xc031bd1f	-2.777168
19	0x4039cd00	2.9031372
20	0x404ac061	3.1679919
21	0x402df230	2.717907
22	0x3fa90a5e	1.3206289
23	0xc086d213	-4.213144
24	0x3fdf5b12	1.7449667
25	0x400b83b4	2.1799135
26	0x404eeeeb	3.2333324
27	0x40603fc0	3.503891
28	0x3fe9bc0e	1.8260515
29	0x3fd63bc5	1.673699
30	0x3fbf1434	1.492804
31	0xc096a66c	-4.707815
32	0x4015120d	2.3292267
33	0x3fe64ef9	1.799285
34	0x4051f2c7	3.280443
35	0x3f20d430	0.6282377
36	0x4012bffc	2.2929678
37	0x3fb9deae	1.4521081
38	0x401148dc	2.270072
39	0x3fffb234	1.9976258
40	0x3f9328d4	1.1496835
41	0x40564264	3.3478022
42	0x4003af08	2.057558
43	0xbfb83048	-1.4389734
44	0x3fb4a416	1.4112575
45	0x405036aa	3.2533364
46	0xc090b9c3	-4.522676
47	0x4024a892	2.5727887
48	0xbcea9536	-0.028635602
49	0x3f5a15b1	0.8518935
50	0x3f944eee	1.1586587
51	0x401a9d00	2.4158325
52	0x3f40a7d8	0.7525611
53	0xc087ee48	-4.247837
54	0x40612c57	3.5183313
55	0x3fa2eb35	1.272803
56	0x3feac281	1.8340608
57	0x407597fc	3.8374014
58	0xc0812641	-4.0359197
59	0x3f6b5b2e	0.91936004
60	0xc0207992	-2.50742
61	0xc0705ed4	-3.7557878
62	0xc08e0540	-4.438141
63	0x3f8452a5	1.0337721
64	0x402ceb40	2.7018585
65	0x4039af37	2.9013193
66	0x3fae2c6b	1.3607305
67	0xc0591c19	-3.39234
68	0xbfc2b252	-1.5210669
69	0xc063e359	-3.5607512
70	0xc0021b16	-2.0329032
71	0xc0395164	-2.8955927
72	0x402a39ae	2.6597705
73	0xbfd82764	-1.6887021
74	0x405edb67	3.4821413
75	0x404af1b5	3.1710026
76	0x3fcf718e	1.6206529
77	0x3fde5d75	1.7372271
78	0x4020dbd3	2.513417
79	0x3fb71257	1.4302472
80	0x4050a361	3.2599719
81	0xc070ac0d	-3.7605011
82	0x4052f643	3.2962806
83	0x3f88dcdf	1.0692405
84	0x40598803	3.3989265
85	0x40577a70	3.366848
86	0x406cae52	3.6981397
87	0x3fa0db7f	1.2566985
88	0xc0856516	-4.1685896
89	0xc07fb199	-3.9952147
90	0x40495ae4	3.1461725
91	0x4058eb9d	3.3893807
92	0xbfc3feee	-1.5312173
93	0x40496a33	3.147107
94	0x3f9719cc	1.1804748
95	0x40419fe2	3.0253835
96	0x3f5ed5d8	0.8704505
97	0x4061b2e8	3.5265446
98	0x4053e4e7	3.310846
99	0x401d1df8	2.4549541
100	0xba6ca5ae	-0.0009027374
101	0x3c1452d7	0.009052954
102	0x3d0803e2	0.033206828
103	0x3c4f5021	0.012653382
104	0x3cfa9b94	0.030591764
105	0x3c04651c	0.008080747
106	0xbd4a3a00	-0.04937172
107	0x3b295d09	0.0025842807
108	0x3d0b25eb	0.03397171
109	0xbc3145de	-0.01081988
110	0x3d5b1746	0.053488992
111	0x3cb4a614	0.022051848
112	0xbc89aafc	-0.016805165
113	0x3d65efcd	0.056136895
114	0x3cc363e6	0.023851346
115	0x3ce38a20	0.027775824
116	0x3bf0bf06	0.0073469905
117	0x39cbc1e3	0.00038863634
118	0xba82d5b0	-0.0009981897
119	0x3d772a74	0.06034322
120	0xbd6c1b90	-0.057643473
121	0x3d6e5a6b	0.058191698
122	0x3c8c8efe	0.017158028
123	0x3b8064ef	0.003918282
124	0x3cc7d35f	0.024392782
125	0x3ccddea6	0.025130581
126	0xbc863610	-0.0163832
127	0x3c16af56	0.009197077
128	0x3d0292e2	0.03187836
129	0xbd3fe7d9	-0.046851967
130	0x3cb78490	0.022402078
131	0x3be54848	0.006997142
132	0x3ce5883a	0.02801906
133	0xbc3ed37d	-0.011647102
134	0xbd10b629	-0.03532997
135	0xbb8db0db	-0.0043240613
136	0x3c5dd332	0.013539122
137	0xbb0a7c41	-0.002113119
138	0x3cf93322	0.03041989
139	0xbc139ab5	-0.009009053
140	0x3ca9b390	0.020715505
141	0x3bb491e4	0.0055105556
142	0xbbb64207	-0.0055620703
143	0x3bd5ca25	0.0065243416
144	0xbd33d682	-0.043905742
145	0xbc71209c	-0.014717247
146	0x3c303d72	0.010756837
147	0x3d941e2c	0.07232317
148	0x3c89a74e	0.01680341
149	0x3bd917c5	0.006625148
150	0x3c949d75	0.018141488
151	0x3d74b5c5	0.05974366
152	0x3bc538e8	0.0060187466
153	0x3c1a52c6	0.009419149
154	0xbd7dcc55	-0.061962444
155	0x3c780105	0.015136962
156	0x3ce7fb7d	0.028318161
157	0x3a08106d	0.0005190436
158	0xb7c2bdde	-2.3215016e-05
159	0xbba7accf	-0.005117036
160	0xba5ebe95	-0.0008497027
161	0x3bcc0dd4	0.0062272344
162	0x3baed11d	0.005334987
163	0xbd4caf95	-0.049972136
164	0x3dae6302	0.08514978
165	0x3d0719c2	0.03298355
166	0x3cc29f43	0.023757583
167	0xbcb7da3f	-0.022442935
168	0x3b8c3a12	0.0042793835
169	0x3bb0727d	0.005384742
170	0xbc246548	-0.010033913
171	0xbd2286ee	-0.03967946
172	0x3d52e565	0.0514883
173	0x3b945d43	0.004527719
174	0xbd476421	-0.048679475
175	0xbd652a25	-0.055948395
176	0xbce4631d	-0.027879292
177	0x3d0125cb	0.031530183
178	0x3d4e6c54	0.05039628
179	0x3d0c1b84	0.03420593
180	0xbccb70be	-0.024834033
181	0x371c947f	9.332899e-06
182	0xbd59c14f	-0.05316287
183	0x3cae5e89	0.021285312
184	0xbcc0218a	-0.023453493
185	0x3a0e4717	0.00054274633
186	0xba453302	-0.00075225544
187	0xbd7d8281	-0.061892036
188	0x3b9aec52	0.0047278786
189	0x3b0f0b61	0.002182685
190	0xbc22d44a	-0.009938309
191	0xb984d4d0	-0.0002533556
192	0x3bd34f16	0.0064486368
193	0xbd2a3dcf	-0.04156285
194	0xbcfae4ca	-0.030626673
195	0x3b9c84df	0.0047765817
196	0xbd8501cc	-0.06494483
197	0xb94884d1	-0.00019122964
198	0x3a48d8b0	0.00076616835
199	0x3cf5480b	0.02994158
200	0x3e06a385	0.13148315
201	0xbe6f82ab	-0.2338969
202	0xbc3c6476	-0.011498561
203	0x3ab5c81b	0.001386884
204	0x3ea0c721	0.31401923
205	0x3e199b4b	0.15000646
206	0xbda0d72d	-0.078535415
207	0xbd3fbeb8	-0.046812743
208	0x3e84a0f2	0.25904042
209	0x3e53331a	0.20624962
210	0x3c69848b	0.014252792
211	0x3e43d1c7	0.19122992
212	0x3e68ef13	0.2274745
213	0x3e9e6ff0	0.30944777
214	0xbcf04ad2	-0.029332552
215	0xbc2022bd	-0.009773907
216	0xbc56386e	-0.013074977
217	0xbe1363b3	-0.14393501
218	0xbe460a2c	-0.19339818
219	0x3ec3cbbe	0.3824138
220	0xbc87f023	-0.016593998
221	0x3dd0eb2f	0.10201108
222	0x3dad14f5	0.08451263
223	0xbeb9430b	-0.36183962
224	0x3e872ade	0.26399893
225	0x3ecc3526	0.398843
226	0x3ec67130	0.3875823
227	0x3e206c55	0.15666325
228	0x3ea561c6	0.32301158
229	0xbe1b5c3e	-0.15171906
230	0xbd3038ff	-0.043023106
231	0xbdd91037	-0.10598796
232	0x3dbe58ed	0.09294305
233	0x3e02085b	0.126985
234	0x3d34e2dd	0.044161666
235	0xbc62dadb	-0.0138461245
236	0x3e4b7ac2	0.19871047
237	0x3dcc8101	0.09985543
238	0x3e6c50a5	0.23077638
239	0x3e47f386	0.1952649
240	0x3d0b45fd	0.034002293
241	0x3e95a6d1	0.29228833
242	0x3e8f48ae	0.27985138
243	0xbda7374d	-0.08164845
244	0xbe8929f1	-0.2678981
245	0x3eb5cd3f	0.35508153
246	0x3d2c0c8e	0.04200416
247	0x3ed28a25	0.4112102
248	0x3e258a15	0.16165955
249	0x3e442019	0.1915287
250	0x3e9ab526	0.3021633
251	0x3cd50ae5	0.026006171
252	0x3e1fe2fb	0.1561393
253	0xbdf6456e	-0.120249614
254	0xbdacaaeb	-0.084310375
255	0x3ed5cbd2	0.41757065

19 f4 [100, 50]
0	0x3e6cded8	0.23131883
1	0x3e565a5d	0.20932908
2	0x3e892790	0.26787996
3	0x3d66fb29	0.05639187
4	0xbd41e59b	-0.04733811
5	0x3c049447	0.008091993
6	0x3d849eae	0.06475578
7	0xbd10aefe	-0.035323136
8	0x3e18f6b2	0.14937857
9	0x3e7d9ee0	0.24767637
10	0x3d6b2cb6	0.057415687
11	0x3e11a8f3	0.14224605
12	0x3e399740	0.18124104
13	0x3e3195e9	0.17342342
14	0x3cd72682	0.02626348
15	0xbe233199	-0.15936889
16	0x3df508c9	0.11964566
17	0xbd04025f	-0.032228824
18	0x3d9f3714	0.07774177
19	0x3e370a56	0.17875037
20	0x3b1c1cf5	0.002382097
21	0xbd1ec004	-0.03875734
22	0xbca375e2	-0.019953672
23	0x3f026834	0.5094025
24	0x3dd6bd85	0.10485367
25	0x3e7be92f	0.24600671
26	0x3e256446	0.16151533
27	0x3ea7b173	0.3275257
28	0xbdb92e82	-0.09042074
29	0x3e6974df	0.22798489
30	0x3e06fe90	0.13183045
31	0x3db17382	0.086646095
32	0x3d13854c	0.036015794
33	0x3de5b9cc	0.112170786
34	0x3c22edbc	0.009944376
35	0x3f3e19f6	0.74258363
36	0x3eb34d38	0.3501985
37	0x3dc17296	0.09445684
38	0x3f0940c1	0.5361443
39	0xbdfaaa40	-0.12239504
40	0xbeba5de9	-0.36399773
41	0x3e9bfb7c	0.30465305
42	0x3d41b6cc	0.04729347
43	0xbe5c01d9	-0.2148508
44	0xbc67a760	-0.014139026
45	0x3eb6bbd1	0.35690168
46	0xbe3c0b84	-0.18363768
47	0xbd9f2a01	-0.077716835
48	0x3e360ccc	0.17778319
49	0x3d8c5e3f	0.068539135
50	0x3e1c3fad	0.15258665
51	0x3ef915d8	0.48649478
52	0x3ee755cf	0.45182654
53	0x3ed8cf74	0.42345774
54	0xbf0c47c0	-0.5479698
55	0xbf1d4101	-0.61427313
56	0xbd8b5b0d	-0.06804476
57	0xbf23bf12	-0.63963425
58	0x3d8cf72f	0.06883084
59	0x3e972c53	0.29526004
60	0xbe03193b	-0.12802593
61	0x3f2f1f4d	0.68407136
62	0x3eeb6806	0.459778
63	0x3e8d91b6	0.2765023
64	0x3e35b288	0.17743886
65	0xbf664842	-0.89954007
66	0xbf1b1bbf	-0.6058921
67	0xbebf5725	-0.37371174
68	0xbdcefc94	-0.10106769
69	0x3ead1fe6	0.338134
70	0xbd29c154	-0.041444138
71	0xbe3f2554	-0.18666583
72	0xbee19c34	-0.44064486
73	0x3eb8f97c	0.3612784
74	0x3e97b9a6	0.29633826
75	0x3ee17575	0.44034925
76	0xbeb96a48	-0.362139
77	0xbea26307	-0.31716177
78	0x3dcf0dcb	0.10110053
79	0x3e839e30	0.25706625
80	0xbddf32e3	-0.10898378
81	0x3e1a35ac	0.15059537
82	0x3df9258c	0.121653646
83	0x3f1d85b6	0.6153215
84	0x3d89efeb	0.06735214
85	0x3f2e1f40	0.68016434
86	0x3ecaf959	0.39643362
87	0x3eb56538	0.35428786
88	0x3eb54095	0.35400835
89	0xbf3ac598	-0.72957754
90	0xbf4fc7a6	-0.81164014
91	0x3ead9592	0.33903176
92	0xbd5f45e1	-0.05451
93	0xbf6c91db	-0.9241006
94	0x3c2bd9c5	0.010488932
95	0x3e96f069	0.29480293
96	0x3ef6f408	0.48233056
97	0xbe050be1	-0.12992813
98	0x3f019da5	0.5063117
99	0x3d82e6ee	0.063917026
100	0xbe9c7d2a	-0.30564243
101	0xbe03c7e3	-0.1286922
102	0x3f44d433	0.7688629
103	0x3f19f7e0	0.6014385
104	0xbca7939d	-0.02045613
105	0x3d505925	0.050866265
106	0x3ea23fd7	0.3168933
107	0xbc1ace0e	-0.009448541
108	0xbe2db11d	-0.16962095
109	0xbe8e9df2	-0.27854878
110	0x3b8c22ce	0.00427661
111	0x3df87b8d	0.121329404
112	0xbe813796	-0.2523772
113	0xbe083a07	-0.13303386
114	0xbde25507	-0.11051374
115	0x3d849a99	0.064748
116	0xbd401989	-0.046899352
117	0x3d888b44	0.06667188
118	0x3c6dbba7	0.014510072
119	0xbdd92a69	-0.10603792
120	0x3da91a7c	0.082570046
121	0x3d618665	0.05505981
122	0xbcbffa7e	-0.023434874
123	0xbe2a7b9b	-0.16648714
124	0xbe83c2e4	-0.25734627
125	0x3f7d2ad9	0.98893505
126	0x3cb38cae	0.021917667
127	0x3df01ab9	0.11723847
128	0xbbf191a0	-0.007372096
129	0xbddc1429	-0.10746033
130	0x3d2e2b62	0.04252184
131	0x3e22c665	0.15895994
132	0xbe788212	-0.24268368
133	0x3f4c39f9	0.7977596
134	0x3de8ce20	0.1136744
135	0x3eb9a6e3	0.36260137
136	0xbdfd965c	-0.123821944
137	0xbdf1294d	-0.117754556
138	0xbde98153	-0.1140162
139	0x3d9a9928	0.075487435
140	0x3d3c2841	0.045936827
141	0xbd864df0	-0.06557834
142	0x3e3282bc	0.17432684
143	0x3d0b790b	0.034050982
144	0xbe5fe82e	-0.21865913
145	0xbbbb69c5	-0.005719396
146	0x3f81984f	1.0124606
147	0x3d1f4230	0.03888148
148	0x3f2cbef3	0.67478865
149	0xbe55cbd0	-0.2087853
150	0xbe836594	-0.25663435
151	0xbda45167	-0.08023339
152	0x3f5a5d64	0.8529875
153	0x3f1e88ca	0.61927474
154	0x3de6b5f9	0.11265177
155	0xbb414290	-0.0029489137
156	0x3ea1b033	0.31579742
157	0x3c3967b8	0.011316232
158	0xbe39d761	-0.18148567
159	0xbe1517e9	-0.14559902
160	0x3cd1dad4	0.02561704
161	0x3e7dc9e4	0.24784046
162	0xbebf412a	-0.37354404
163	0xbe8b0865	-0.27154842
164	0xbe9ed0fb	-0.31018814
165	0x3db82297	0.089909725
166	0x3ddcf3c4	0.10788682
167	0xbb573b84	-0.003284187
168	0x3d649647	0.05580738
169	0xbe1e88c1	-0.15481855
170	0x3c98b786	0.018642198
171	0x3d44963d	0.04799484
172	0x3df4f610	0.11960995
173	0xbe3d9c99	-0.18516769
174	0xbea2a70a	-0.31768066
175	0x3f680e72	0.9064704
176	0x3ec7adf8	0.38999915
177	0x3eabeeb4	0.33580554
178	0x3da25f8c	0.0792838
179	0xbde6923f	-0.11258363
180	0x3dab1ede	0.08355497
181	0x3e9e45b9	0.3091257
182	0xbe3fc2a2	-0.1872659
183	0x3f63904b	0.8889205
184	0x3dcacaaa	0.09901936
185	0x3f2e4682	0.68076336
186	0xbe7c5d1d	-0.24644895
187	0xbe69c7e1	-0.22830154
188	0x3d417f4e	0.047240548
189	0x3dfa6e70	0.122280955
190	0x3d3f963b	0.04677413
191	0xbeac8635	-0.33696142
192	0x3e55af74	0.20867711
193	0x3daa0461	0.083016165
194	0xbe80f112	-0.25183922
195	0xbe65c577	-0.22438608
196	0x3f425e93	0.7592556
197	0x3db88a80	0.09010792
198	0x3f4eb02c	0.80737567
199	0xbe2b5fab	-0.16735713
200	0xbe1eb360	-0.15498114
201	0xbe7e68a0	-0.24844599
202	0x3f5501d5	0.8320592
203	0x3f6d4731	0.92686754
204	0x3c338e93	0.010959285
205	0x3d6c3012	0.05766303
206	0x3ea454a8	0.32095838
207	0x3dce68d5	0.10078589
208	0xbe6e3ad7	-0.23264633
209	0xbec509ff	-0.3848419
210	0xbd550fa2	-0.05201686
211	0x3ea888fe	0.32917017
212	0xbe7a9535	-0.2447098
213	0xbe2fc384	-0.17164427
214	0xbe46ebda	-0.19425908
215	0x3d3897fc	0.04506682
216	0x3c975093	0.018471038
217	0xbc8fb5c3	-0.017542725
218	0xbd061cb2	-0.03274221
219	0xbd23a835	-0.039955337
220	0x3d02e10d	0.031952906
221	0x3d441d7a	0.047879674
222	0xbd0414ef	-0.032246526
223	0xbe8864d5	-0.2663943
224	0xbe45b5ad	-0.19307585
225	0x3f75558b	0.95833653
226	0x3ea9aece	0.33141178
227	0x3f078bff	0.5294799
228	0x3d93e581	0.07221509
229	0xbdd0efce	-0.10201989
230	0x3e40da5c	0.18833297
231	0x3eede0cc	0.4646057
232	0xbce1cd31	-0.027563663
233	0x3f5cd862	0.86267674
234	0x3da21a66	0.07915191
235	0x3eec5525	0.4615871
236	0xbe845f18	-0.258538
237	0xbe6bd0de	-0.23028895
238	0x3e0b8dd1	0.13628317
239	0x3dd24052	0.102661744
240	0xbd0cace8	-0.034344584
241	0xbe616050	-0.22009397
242	0x3ecc9a28	0.39961362
243	0x3da6f460	0.081520796
244	0xbe5d1143	-0.21588616
245	0xbe3d8b2a	-0.18510118
246	0x3f8425a8	1.0323992
247	0x3e059efb	0.13048927
248	0x3f4f5780	0.8099289
249	0xbe010beb	-0.12602203
250	0x3e77ed46	0.24211606
251	0x3f2a07b4	0.66418004
252	0x3e35514d	0.17706795
253	0x3e4172a1	0.18891384
254	0xbf5eed63	-0.87080973
255	0xbf413af7	-0.754806

20 f4 [50, 1]
0	0xbdce1645	-0.10062841
1	0xbdfd3234	-0.12363091
2	0xbc15918d	-0.00912894
3	0xbc1e124d	-0.009647918
4	0x3e2f3969	0.17111744
5	0x3e42a4c3	0.19008164
6	0x3e06850b	0.1313669
7	0x3dea3f2a	0.11437829
8	0xbdf914dd	-0.121621825
9	0xbe0936f1	-0.13399865
10	0x3e16e5f1	0.14736153
11	0x3df278ce	0.11839448
12	0xbdfc8702	-0.12330438
13	0xbdffedef	-0.12496554
14	0xbe0a84c3	-0.13527207
15	0x3e0d35d3	0.13790064
16	0x3da5f144	0.081026584
17	0x3e3d659d	0.18495794
18	0x3dca14b8	0.09867233
19	0xbe240f6d	-0.1602151
20	0x3e02eff6	0.1278685
21	0x3e24230e	0.16028997
22	0x3e0580fe	0.13037488
23	0xbdff5217	-0.12466829
24	0xbddb8847	-0.10719352
25	0xbbe3aae7	-0.0069478634
26	0x3d8babf8	0.0681991
27	0x3de600ce	0.11230622
28	0x3e05aade	0.13053462
29	0xbe1a602c	-0.15075749
30	0x3e071205	0.13190468
31	0x3ded81f1	0.1159705
32	0xbdff9b56	-0.124808
33	0xbc3170c0	-0.010830104
34	0x3dedb2e7	0.116063885
35	0x3b3943ad	0.0028269098
36	0xbdd5ea38	-0.10445064
37	0xbe146627	-0.14492093
38	0x3e167b9a	0.14695588
39	0x3e0d5e05	0.13805397
40	0x3dcbacc9	0.099450655
41	0xbde8fbb2	-0.11376132
42	0x3e03e319	0.128796
43	0x3df83126	0.12118749
44	0xbe078897	-0.13235699
45	0xbdf0d33d	-0.117590405
46	0xbc82babc	-0.015958183
47	0x3e0b5976	0.13608345
48	0xbc7133d8	-0.014721833
49	0xbe11372c	-0.14181203
