models/TPC_PID_RESPONSE/net_LHC18b_apass1_mean_large_7inputs.onnx (onnx, 19060 bytes, 31 tensors)

layers.0.fc.weight f4 [16, 7]
000000 53 a0 4d 3f 34 1c f4 3e 29 69 df bd cb a3 a4 be
       0.8032276 0.47677767 -0.109087296 -0.32156214
000010 39 36 69 be 62 3a f2 be 40 e3 dd 3e b4 e9 00 3f
       -0.2277459 -0.47310168 0.4333744 0.503566
000020 c3 a4 0e be 9c fd ad be 33 75 53 3d 63 b3 9b 3e
       -0.13930039 -0.3398255 0.05162544 0.304103
000030 b9 be 53 be 98 3b 2b be 55 0b 70 3f 5e 58 8b be
       -0.20678224 -0.16721952 0.9376729 -0.27215856
000040 84 ba 2a 3f ca df a4 be 6e 4a bf 3e f7 de ae 3e
       0.6669085 -0.32201988 0.37361473 0.34154484
000050 c9 ae f0 3d 42 dc 58 be 5b 10 ed 3d 14 d7 55 bf
       0.117520876 -0.21177772 0.11575385 -0.8353131
000060 3f 48 2a bf e0 ab 2d bf ba 8a c9 3e 31 91 55 3e
       -0.6651649 -0.67840385 0.39363652 0.20856167
000070 8c 69 66 be 7a a5 e1 be 5e 87 96 be be 44 1a 3f
       -0.225012 -0.4407156 -0.29400152 0.6026114
000080 ee 2d f9 3e 98 87 e8 3e 2e b6 fc be 96 3e e1 3e
       0.48667854 0.4541595 -0.49357742 0.43993062
000090 22 96 83 3d ab 95 07 3e 3b 2a 29 bf 0d 71 f1 bc
       0.0642512 0.13240688 -0.66080064 -0.029472852
0000a0 a9 bd e0 bc bb ca 86 bf 8e 8c 67 be 10 ec c0 be
       -0.027434187 -1.0530618 -0.22612211 -0.376801
0000b0 01 d9 d3 3e b3 63 c1 be 52 d3 44 bf e8 7c 8e bf
       0.41376498 -0.37771377 -0.7688495 -1.1131868
0000c0 8f 5c d1 be 7c 14 91 3e 26 71 96 be ee f3 84 bf
       -0.4089093 0.2833594 -0.293832 -1.0386941
0000d0 06 4d e3 bd 25 57 e2 bd 50 ad f9 3d 79 62 aa 3e
       -0.110986754 -0.11051778 0.1219126 0.33278254
0000e0 2f 8b e8 3b cb 7e db 3e c3 59 07 3e e1 05 06 3e
       0.00709667 0.42870173 0.13217835 0.1308818
0000f0 e4 c4 0b be 78 56 38 3e c3 17 d9 3e c0 55 13 bf
       -0.13649327 0.18001735 0.4240094 -0.5755272
000100 fd 82 2b 3e 62 8b b4 3d a5 ca 34 bf d0 4b cc 3d
       0.16749187 0.08815648 -0.7062171 0.099753976
000110 5b fc e9 3d 2f ee 6f 3e c9 c6 24 bf 42 84 e4 be
       0.11425086 0.23430704 -0.6436582 -0.44632155
000120 85 80 70 be b7 f2 0a 3f 6a 59 80 be af 3b 2b be
       -0.23486526 0.54276603 -0.25068218 -0.16721986
000130 6b 91 45 3f d4 7f e4 3e fc 43 4b 3e 47 d4 79 3e
       0.77175015 0.44628775 0.19850153 0.24397384
000140 47 ff 15 bd 54 37 bd 3d 08 45 29 bf 82 f4 67 be
       -0.036620405 0.092390686 -0.6612096 -0.22651866
000150 99 d2 29 be 54 aa f5 be d1 6f 38 3f 56 9d a7 3d
       -0.16584243 -0.47981513 0.7204562 0.08184306
000160 ce 76 01 bf 03 14 2f 3f 83 b7 91 be f2 93 ed 3d
       -0.50571907 0.6838991 -0.2846032 0.11600484
000170 5a f2 86 3e 4d a2 78 bd 9d 88 26 3f ba 63 98 be
       0.26356775 -0.060701657 0.65052205 -0.29763585
000180 e6 ac 3d 3f a4 01 a3 3e b6 65 25 bf 1d 23 e8 3c
       0.7409195 0.3183719 -0.64608324 0.028337056
000190 96 89 cd 3e ad d4 30 bd b1 cf bd bc b1 ae 41 bf
       0.40144032 -0.043171573 -0.023170324 -0.7565718
0001a0 1e 6c 30 be 57 7d b3 3d 59 b4 6c 3f 7a b4 26 3f
       -0.17228743 0.08764141 0.9246269 0.65119135
0001b0 f4 24 98 3e d7 9f 0f bf 0f a9 7b bf ae 60 80 bf
       0.29715693 -0.5610327 -0.9830484 -1.0029504

layers.0.fc.bias f4 [16]
000000 89 92 d4 3e a7 c5 a5 3e 94 1f e9 bc fa ee 4a be
       0.41518047 0.3237736 -0.02845744 -0.19817725
000010 bd 7a 21 be ec c7 86 3e 15 30 6d bd eb 24 8f 3e
       -0.15769477 0.26324403 -0.057907183 0.27957854
000020 ef d7 bc be 44 02 03 bf 8f 42 6f be b9 80 03 3f
       -0.36883494 -0.5117533 -0.23365234 0.5136829
000030 72 3e 54 be 8b 07 da bd 7e 21 12 be c6 09 64 3e
       -0.20726946 -0.1064597 -0.14270589 0.22269353

layers.1.fc.weight f4 [16, 16]
000000 b7 c2 39 bf a5 f9 2e bf 68 54 b6 be 70 1d 75 3c
       -0.72562736 -0.6834968 -0.35611272 0.014960632
000010 46 ae 65 3e ed be 75 bf ef 7e 1e 3f bb d9 01 be
       0.22429761 -0.95994455 0.61912435 -0.12680714
000020 04 3b b2 3e fb 1b d6 be df 55 41 3f 61 b8 bd 3d
       0.3481065 -0.41818222 0.75521654 0.09263683
000030 ec 5f 44 be 43 80 57 bf 3f e2 40 bf c1 c8 21 3f
       -0.19177216 -0.84180087 -0.75345224 0.6319695
000040 99 bf 38 3e 30 e0 10 3f 44 29 89 bf a8 39 ef bd
       0.18041839 0.5659208 -1.0715718 -0.11680919
000050 4c 8f 4c 3d 42 e9 1f 3e 71 da ff 3e 31 83 83 be
       0.049941346 0.15616325 0.49971345 -0.2568603
000060 1c 87 7a 3f 33 43 36 bd 9b d5 b5 3e 57 8f 09 3e
       0.9786241 -0.04449768 0.3551453 0.13433586
000070 ee 0a 89 be 80 3b 0e bf 79 97 20 3e 54 63 e1 3e
       -0.2676615 -0.5555954 0.15682782 0.44021094
000080 ea 13 52 3e 37 dc 35 3e 13 58 56 3e f9 2b 1c 3f
       0.20515409 0.17759787 0.20932035 0.61004597
000090 4c a2 bf be 99 f9 23 3f 97 4e 2f bf 0d 98 a1 bd
       -0.3742851 0.6405273 -0.68479294 -0.078903295
0000a0 7e 77 0a bf 3f e7 b9 bd 9a 2f bf 3d a1 91 40 3b
       -0.5408858 -0.0907731 0.09335251 0.0029383677
0000b0 43 6a 02 be e9 a6 f1 be e3 d2 4f bf a7 a1 27 3e
       -0.12735848 -0.47197655 -0.8118116 0.16370259
0000c0 e0 d8 bd be 21 92 c0 bc 47 bc 2c 3f 89 0c 9e be
       -0.37079525 -0.02350718 0.6747479 -0.3086894
0000d0 38 d9 26 be b2 c3 a9 3e c3 b1 c7 be 65 c6 d5 3d
       -0.162938 0.33157116 -0.3900281 0.104382314
0000e0 39 29 df 3e b1 fc 05 bf f4 a1 0e bf 34 f7 6d be
       0.43586138 -0.523387 -0.5571587 -0.23238832
0000f0 14 3a 82 bf cb e3 66 bf 04 36 93 be 31 6d 7f 3f
       -1.0173974 -0.90191334 -0.28752148 0.9977599
000100 47 b3 c0 bc f2 d7 8f 3e 64 67 3e be 82 e6 ea be
       -0.023522986 0.2809444 -0.18594128 -0.45878989
000110 81 3d 24 be ba d7 15 3e 5a ff b6 3e 8c 0f f3 bd
       -0.16039087 0.14633074 0.35741693 -0.118682
000120 d3 ec 49 bf 17 ca bb 3e 5f 15 3b 3e ad d3 32 be
       -0.7887699 0.3667762 0.18269871 -0.1746356
000130 da 1e 0c bd fb 8c 17 be 9e 24 c8 3e b4 a2 1d 3f
       -0.03420911 -0.14799874 0.39090437 0.6157639
000140 36 f1 34 3e 86 b4 94 bf 48 e6 ac be a2 0c 60 3e
       0.1767014 -1.1617591 -0.3376944 0.21879819
000150 f0 0a 3b be 2e 0d 5a 3e 07 f2 d4 3e e3 e2 94 bd
       -0.18265891 0.2129409 0.41590902 -0.07269838
000160 c0 a3 02 be cb da 10 3f 7a 62 28 bf 2f 51 f4 be
       -0.12757778 0.5658385 -0.65775263 -0.47718188
000170 c1 f3 7a be 22 53 de 3e a4 a8 fd bd b5 f6 8a 3f
       -0.24507047 0.434228 -0.12385681 1.0856539
000180 45 18 b5 be 12 93 09 bf aa 45 39 bd c4 13 2d 3e
       -0.3537008 -0.53740036 -0.045232452 0.16902071
000190 4c 5e e6 bd ee 7c 24 3f f7 4a b0 bd d9 bc bf 3e
       -0.112484545 0.6425313 -0.086080484 0.37448767
0001a0 b8 70 38 3f a1 a3 12 be 7c 8e a2 3e ee 38 c4 3e
       0.72046995 -0.14320232 0.31749332 0.38324684
0001b0 24 aa 15 3e 0f a5 dc be 0d c4 8e 3f 23 ef ab 3e
       0.14615685 -0.4309468 1.115358 0.33580884
0001c0 9c 2f fa be 7e f7 67 bd 97 41 5e bf 1d aa 62 bd
       -0.48864448 -0.05663251 -0.8681883 -0.055338014
0001d0 2e c3 4f bf ef 90 95 3e 52 b9 46 bf 17 c2 28 3e
       -0.81157196 0.29212138 -0.77626526 0.1648029
0001e0 dc 85 0d bf a3 7a 50 be 9d e4 76 3f 52 10 0e bf
       -0.5528238 -0.20359282 0.96442586 -0.5549365
0001f0 1a 33 d5 be da fb 98 3e a8 03 c0 3d 92 38 3e 3e
       -0.4164055 0.29879647 0.093756974 0.18576267
000200 d7 17 c5 3e 31 f3 31 3e 88 4b 13 bd ce 5f 3a be
       0.3849475 0.17377926 -0.035960704 -0.18200609
000210 31 52 c3 be 70 0e 9f 3d 71 45 de be 66 a5 c9 3e
       -0.38148645 0.077664256 -0.43412355 0.39384001
000220 75 a3 90 3d b2 98 98 be 53 0a d5 be ac 30 1b 3e
       0.07062427 -0.29803997 -0.4160944 0.15155286
000230 df 25 4c bf aa 93 a3 be 14 f1 ed 3d fa c3 02 bb
       -0.79745287 -0.31948596 0.11618248 -0.0019953237
000240 a3 80 42 3e ba b2 5c bf b8 b1 ba bb 45 50 3b 3e
       0.18994384 -0.86210215 -0.0056974553 0.18292339
000250 b2 40 9b bd ee 26 2b 3e cf be 0d be 10 0f 13 bf
       -0.07580699 0.16714069 -0.13842319 -0.5744486
000260 ef 11 19 3d e6 74 d2 be 2b 64 1d bd 50 6f 1a 3f
       0.03737062 -0.4110481 -0.038425606 0.603261
000270 6e 63 af be 26 96 bf bc 6b 7b 99 bf b8 bf 2e bf
       -0.34255546 -0.023387026 -1.1990789 -0.6826129
000280 1d 3b 39 be b4 11 bf be 3a 49 78 be 07 12 6a be
       -0.18088956 -0.37318194 -0.24246684 -0.2285844
000290 7d 1a 05 3f 1c 2f c3 be 72 5e f0 3d 80 00 96 3d
       0.5199354 -0.3812188 0.11736764 0.07324314
0002a0 b9 14 66 bf 74 3e 42 be 49 c6 27 3f 6f 8d 21 3e
       -0.8987537 -0.18969136 0.65536934 0.15776609
0002b0 1c c1 db 3d 6e 3f 60 bf 09 4a 92 bd 7f 45 16 3f
       0.10730192 -0.87596786 -0.07143027 0.5869979
0002c0 1d 12 15 3c 0f 2d 0a 3e 41 48 cf 3d 54 f9 0d bf
       0.009098557 0.13493751 0.10121203 -0.5545857
0002d0 64 e4 b3 3e 00 90 71 be d8 5f d4 be 2d 40 c9 3e
       0.35135186 -0.23590088 -0.41479373 0.39306775
0002e0 54 d2 15 bf c8 9b 94 3f 6f c5 f2 3e 95 f7 43 be
       -0.5852406 1.1610041 0.47416255 -0.19137414
0002f0 59 5c 4e be 29 ea 02 bf 50 e6 f9 be 11 44 c4 3e
       -0.20152415 -0.5113855 -0.48808527 0.3833318
000300 5e cf 0e bf c8 11 34 3f cc 4e 07 3f f1 4f 77 3e
       -0.5578517 0.7033963 0.5285461 0.24151589
000310 61 29 a7 3e a5 f2 80 3b a2 75 0c 3f 0f dd f7 3e
       0.32648757 0.0039351755 0.54866993 0.48410842
000320 c8 a4 14 3d ed d1 11 be 4f 32 98 be 13 f9 56 bf
       0.03628996 -0.14240237 -0.29725882 -0.8397381
000330 5d 9f c2 3e 9e b4 b2 3b 72 07 9c bc 00 15 33 3f
       0.3801221 0.00545366 -0.019046519 0.6995392
000340 ea 79 1b 3f be 7b 1e bf 8f c8 78 bf 8d 1b 82 be
       0.607329 -0.61907566 -0.9718103 -0.25411645
000350 62 fd f4 3d 76 70 df bd 77 a8 b2 bd 77 7f 13 bd
       0.119623914 -0.10910122 -0.08723538 -0.03601023
000360 b8 16 05 be 64 00 13 3f da ef 2e 3f 51 69 88 bd
       -0.12996948 0.5742247 0.68334734 -0.066607125
000370 9c d5 c4 3e 5e 7e 13 be 95 0f 05 be 18 ba d1 be
       0.3844422 -0.14403674 -0.12994225 -0.4096229
000380 11 c9 08 3e 36 47 ae 3e 00 66 93 3d e4 13 2c be
       0.13357951 0.34038705 0.07197189 -0.16804463
000390 03 68 39 3f c1 70 0d 3f a4 08 b1 3e 4d 08 8f bf
       0.72424334 0.55250174 0.34576905 -1.1174408
0003a0 84 c5 87 3d f1 95 3c bd 69 7e 2c be 28 b5 13 3f
       0.0662947 -0.046041433 -0.16845097 0.576983
0003b0 b1 b4 98 be 93 03 0e 3f f9 59 aa be 4f 34 3b be
       -0.29825357 0.55474204 -0.3327177 -0.18281673
0003c0 99 86 d3 be 3a 40 08 bd a8 0f 74 3e 02 7d 09 3d
       -0.41313627 -0.033264376 0.23834097 0.033566482
0003d0 68 df bb 39 50 e1 7d be f0 67 5c 3e bd 28 cd bd
       0.0003583387 -0.24792981 0.21524024 -0.10017536
0003e0 ac 41 ee 3e c2 a5 88 be ad 9f 5e bd b6 9a 39 be
       0.4653448 -0.26688963 -0.054351497 -0.18125424
0003f0 46 73 ff 3d 0f 8f 8f be b8 02 96 3d 01 e4 34 bf
       0.124731585 -0.28038833 0.07324737 -0.70660406

layers.1.fc.bias f4 [16]
000000 8e a5 fc bb 06 b6 c5 bc 1a ca 4b bb 68 4f 55 3b
       -0.0077101653 -0.024134647 -0.0031095804 0.003254855
000010 4b 67 b5 bd 37 ae 25 3e 8d e9 4a bc 4b e2 5b be
       -0.08857592 0.16179739 -0.012384784 -0.21473043
000020 fa c3 1f 3e 05 cb 7b 3e 9d 01 09 be cd a5 0e 3e
       0.15602103 0.24589165 -0.13379522 0.13930435
000030 a8 d5 58 3e 54 01 e5 bd 88 21 36 3c bc fe 25 3e
       0.21175253 -0.11181894 0.011116393 0.16210455

layers.2.fc.weight f4 [16, 16]
000000 8c 0f 4b 3f 78 aa bd bc d3 49 b9 3e 6e b1 da 3d
       0.793206 -0.023152575 0.36189136 0.10678373
000010 ef 8e 09 3e b7 2f 6f bf c0 16 05 bd c1 72 20 bf
       0.13433431 -0.9343218 -0.0324924 -0.626751
000020 a1 af 91 3f fe db 96 3e 31 32 58 3e 23 ed 51 bd
       1.1381723 0.29464716 0.21112897 -0.05125154
000030 4a d5 9f 3c 51 8d 3f 3f 8a 55 ae 3e 4c 7c 66 bd
       0.019510884 0.74825007 0.34049636 -0.056270882
000040 a6 ae 1f bf 2b 20 65 3e d8 31 a3 be 6d e9 a1 bd
       -0.6237587 0.22375552 -0.31873965 -0.079058506
000050 17 56 f6 3e 95 35 a9 3e 74 3f 2f be 2c fa 4d 3f
       0.48112556 0.33048692 -0.17114049 0.80459857
000060 1a 4e 25 bf a0 a6 a5 be 41 f9 ad bd 1f 6c 9f 3c
       -0.645723 -0.32353687 -0.08494807 0.019460736
000070 df ee 58 be 4a 7f f8 3e 66 a3 05 3f 47 e9 1c 3f
       -0.21184872 0.48534614 0.5220245 0.6129345
000080 27 4a e8 3e fa ca 96 be f2 48 b9 bc 3c 4a 9b 3d
       0.45369074 -0.29451734 -0.02261779 0.075825185
000090 27 3e f1 be 17 66 0b 3f ec ac 62 3e fb af ed bd
       -0.4711773 0.5445265 0.22136277 -0.11605831
0000a0 06 df 13 bf 36 64 9c be 51 d6 a0 3c 75 53 3e bd
       -0.5776218 -0.30545205 0.019633444 -0.04646631
0000b0 c8 69 0e 3d cc 11 2e 3f a2 7e f1 be 15 72 43 3e
       0.03476885 0.67995906 -0.47166926 0.19086488
0000c0 81 9f 04 bf 28 ab c2 3e 5f 1d 6e bd c3 87 da 3e
       -0.51805884 0.38021207 -0.05813348 0.42681703
0000d0 a6 3b 99 bd 0e e4 15 bf 0e a3 09 3f c8 05 18 bf
       -0.0748208 -0.5855111 0.53764427 -0.5938382
0000e0 2a d9 2f 3e 51 51 de be a9 8f 00 3f 04 79 21 be
       0.17172685 -0.43421414 0.5021921 -0.1576882
0000f0 c0 dd 0d bf f3 ad 92 bc 39 24 f9 be a8 f6 f6 3d
       -0.5541649 -0.017905211 -0.48660448 0.12058765
000100 49 f4 3d 3e 4b 0e cb be ee d0 10 bf 41 ee 86 3c
       0.18550219 -0.39659342 -0.565688 0.01647103
000110 3a a7 0f 3e 17 69 9c 3d 76 c1 7b 3d 23 84 35 bf
       0.14028636 0.07637232 0.061463796 -0.7090475
000120 d8 52 01 3d 44 e9 13 be dc 20 ca be 13 49 1f 3f
       0.031573147 -0.14444453 -0.39478195 0.6222088
000130 6d 56 72 3e 6f ce e0 be 72 fe 31 be 74 be 63 3d
       0.23665781 -0.43907496 -0.1738222 0.055601552
000140 fe 49 e8 be bb b5 d3 3d 22 76 3a 3f da 1e a9 be
       -0.45368952 0.10337397 0.72836506 -0.3303135
000150 08 a1 21 3e 57 0c c1 3d c4 66 2b be 6b f0 0c bd
       0.15784085 0.09426182 -0.1673842 -0.034408968
000160 ee 64 dd be 47 e0 fb 3e bf 1e 58 3d df 72 85 be
       -0.43241066 0.49194548 0.052763697 -0.26064202
000170 22 ec 21 3f 08 7d f4 3e eb 8b 72 3d db 9d 18 3e
       0.63250935 0.4775164 0.059215467 0.14903967
000180 53 70 86 3f 86 c9 ef be 61 fb d1 bb 53 1a c5 be
       1.0503029 -0.46833438 -0.0064081405 -0.38496646
000190 7e 0f ca be 17 19 4f 3d 1c 8f 62 bf 30 35 05 3f
       -0.39464945 0.050561037 -0.8849962 0.5203428
0001a0 db 2b 97 3f 2b 3e c2 be 3a 66 95 be 2c 50 b1 3e
       1.1810259 -0.37938055 -0.29179555 0.3463148
0001b0 94 9e 98 bd c3 e4 30 bf 7b 51 3d bd ad 4b 36 3e
       -0.074521214 -0.6909906 -0.046220284 0.17802306
0001c0 ad ab 32 bf 65 39 50 3e 35 17 13 bf 94 7e 98 3d
       -0.69793206 0.20334394 -0.57457286 0.07446018
0001d0 72 b3 67 bf b7 e3 2f bf 46 a3 70 3d 56 1f 8f 3f
       -0.90508187 -0.6870684 0.05874946 1.1181438
0001e0 8b 59 cb be ca 9c 2f bf fe 84 3e bf a2 01 c7 be
       -0.39716753 -0.68598616 -0.7442168 -0.38868433
0001f0 f7 d1 45 3e a7 b0 72 3e d5 c5 06 3f 5d e4 57 3e
       0.19318376 0.237002 0.5264562 0.21083207
000200 9d 23 a3 be 5e 35 af bd c1 49 16 bd 2c 57 cb be
       -0.31863108 -0.08555101 -0.03669143 -0.39714944
000210 fa 12 50 bd d5 0c 28 bf 0f ea 64 be f1 c5 18 3f
       -0.050799347 -0.6564458 -0.22354911 0.59677035
000220 a2 b8 e8 be df 66 e6 bd 31 35 12 bf c4 19 2e 3f
       -0.45453364 -0.1125009 -0.57112414 0.68008065
000230 51 66 bb 3d d2 e2 85 bb 08 83 8d 3b 73 53 42 be
       0.09150375 -0.004085877 0.0043185987 -0.18977146
000240 19 2d 0a 3f 7a 95 bb 3e f2 8e bf be 2a 97 56 3f
       0.53975064 0.3663748 -0.37413746 0.8382441
000250 34 1b 8d bf 25 a7 8a be 79 5e 19 be 67 a3 17 bd
       -1.1023927 -0.27080646 -0.14977445 -0.037021067
000260 db 40 c7 3e 56 70 2e 3f 54 11 de be d2 d0 e3 bd
       0.38916668 0.6814016 -0.43372595 -0.11123814
000270 83 2e 0d 3f c3 bf fd 3d 55 29 20 be f1 af 2e 3c
       0.55149096 0.12390091 -0.15640767 0.010662065
000280 5c 90 a7 bd 93 c2 1c be e9 54 40 bd 2a dd bc 3d
       -0.08181831 -0.15308599 -0.046955977 0.09221871
000290 1d 05 ef be c6 5c e3 3d fa 4b a1 be ea d0 18 3d
       -0.4668359 0.111016795 -0.31503278 0.03730861
0002a0 3a d9 77 be a3 bf 4d bf db 75 88 3f 72 1a de 3e
       -0.24203959 -0.8037054 1.0660967 0.4337955
0002b0 06 eb a5 3d 4f 87 76 3d 43 af ed 3e 60 5c bd bb
       0.08101468 0.060187634 0.46422777 -0.005778834
0002c0 30 61 62 be c0 d9 1f be 58 89 1a be 18 92 81 3c
       -0.22107387 -0.15610409 -0.15091455 0.015816733
0002d0 32 95 05 3f f5 83 b3 3e 52 b7 50 3e d2 79 2f bf
       0.5218078 0.35061613 0.20382431 -0.6854526
0002e0 80 f3 95 3e c2 0a 07 3f c1 dc 3b bf 42 27 f1 bd
       0.29287338 0.5275079 -0.7338372 -0.11775066
0002f0 67 23 47 be 44 d5 97 be ed f7 c5 be c9 07 07 bf
       -0.19447099 -0.29654896 -0.38665715 -0.52746254
000300 69 9e 3b 3e e3 1b d5 ba 1f 40 99 be 1c b3 83 3e
       0.18322147 -0.0016258921 -0.29931733 0.25722587
000310 b5 16 1e bf 0d bf 12 3d b4 f2 ec be 10 d9 c0 bd
       -0.617534 0.03582673 -0.46278918 -0.094164014
000320 1e 30 13 bd e8 8d 06 3f b5 fa b2 bd 8c 96 ab 3e
       -0.03593456 0.5256028 -0.08739225 0.33513296
000330 0a 72 84 be 5b aa 20 3f f0 99 8b 3e 18 9f 18 be
       -0.25868255 0.6275994 0.27265882 -0.1490444
000340 3a f6 17 3f 37 2c 4e be 3b 95 d6 be f5 f8 3c 3d
       0.59360087 -0.20134054 -0.4191073 0.04613586
000350 55 10 0a 3f 09 1f 8e 3e 68 08 2c 3f 64 69 92 bd
       0.5393117 0.27758053 0.67200327 -0.07149008
000360 db 06 c1 3d a7 fb 1b bf 95 de 7f bf 57 3e 85 be
       0.09425136 -0.60930866 -0.9994901 -0.26024124
000370 62 0a 90 3e 42 e8 ca bc db db 29 3e db 0b 20 bf
       0.2813292 -0.024768952 0.16587774 -0.6251809
000380 7d 74 2c 3f aa c3 3d 3f 53 6a aa be c2 ee 6a be
       0.67365247 0.74126685 -0.33284244 -0.22942641
000390 b8 d1 81 3f da 89 96 be 4e 54 40 3e 79 02 3c bd
       1.0142126 -0.29402047 0.1878216 -0.045900796
0003a0 9d 7e 28 bf 9a 89 1c 3e 10 f3 59 bc c3 a9 f0 3e
       -0.65818197 0.15286866 -0.0133025795 0.47004518
0003b0 cd 78 41 be 6f 79 44 bf 64 af 90 be fd e3 c3 bc
       -0.18893738 -0.7674779 -0.28258812 -0.023912424
0003c0 93 76 25 bd be 2a 84 3e fe 58 43 3e ee fa 27 3e
       -0.040396284 0.2581386 0.19076917 0.16404316
0003d0 11 36 47 bf 65 cf 46 3e 16 df 14 3e 86 56 d8 3d
       -0.77816874 0.19415052 0.14538226 0.10563378
0003e0 eb 5f fd 3e 8c d4 fd bd eb af be 3d bd d5 5c 3f
       0.49487242 -0.12394056 0.093108974 0.8626364
0003f0 4d b8 62 be cc ce 26 bf c5 90 8b 3e 50 be 4d be
       -0.22140618 -0.65159297 0.27258888 -0.2009213

layers.2.fc.bias f4 [16]
000000 c3 ba 06 3e f0 f9 9b be 78 d2 0a 3e 31 ea 0b 3e
       0.13157181 -0.30464125 0.1355685 0.13663556
000010 2f d7 76 3d fb 68 8d 3e 51 bc 3e bd 11 39 5b 3e
       0.06026381 0.27619156 -0.04656631 0.21408488
000020 65 1f b2 bd 17 f8 48 bd 01 6b 17 3e b0 ba 82 3e
       -0.08697394 -0.049064722 0.14786913 0.25533056
000030 cf ce 55 3c b0 a1 84 bc 88 67 f7 bd fa 41 7a be
       0.013049795 -0.01619038 -0.12080294 -0.2443923

layers.3.fc.weight f4 [16, 16]
000000 33 02 f6 be cb ef 2e 3d 09 d9 ee 3d 38 47 e7 be
       -0.48048553 0.042709153 0.1166249 -0.45171523
000010 46 ec 78 bf af 7d 9b bd d2 82 9b 3e 24 47 a8 3e
       -0.97235525 -0.075923316 0.30373245 0.32866776
000020 67 3b 07 bf 8e a7 a0 3e 4e 38 6b 3e a7 fe e8 be
       -0.52825016 0.31377834 0.22970697 -0.45506784
000030 01 8b d1 3d 82 fb 3d bf 64 13 ca bd 7d 7e 3f be
       0.10231591 -0.74211895 -0.0986698 -0.18700595
000040 53 aa 2f 3f 29 64 fd bd a1 87 40 3f ed cc be 3e
       0.6861927 -0.1237262 0.75206953 0.3726572
000050 36 32 59 3e 4a ce 14 3d 5a e4 b1 bd bf 49 73 bf
       0.2121056 0.036329545 -0.08686133 -0.950344
000060 1a cd 72 3f 70 b3 aa be b8 c7 22 3d 81 87 48 3f
       0.9484421 -0.33340025 0.039741248 0.7833176
000070 45 85 95 3e 94 81 f7 3e 9c 26 9b 3e 08 e3 01 bf
       0.2920324 0.48341048 0.30302894 -0.5073705
000080 4a df 6a be ef 54 49 3e 98 bd c5 3c 3a 43 3b 3f
       -0.2293674 0.19661306 0.024138257 0.73149455
000090 c7 a0 94 3d 90 16 a8 3e 3c 61 8f be 77 e2 b3 3d
       0.07257228 0.32829714 -0.2800387 0.08783429
0000a0 fc 15 53 3f bf 40 85 3d c3 61 a3 be 66 61 fb 3e
       0.8245542 0.0650649 -0.31910524 0.49097747
0000b0 1a 26 c8 be 64 81 5c 3f 56 16 37 bf 79 6c 8d be
       -0.3909157 0.86134934 -0.71518457 -0.2762182
0000c0 f8 67 cc 3e fc 13 f8 3e 82 ee b8 bd cb 92 90 3e
       0.39923072 0.48452747 -0.09029867 0.28236994
0000d0 82 5c 2e 3f ce c9 ff be 5e 31 b2 3e 89 80 29 bf
       0.68109906 -0.49958652 0.3480329 -0.66211754
0000e0 75 67 a9 3e d5 9d f5 bd bb cd 98 ba 2d 9e a3 3d
       0.33086744 -0.11992995 -0.0011657992 0.07989154
0000f0 1d 68 37 3e b8 23 93 3f 25 8b 38 3e 13 8e 0c bf
       0.1791081 1.1495275 0.1802183 -0.5490429
000100 1b 4d d1 be 32 d2 b3 be 64 6b 12 3f 49 9d 8e be
       -0.4087914 -0.35121304 0.57195115 -0.27854374
000110 56 17 49 3f 2e 03 9a 3d eb b4 c0 be 99 37 79 bd
       0.7855123 0.07520138 -0.3763803 -0.060844038
000120 9b 7a f0 3d 00 c5 03 3f a7 8b 38 bf a5 7b 43 3e
       0.11742135 0.51472473 -0.7208809 0.19090135
000130 30 8c 82 3e b0 4b 17 3e 84 da 0b 3d bc 72 4f 3e
       0.2549758 0.14774966 0.03414394 0.20258611
000140 80 46 0a bf 73 08 87 3e 34 81 a0 bd 6f 31 14 bf
       -0.54013824 0.26373634 -0.078371435 -0.5788793
000150 c5 47 d6 be de ae 14 bf 49 23 b4 3e 3b 5e 1f 3f
       -0.4185163 -0.58079326 0.3518317 0.6225316
000160 38 04 13 be 21 67 85 be 71 28 37 bf e8 01 6c 3a
       -0.14357078 -0.26055244 -0.71546084 0.00090029696
000170 b6 f5 5a be 54 ef 11 3e 5a b1 83 bf 6b 5a bb be
       -0.21382794 0.14251453 -1.0288498 -0.3659242
000180 48 38 1e 3e 57 fe 12 bb c8 11 97 be 21 27 3a 3f
       0.15451157 -0.002242943 -0.29505754 0.72715956
000190 75 67 d5 3c 9f be aa be 4c 38 1b 3f 10 3d 5b 3f
       0.026050309 -0.33348557 0.6063278 0.8564005
0001a0 8d 59 9e 3d 1d eb 55 be 12 96 57 be f7 c7 a5 be
       0.07731924 -0.2089047 -0.21053341 -0.32379124
0001b0 12 ba c7 3e 91 cc 0a 3e 23 c1 2a be 05 a9 c2 3e
       0.39009148 0.13554598 -0.16675238 0.38019577
0001c0 5a ac 2a 3e 81 3d 8b 3e eb 58 12 bc 80 c6 c5 3e
       0.1666731 0.2719536 -0.0089323325 0.38628006
0001d0 66 75 d5 3d 2f 3a 36 3f 3b ce 1b 3f 09 86 71 3e
       0.104227826 0.7118253 0.6086156 0.23586287
0001e0 46 a7 82 3f 58 37 61 bf 58 f3 c3 bc 83 87 95 3f
       1.0207298 -0.8797507 -0.023919746 1.168198
0001f0 aa bf 25 3f c4 e5 49 3e 0f 0e 3d 3f 83 9b 3a be
       0.6474558 0.19716555 0.73849577 -0.18223386
000200 d7 08 d4 bc a2 7a bc 3e bb a2 35 3f 50 94 81 bb
       -0.025883121 0.3681231 0.7095143 -0.003954448
000210 4b 3d ab be 2c 9b 09 bf 05 ef 07 bf 16 21 4f 3e
       -0.334452 -0.537524 -0.5309909 0.20227465
000220 e9 51 2d bf 3e f8 84 3d 3b a7 05 3e 14 88 36 3e
       -0.6770311 0.06492661 0.13052075 0.17825347
000230 bc 94 e4 3d 58 fe 11 3f ab 00 88 3e 47 0b 95 3e
       0.11161181 0.5702872 0.2656301 0.29110166
000240 aa 4e e5 3c e8 4e b8 be 21 67 d1 be 3c 77 9b 3e
       0.027991612 -0.359977 -0.40898994 0.30364406
000250 2e 73 05 3e 78 da 14 bf 02 37 fb bd 7a 1e 62 be
       0.13032219 -0.58145857 -0.12266351 -0.22081938
000260 17 63 aa bd 15 ff 6a 3d 79 a6 d4 be 56 b3 33 3e
       -0.08319681 0.05737217 -0.4153326 0.1754888
000270 f7 ba b5 be bd d9 06 3f 51 8b 8b be bc 59 a5 be
       -0.35494205 0.5267599 -0.27254727 -0.32295024
000280 3f d0 97 3e b5 18 30 3f 26 08 cc be 19 27 86 3e
       0.29651067 0.687877 -0.39849967 0.26201704
000290 4a d0 8e be 80 e8 c7 be dd 29 b6 be b0 aa 7a be
       -0.27893287 -0.3904457 -0.35578814 -0.24479175
0002a0 c0 59 30 3e 60 8d 2b bb 60 65 95 3d 64 80 ac 3d
       0.17221737 -0.0026176795 0.07294726 0.08422926
0002b0 92 25 a2 be 68 59 35 3e dd cd 00 3f f6 79 15 bf
       -0.3166929 0.17709887 0.5031412 -0.5838922
0002c0 53 0c f5 3e 4e c8 6a 3f c3 ec e0 be cf 92 cf be
       0.47860965 0.9171189 -0.43930635 -0.40541694
0002d0 18 99 c9 3e e9 9b c6 3e 7d 20 a2 be 04 cc 7b bd
       0.39374614 0.38790825 -0.31665412 -0.06147386
0002e0 35 97 07 be 78 28 4b 3c bd 31 09 3e f9 aa c6 bd
       -0.13241275 0.012399785 0.1339788 -0.09700579
0002f0 0e ab 1a 3e b4 c4 1b be b2 5a 31 3f 09 ee 07 3f
       0.15104315 -0.15211755 0.69279015 0.5309759
000300 dc 69 92 3e ff 15 65 be 67 ea 7b bf db 8f c9 be
       0.2859639 -0.22371672 -0.98404545 -0.39367566
000310 e1 87 2c bf cc df 8e bd 2e b6 1a bf b3 a0 a4 3e
       -0.67394835 -0.069762796 -0.60434234 0.32153854
000320 a9 ff ed 3d 68 4c f3 3d b4 35 28 bf 72 ce 46 be
       0.11621029 0.11879808 -0.65706944 -0.1941469
000330 a8 30 78 bf 5d ae 6b 3c 4c fc 7c bf 5b 54 c0 be
       -0.96949244 0.014384833 -0.98822474 -0.37564358
000340 8a 59 ba 3e 6b 37 d9 3e 20 d4 25 3e b6 51 76 3e
       0.36396438 0.42425093 0.161942 0.24054608
000350 92 24 f6 bc e0 d7 cc be b0 8f d5 3e 89 ac eb bd
       -0.030046735 -0.4000845 0.41711187 -0.11507518
000360 5d 00 7b bb af 70 2b bd 6c 0c 95 3e 55 d0 3f bd
       -0.0038299777 -0.04185551 0.2911104 -0.04682954
000370 65 16 c8 be 21 0b e6 be 2c 43 7a 3f 60 5b c8 3e
       -0.39079586 -0.44930366 0.97758746 0.39132214
000380 5e 5a 84 bf 7b 9f 3b be a4 49 6e 3f 70 a9 04 3f
       -1.0340078 -0.18322556 0.93081117 0.5182104
000390 a9 73 7f 3e b8 08 3b 3e e4 7c bb 3e 37 a7 8f be
       0.24946465 0.18265045 0.3661872 -0.28057262
0003a0 d4 fc 54 be 2d 5b 04 bd 15 1b 5a be 37 91 c4 3e
       -0.20799571 -0.032313515 -0.21299393 0.3839204
0003b0 6e d7 1c be a2 3b f6 bd ad ec bb bb f5 3e 84 bd
       -0.15316555 -0.12023093 -0.005735001 -0.064573206
0003c0 89 da ed 3e ef 7a 98 3e 8c af e3 be 53 ce 62 bf
       0.46455792 0.2978129 -0.4446987 -0.88596076
0003d0 7e fc 2d 3e eb 3a 4f 3d b0 ab 19 3e ac bc 12 bf
       0.1699085 0.050593298 0.150069 -0.5731914
0003e0 fe 9e 70 3e cb f0 6b be 62 c7 32 bf ca 3f 2e bd
       0.2349815 -0.23041074 -0.69835484 -0.042541303
0003f0 2d ff 21 3f 43 8e fd 3d d3 45 11 3f 9e 10 c6 3e
       0.6327999 0.1238065 0.5674717 0.38684553

layers.3.fc.bias f4 [16]
000000 ef 38 87 bd b0 90 2f 3e 14 e2 74 3e 38 17 01 3e
       -0.06602656 0.17145038 0.23914367 0.12606514
000010 49 40 16 3e 41 fd b7 bd af 9e 34 be 77 0c 13 be
       0.1467296 -0.08983851 -0.17638658 -0.14360224
000020 59 a7 67 3c ed 5a 7d be 81 b2 32 be 1a dd 3d 3e
       0.01413902 -0.24741717 -0.17450906 0.18541375
000030 49 ba 35 be ef 41 d0 3c 23 1f 2a bd d8 37 1c bd
       -0.17746843 0.025422065 -0.0415336 -0.038139194

layers.4.fc.weight f4 [16, 16]
000000 55 dd 98 be 94 49 f3 3d b3 86 16 bd b4 43 99 be
       -0.29856363 0.11879268 -0.036749553 -0.29934466
000010 e2 e0 a6 3e 33 4e fc 3e ae 2c 1b 3e b4 7e ea 3e
       0.32593447 0.4927841 0.15153763 0.45799792
000020 d5 31 a6 be 87 c8 d0 be 0f a3 f7 bd 87 13 b3 be
       -0.32459894 -0.4077799 -0.12091648 -0.34975836
000030 9c 35 5d be 5d bc 29 3f fa bb 59 bf 4d 4f e0 bd
       -0.21602482 0.66303045 -0.85052454 -0.109526254
000040 91 34 0c bf cd e4 05 3d 3e f5 1c 3e 5d 3c 09 3e
       -0.5476771 0.032688905 0.15327927 0.13401933
000050 51 8b 56 be 33 6d 92 3d 2c 39 51 3e 6d ff 19 bf
       -0.20951582 0.07149734 0.20431966 -0.60155374
000060 9b 37 02 bf 52 dd 9e 3c 5d c6 f8 3d e9 1b da be
       -0.508661 0.019392643 0.1214721 -0.4259942
000070 33 8b d3 3c 4e c1 86 be 0f 8c 52 3e 1a c6 d1 be
       0.025823211 -0.26319355 0.2056124 -0.40971452
000080 4f 39 0f 3e 5b bb 1d bf dd 77 1b be a4 20 38 3d
       0.13986705 -0.61614007 -0.15182443 0.044953004
000090 9c f9 b6 be 45 91 dc be d7 53 21 3e 33 fe f8 3c
       -0.35737312 -0.43079582 0.15754639 0.03039465
0000a0 fe e8 41 3e d7 84 8b be fe df e2 bd 64 6f 0a be
       0.18936536 -0.27249786 -0.11077879 -0.13519055
0000b0 2f 63 0e bf df df 14 3e 72 53 3a be 52 44 23 3f
       -0.5562009 0.14538525 -0.18195894 0.63776124
0000c0 b9 34 36 be 81 69 27 3f 8d ae 18 bf a4 94 b8 be
       -0.1779355 0.6539536 -0.59641343 -0.36050904
0000d0 d3 8c 04 bf 73 79 26 3e ac 34 43 bd 7d c6 d9 3b
       -0.5177738 0.16257267 -0.047657654 0.006645976
0000e0 11 a8 14 3f 40 1c 1f be b8 63 d0 3d cb 5c d2 be
       0.5806895 -0.1553812 0.1017527 -0.4108642
0000f0 02 38 7e 3e 1a 00 fe bd 62 ab 38 3f 02 0a 92 bd
       0.24826053 -0.12402363 0.7213651 -0.07130815
000100 0c 8e c0 be e2 d3 02 be e8 df 04 3f 38 4c 3c 3e
       -0.37608373 -0.1277614 0.51904154 0.1838845
000110 14 c5 28 3d 27 d0 d6 be 7f 5c 0a 3f 16 dc 31 3e
       0.041203573 -0.41955683 0.5404739 0.17369112
000120 e9 f8 9e 3c 96 06 0c 3f 72 04 f4 bc f2 59 92 3e
       0.019405799 0.5469755 -0.029787276 0.28584248
000130 d0 78 33 3e ed ef fb 3d d5 f4 0c 3d a9 c5 fb 3e
       0.17526555 0.123016216 0.034413178 0.4917424
000140 a7 2d 0c 3d 48 ce 97 be 36 ce c8 be 2b 0e 02 3f
       0.034223225 -0.29649568 -0.39219826 0.5080287
000150 26 c0 99 bd 13 4a c9 3e 71 ec 1f 3e 53 ed e5 be
       -0.075073525 0.39314327 0.15617539 -0.44907627
000160 38 a6 ed 3d 6a 79 fc bc c1 4c 5a 3f 31 a0 37 bd
       0.11603969 -0.030819613 0.8527337 -0.044830505
000170 0c f3 86 bc 78 d9 2f 3d 34 ce 41 be 79 57 4e bf
       -0.016473316 0.042932004 -0.18926316 -0.8060222
000180 00 f1 1d bf cc 31 56 3f 91 88 0d 3d 3e 92 12 3f
       -0.6169586 0.83669734 0.034554068 0.572544
000190 25 80 d9 be 99 62 7a 3e 8b 22 af 3e 92 4f 52 3e
       -0.4248058 0.24451675 0.34206042 0.20538166
0001a0 2f 25 af bd b4 91 09 bf 5b d1 c5 3e c0 31 44 bd
       -0.08552014 -0.5373795 0.38636288 -0.047899008
0001b0 fa a8 2d bf a4 29 f3 be c9 ad d9 3e 97 7e 57 be
       -0.6783596 -0.47492707 0.425154 -0.21044384
0001c0 3e 09 d3 be 29 e6 0a bf cf 67 61 3d 18 79 84 3e
       -0.4121799 -0.54257447 0.05503064 0.25873637
0001d0 34 63 03 3e 2f 95 2f 3e fb 88 33 3e e6 18 37 3f
       0.12830812 0.17146753 0.17532723 0.71522367
0001e0 39 f7 05 bf 92 15 89 3c e7 65 ac be 4e 93 ff bd
       -0.52330357 0.016733918 -0.33671495 -0.12479268
0001f0 bb 1b c3 3d 4d 02 ff be 33 3a 9f be d4 18 3d bd
       0.095267735 -0.49806443 -0.3109909 -0.046166256
000200 f7 c1 5c 3f f0 9c 10 3f e8 e4 55 be 24 fc d6 be
       0.86233467 0.5648947 -0.20888102 -0.41989243
000210 b6 a0 6f 3e 82 08 f0 3b 1d ec ab be 4a e8 f2 be
       0.2340115 0.007325233 -0.33578578 -0.47442847
000220 4e 70 d4 3d 1f e4 11 3e 16 4c 9e 3e cd ca 92 3d
       0.10372983 0.14247178 0.30917424 0.071675874
000230 87 18 d6 3e a6 39 3c 3e 07 ed e6 be 00 3b 5c be
       0.41815588 0.18381366 -0.45102713 -0.21506882
000240 09 3a 8b 3e b9 50 8c be c7 dc 0b 3e f7 79 9e 3d
       0.27192715 -0.27405336 0.13658439 0.07738107
000250 1c e0 bc be bb 8f 35 bf 08 7c 96 3e 59 f5 09 be
       -0.36889732 -0.7092244 0.29391503 -0.13472499
000260 aa 2c 79 bf 1b 84 06 3e b2 d7 97 be d4 e4 67 be
       -0.97333777 0.13136332 -0.2965675 -0.22645885
000270 65 e0 66 3c c7 76 12 bf 85 16 a5 bd da 8c b5 3c
       0.014091586 -0.5721249 -0.08060936 0.02216189
000280 24 9b 8a 3e fa 91 a4 3e 9a 97 97 be af 0d 32 bf
       0.27071488 0.3214262 -0.2960785 -0.6955213
000290 e3 13 c0 be 8d 93 5c be 1d 2e 13 bf 95 7d 12 bf
       -0.37515172 -0.21540661 -0.5749224 -0.5722287
0002a0 ee 1f ba bb 8b cc 83 be 81 1d 55 bf 7d 8e 43 3e
       -0.005680076 -0.2574199 -0.83248144 0.19097324
0002b0 c5 eb 02 3f a6 af 99 bd 80 96 cc be 79 4e fb be
       0.51141006 -0.075042054 -0.39958572 -0.49083307
0002c0 51 50 56 be ef a0 f8 3a 5b 8e 63 be a6 94 38 3f
       -0.20929076 0.001896886 -0.22222273 0.7210182
0002d0 d0 bf 30 be 18 8a 0d 3e d7 4c cf be d4 e4 b6 bc
       -0.1726067 0.1382221 -0.40488312 -0.02232591
0002e0 91 e9 ad 3e 8a 1a f2 be 12 09 98 3b 55 a3 f5 3d
       0.3396726 -0.47285873 0.004639753 0.11994044
0002f0 50 8f 08 bf fd 71 1e be 36 49 6a 3f 8d 6b 3c bd
       -0.5334368 -0.1547317 0.9151796 -0.046001006
000300 8a 50 82 3e 04 17 e5 be c7 ce a5 3e 97 3b c4 bb
       0.2545207 -0.44744122 0.3238432 -0.005988549
000310 54 ea 57 ba c1 89 f6 be 20 e5 20 3e 12 7b 99 3b
       -0.0008236517 -0.48151973 0.15712404 0.0046838606
000320 87 42 f0 bd 4b 01 9c be 85 1e d6 be 3c af 99 3e
       -0.11731439 -0.30469736 -0.4182016 0.30016506
000330 98 2a e7 be a6 d3 7b bf db 3a ab 3e 05 26 eb be
       -0.45149684 -0.98369825 0.3344334 -0.45927444
000340 b8 5d 54 bf eb 5b 95 3d b3 84 59 3f 23 15 99 3e
       -0.82955503 0.072929226 0.8496811 0.2989894
000350 9a 65 62 3f 6f a0 59 3e 4a 15 b4 be e7 e3 44 3e
       0.8843628 0.21252607 -0.35172492 0.19227563
000360 f9 76 06 3f 3d 1e 6a 3e dc 04 dc be de a1 a4 be
       0.5252529 0.22863097 -0.42972457 -0.32154745
000370 4f b1 99 be ae 1b ee bd 40 a0 32 3f cb 36 94 bd
       -0.30018088 -0.11626373 0.6977577 -0.072370134
000380 e4 7c 9c 3e 4e 1d 5d be c8 18 49 be 4f cb 75 be
       0.30564034 -0.2159321 -0.1963836 -0.24003337
000390 9e 10 c6 3c 78 11 2b 3e bf 5f d6 3e 3f 79 1b be
       0.024177846 0.16705883 0.41869923 -0.1518297
0003a0 41 3d 6d bd d8 fa 06 bf 9c 52 bb be 6b 9d 9a 3e
       -0.057919744 -0.5272651 -0.36586463 0.30198225
0003b0 f6 cf 41 be bf eb a8 3e 1c 80 69 3e 42 7c bd 3e
       -0.18926987 0.3299236 0.22802776 0.37008864
0003c0 7e 38 8e bc 5d f3 e6 be ec 8c eb 3d ba a0 5e 3f
       -0.017360922 -0.45107546 0.11501488 0.86964
0003d0 e6 1f 92 3f 8b c0 d6 be 4f 34 ca be 70 7e 58 bf
       1.1415985 -0.41943774 -0.39493033 -0.8456793
0003e0 38 07 a7 be 12 cc 0e be ba c2 e3 ba 6f 5c 79 3e
       -0.32622695 -0.13945034 -0.0017376759 0.24351667
0003f0 c6 f4 df 3e f7 62 47 3e 4e 19 25 3f 61 1b b2 3e
       0.43741435 0.19471346 0.64491737 0.34786513

layers.4.fc.bias f4 [16]
000000 1c 5f f0 bc 42 ad 2e be 27 85 76 bd ca 2c 59 3e
       -0.029342227 -0.1705828 -0.060185578 0.21208492
000010 8c c9 81 be 7a 54 a3 3c ba af 00 be 71 a1 a0 bd
       -0.2534908 0.019937743 -0.12567034 -0.078432925
000020 26 07 b1 3d 55 59 0a be 1a 2b 84 3e a9 6c f7 bd
       0.086439416 -0.1351064 0.25814134 -0.12081272
000030 4c 50 94 3d a1 95 d8 3d ff b3 0e 3e 2f 5d 42 3e
       0.07241878 0.105754144 0.1393585 0.18980859

layers.5.fc.weight f4 [16, 16]
000000 b6 4a 65 3f 1e a4 78 3d 15 20 a6 bd ad c1 db 3d
       0.89567125 0.06070339 -0.08111588 0.107303
000010 25 2b 05 bf d8 b8 26 bf 89 a7 dd 3e d8 d5 11 bc
       -0.5201896 -0.651258 0.43291882 -0.008901082
000020 93 d3 14 3f 44 24 28 be 9d 68 67 be 7e d3 78 be
       0.58135337 -0.16420084 -0.225985 -0.24299428
000030 68 0d a6 3f d3 4c 98 3e 37 45 69 3e 41 07 9d be
       1.2972841 0.29746112 0.2278031 -0.30669597
000040 ae 8c 39 bf 69 65 b3 3e 95 f0 87 3e 84 1d 11 3f
       -0.72480285 0.35038307 0.26550737 0.5668566
000050 13 35 19 3f 8b 13 59 3f a6 7d 59 be 9a 45 4f 3f
       0.5984661 0.84795445 -0.21239337 0.8096558
000060 cf 2d eb 3d f3 43 b9 3e 0a d9 cd be 9c a2 7e 3e
       0.11483347 0.36184654 -0.4020465 0.24866718
000070 13 72 a5 be 59 62 ab be ab 5c c2 3b 25 a8 f4 bd
       -0.32313594 -0.3347347 0.005931457 -0.119461335
000080 14 db 9c 3b be 7f b1 3d 29 b3 8c bf d0 34 5c bf
       0.0047868583 0.08666943 -1.0992175 -0.86018085
000090 67 6b 83 be 65 c1 1b bf ba c5 25 bf 04 cf 18 be
       -0.2566788 -0.6084197 -0.6475483 -0.1492272
0000a0 f2 e5 b0 3d 22 d8 8a be 34 fb 88 3e 82 f7 57 bf
       0.086376086 -0.2711802 0.26754153 -0.8436204
0000b0 f6 4e 02 be dc c2 ff 3d cf 37 89 bc bf 4b ec 3e
       -0.12725434 0.12488338 -0.016750244 0.4615154
0000c0 6b 9a f4 bc 66 8c 69 bf f6 d8 32 be 79 3c d2 be
       -0.029858788 -0.91229856 -0.17465577 -0.41061762
0000d0 fe 8f 65 bf 14 b5 ab 3e 02 b5 8c 3f 88 7c 4f bf
       -0.8967284 0.3353659 1.0992739 -0.81049395
0000e0 ee a1 13 3e 3e 10 88 bd 5f 3d 22 bf 7b 1a af 3e
       0.1441724 -0.06643723 -0.63374895 0.3419989
0000f0 e1 7e 89 bd 48 db 83 be 3b 36 d8 be 65 fd a1 3e
       -0.06713653 -0.25753236 -0.42228875 0.31638637
000100 62 26 d6 be 6d a5 ec bd 4e 52 04 bf 01 49 b1 be
       -0.4182616 -0.1155499 -0.51688087 -0.3462601
000110 03 9c 7a 3c ee 26 f0 3d 47 d7 52 be 15 0c 29 bf
       0.015295985 0.11726175 -0.20589934 -0.6603406
000120 49 e2 15 bf 2c 0b 0b bf b1 55 97 3e 74 e0 e3 be
       -0.5854841 -0.5431392 0.29557565 -0.44507182
000130 86 27 ac be fa d8 4d 3f 20 5e 92 bc d0 15 2b be
       -0.33623904 0.80409205 -0.017867148 -0.1670754
000140 1a 99 a1 bd 88 58 ac bc 09 6d 12 bf 78 4e e2 3e
       -0.0789053 -0.021038309 -0.57197624 0.44200492
000150 61 9b 70 3e 39 d1 65 bf b7 7d 67 3e 5c 81 43 bf
       0.23496772 -0.89772373 0.2260655 -0.7636926
000160 53 81 0e 3e d7 09 5d 3e 7b f3 a5 be 17 35 07 3e
       0.13916521 0.21585785 -0.32412323 0.13203846
000170 e6 92 3d be 98 49 03 bf 37 cf 16 3e 12 de 0b 3e
       -0.18513069 -0.5128417 0.14727484 0.13658932
000180 88 52 a2 3e b2 4f 7a bf a1 49 71 bd d2 7f b0 3d
       0.3170359 -0.97777855 -0.05890811 0.0861813
000190 1a a4 34 bf 30 2d 08 bd 4e 25 46 be e3 68 b7 be
       -0.705629 -0.03324622 -0.19350168 -0.3582221
0001a0 8f eb 6e be 97 e0 46 bf fd 12 0e 3f 42 fc 35 3e
       -0.23332046 -0.77686447 0.55497724 0.1777201
0001b0 1b 9e 0e 3f e3 c8 23 bf ba 59 20 3f 99 f8 6c bf
       0.5571 -0.63978404 0.6263691 -0.9256683
0001c0 9c 35 27 3c 16 52 ca 3d e7 01 a6 bd 61 88 f5 3e
       0.010205653 0.09878938 -0.081058316 0.4795561
0001d0 41 b3 bb be c0 02 20 3e 9d 96 57 3e cb f6 3c 3e
       -0.36660197 0.15626049 0.21053548 0.18453519
0001e0 f1 df 90 be d8 d4 9a be 94 76 80 be 49 58 91 3d
       -0.28295854 -0.30240512 -0.25090468 0.07096917
0001f0 3c b3 66 3f b0 52 60 3e d6 90 fa be 9a 1f 83 3e
       0.9011724 0.21906543 -0.48938626 0.25610048
000200 91 a2 bb 3d dc 8d c9 be 55 51 0e 3e eb 31 ca bb
       0.091618665 -0.39366043 0.13898213 -0.0061705015
000210 4a 1c 25 3f 83 e7 d4 3b 20 23 29 bc 63 d7 cc 3e
       0.6449629 0.006497325 -0.010323316 0.40008077
000220 96 8e 19 3d ce 5d 16 3f 9d 21 45 3e d3 51 68 3e
       0.037489496 0.58736885 0.19251104 0.22687463
000230 d8 93 83 3d 04 c8 e7 be 70 3d 63 bd d2 c2 36 bf
       0.06424683 -0.45269787 -0.055478513 -0.7139102
000240 95 c3 2f bf ab 96 9d 3e a4 be 15 be a7 a5 8e 3e
       -0.6865781 0.30779013 -0.14623505 0.27860758
000250 3a 3e e5 3e 6b f6 24 3c d5 23 d4 3d 23 a6 21 bf
       0.44774038 0.010068516 0.10358397 -0.6314413
000260 71 c6 ed 3e 92 bf 76 3f ff 2c 4d 3f 27 a1 fa 3e
       0.4644046 0.96386063 0.80146784 0.48951074
000270 db 7d 1e 3f 1a be 1c 3f 36 dd 5d 3d e2 85 c1 3e
       0.6191079 0.6122757 0.05416604 0.37797457
000280 87 ad fd bd 6a 91 a6 bc d7 ad 99 bf e5 c6 72 be
       -0.12386613 -0.02033301 -1.2006177 -0.23708685
000290 a8 55 3c bf db 72 29 3e 2c 34 f4 3d e9 d5 16 be
       -0.735682 0.1654772 0.119240135 -0.14730038
0002a0 38 84 b6 bd 08 97 9d bd 1f b0 84 3e a6 2c e1 be
       -0.089119375 -0.076948225 0.2591562 -0.43979377
0002b0 9d 4c c6 3e b0 75 89 bd 5a dc e1 3d ba 5e f2 3e
       0.38730326 -0.067119 0.11028357 0.47337896
0002c0 ed fc 0a 3f 3f 36 18 3e cc 39 f8 bc d9 8b 8f 3e
       0.54292184 0.14864443 -0.030300997 0.28036383
0002d0 60 70 f4 be 8e 89 8a bd 5e 3f 8f 3e 58 0f aa 3e
       -0.47741985 -0.06764518 0.27978033 0.3321483
0002e0 94 43 a5 3e 73 b3 c7 bc 54 d1 20 3e 0d c9 bd bd
       0.3227812 -0.02437756 0.15704852 -0.09266863
0002f0 0b c4 7b be bf cf 6f bd 37 91 4d 3e 34 15 54 3e
       -0.24586503 -0.05854773 0.20074926 0.20711213
000300 b0 13 7d 3f b4 9a c8 3e 97 9b b2 be f8 2f 40 be
       0.98858166 0.3918053 -0.3488433 -0.18768299
000310 87 ac fa 3e ef 50 7e 3e 58 32 35 3f 6e dc e7 bc
       0.48959753 0.24835561 0.70779943 -0.028303351
000320 1a d7 14 bf 77 dd 35 be ee 7b da be 55 d1 81 3f
       -0.5814072 -0.17760263 -0.42672676 1.0142008
000330 54 68 a9 bd c5 7d 9e 3d ef 02 85 be 5c ca 94 3e
       -0.08271852 0.077388324 -0.259788 0.29060638
000340 fe 3f 32 3f ab 04 53 3e b4 70 1a bf 76 79 b9 3e
       0.69628894 0.2060725 -0.6032822 0.3622548
000350 5e 0a 0f 3f 56 09 8a 3e fe 2b cd be e9 5e 79 3e
       0.55875194 0.26960248 -0.40072626 0.24352612
000360 08 23 f3 3e 7d 7b 6f 3f f5 73 41 be d5 7b 54 bf
       0.47487664 0.93547803 -0.1889189 -0.8300145
000370 57 54 b6 3d 3f f2 55 be a3 cb fa bc fe 34 f7 be
       0.08902805 -0.20893191 -0.03061468 -0.48282617
000380 58 00 e6 bd f4 1a e8 bd c8 59 3d 3d f1 a7 fc 3d
       -0.11230534 -0.11333266 0.0462282 0.1233672
000390 38 2d fa 3d 4f 0d 2a 3e 55 90 49 3f 89 cc c6 be
       0.12215656 0.1660664 0.7873586 -0.38827923
0003a0 03 b0 30 3f 85 f1 e9 3e f8 09 c3 be 80 68 8f 3e
       0.6901857 0.45692077 -0.38093543 0.28009415
0003b0 62 c1 aa 3d f7 88 c1 bd 41 cb 9c be fb 23 db 3e
       0.08337666 -0.09449952 -0.3062382 0.42800888
0003c0 ce b9 55 bd ee 74 3f 3d 77 58 fe 3e 79 13 11 be
       -0.05217915 0.046742372 0.49676868 -0.14167584
0003d0 27 52 64 3e 63 29 6d be 23 95 01 be 93 7c cc be
       0.22296964 -0.23160319 -0.12654547 -0.39938793
0003e0 4e 29 af 3e 6f e1 bc 3b 00 c7 c4 be 8e 3c 87 bc
       0.342112 0.0057641785 -0.38433075 -0.016508367
0003f0 0b 16 e7 be 77 9d 94 be 06 48 26 bf a6 6a 8a be
       -0.45134005 -0.29026386 -0.6495365 -0.2703449

layers.5.fc.bias f4 [16]
000000 d8 75 87 bd b7 a3 6b 3d 3d 1c 9c bc 51 ac 2e bd
       -0.06614274 0.057529178 -0.019056434 -0.042644802
000010 51 ba bb bd da 8d 1a 3c dd 40 08 3e 54 ca 95 3e
       -0.091663964 0.009433234 0.13305993 0.29255927
000020 2f 24 c8 bd 2a e4 bb bc 90 8c a4 bd 10 f1 0a 3e
       -0.097725265 -0.022935946 -0.08034623 0.1356852
000030 e5 e0 44 be 9e aa b6 bc c4 a5 cd bd c5 1d 24 be
       -0.19226415 -0.022298153 -0.10041383 -0.16026981

layers.6.fc.weight f4 [16, 16]
000000 e6 e7 3b bf 57 3b 48 be 77 6c 23 3e 4f f7 50 bd
       -0.73400724 -0.19553886 0.15959345 -0.0510171
000010 68 06 d4 be b0 a1 4d 3e 4e bc 2c 3e fb b3 a0 be
       -0.41411138 0.2008121 0.16868708 -0.31387314
000020 17 49 41 3e 43 5e 95 bd 22 b3 97 bd cd 8a 4e 3f
       0.18875538 -0.072933696 -0.07407214 0.80680543
000030 3d cf 90 bd 4f 11 1d bc 02 3c f2 be ac 92 cd 3d
       -0.070707776 -0.009586646 -0.47311407 0.10037741
000040 88 63 e8 3a ad 1c ce 3e 4f 57 d2 3e 79 48 ab 3e
       0.0017729858 0.40256253 0.41082236 0.3345373
000050 a1 da 66 3e 0a 85 0d be e4 1d 17 be 32 16 bc 3e
       0.22544338 -0.13820282 -0.14757496 0.36735684
000060 32 7d ad be 34 9b fb 3d 67 34 12 3f 5d 77 10 be
       -0.3388458 0.12285462 0.5711121 -0.14108033
000070 1e c0 09 bf 04 ae 9c be ba ee 22 be e3 ac 88 bd
       -0.5380877 -0.30601513 -0.1591138 -0.066736005
000080 79 6e 46 3e 67 e2 ae 3e 8f 05 90 bd f5 36 d5 3e
       0.1937808 0.34157106 -0.0703231 0.4164349
000090 e1 f8 8f 3e 52 0d 09 3c a6 3a 98 3d 0b eb 2b 3e
       0.28119567 0.008364992 0.07433061 0.1678888
0000a0 97 02 67 be 70 96 5c 3d 97 f3 12 3f da 70 d5 bd
       -0.22559582 0.053854406 0.5740294 -0.10421915
0000b0 8c d4 c0 3e cc 82 91 39 a2 7f 1c 3e 3b 9b 0d bf
       0.3766216 0.00027754006 0.15283063 -0.5531499
0000c0 c9 dd 4a 3e 69 14 05 3e a4 3f 0a be b9 74 17 bf
       0.19811167 0.12996067 -0.1350084 -0.5916248
0000d0 5f b4 87 be 9b 8c aa 3d 77 da 25 3e c2 81 8f bd
       -0.265048 0.083275996 0.16196619 -0.07007171
0000e0 53 0f 3e bc bf 4b 2a bf 80 3d 8d be 10 18 78 3e
       -0.011600333 -0.6652183 -0.27585983 0.24227929
0000f0 03 46 9e 3e eb 53 e6 3e ca 7d 2c 3f df 05 97 be
       0.3091279 0.449859 0.6737944 -0.29496667
000100 6e 1a 83 bd 46 99 67 3e aa d9 46 bd 96 b7 ee 3e
       -0.064015254 0.22617063 -0.048547424 0.4662444
000110 cb 45 88 3d e5 ed 0c 3f e3 42 e9 3e 52 5d a7 be
       0.06653937 0.550505 0.45558843 -0.32688385
000120 65 eb 3e be 49 b3 31 be d7 b3 2d bd c9 1b 37 bf
       -0.18644483 -0.17353548 -0.042407837 -0.7152677
000130 16 56 8c 3e c4 ab 56 be 5a 4c 3b bf 78 60 43 3f
       0.27409428 -0.20963961 -0.7316338 0.76319075
000140 d0 ce a6 be b1 4b 7f bc ff 20 fa bd 45 89 53 bf
       -0.3257966 -0.015582011 -0.12213325 -0.8263133
000150 53 b9 43 3f 26 4a 13 be 44 dc b7 be 19 4b 0b bf
       0.7645466 -0.14383754 -0.35910237 -0.54411465
000160 d0 20 c4 be 67 22 f3 bd 5b ae 28 3f ce bc d2 3d
       -0.38306284 -0.11871796 0.65891045 0.10289918
000170 6e 46 5a 3f f3 b5 2a bf b5 22 43 3f af 1a 5f bc
       0.8526372 -0.6668388 0.76224834 -0.013617202
000180 9e 37 a6 3e 39 12 09 3e 83 f2 12 be 41 a4 84 3d
       0.32464308 0.13385858 -0.14350323 0.064766414
000190 8b 5b bf 3e fc 6d 0c bc 80 da d0 be a0 2e 8f 3e
       0.3737453 -0.008571144 -0.40791702 0.2796526
0001a0 4d 38 f5 3e 4c a2 72 be cd 7d 20 bf 23 fa 8d 3c
       0.47894517 -0.23694724 -0.62691957 0.017331189
0001b0 bd a6 ff 3e a5 5f 85 3e ed 9d 9c 3e 57 40 00 3f
       0.499319 0.26049533 0.30589238 0.50098175
0001c0 b3 4f 46 bf 1a 0e 23 3f fc 65 c1 be c5 f8 11 bf
       -0.7746536 0.6369339 -0.3777312 -0.5702022
0001d0 cd d3 92 3e fe e1 44 be 4e 9b aa bd 10 43 6f be
       0.28677216 -0.19226834 -0.08330403 -0.23365426
0001e0 f1 eb 7f 3e 13 9f ff be 63 11 b1 3d 8c f7 2c bf
       0.24992348 -0.49926051 0.086458944 -0.67565227
0001f0 47 c0 10 3f 0d ca bc b9 38 48 04 3e b2 5a 57 3f
       0.5654339 -0.00036008694 0.12918174 0.84122765
000200 49 cf 04 3d ea d4 5c be 18 30 59 3e b7 9a ad be
       0.032424245 -0.21565595 0.21209753 -0.339071
000210 d4 fe cd 3e 89 79 4c 3e 73 05 9c be 97 1a 75 be
       0.4023348 0.19968237 -0.30472907 -0.23935924
000220 70 9c bd be b1 b6 7c be 0f 10 42 3c 4f 87 05 3f
       -0.37033415 -0.24679066 0.011844649 0.5215959
000230 ae 27 06 3e e0 bd 95 3e 7e 16 cc 3e 96 2c 3a be
       0.13101074 0.29246426 0.3986091 -0.1818107
000240 71 6d 27 3f 97 18 44 bf 38 90 20 3e cc 66 ff be
       0.6540137 -0.7660002 0.15680015 -0.49883115
000250 c0 92 0f 3f 22 ff 23 3e c7 08 ae 3e d0 86 29 be
       0.560833 0.16015294 0.33991072 -0.16555333
000260 86 6b 79 3e 43 f3 ad be 1e 66 dc 3d cd a8 0d be
       0.24357423 -0.33974656 0.10761665 -0.13833924
000270 ba ec 64 bf c9 72 ae 3d ef 7d 4e bf 14 82 f0 bb
       -0.89423716 0.08517987 -0.8066091 -0.0073397253
000280 cc 70 f5 3e 4a 96 c9 be 9f 5c 84 3e e6 b7 e6 be
       0.4793762 -0.39372474 0.25851914 -0.45062178
000290 5f bb 48 bd 74 40 e1 be 85 01 92 3c 2a f7 a3 3e
       -0.049006816 -0.43994486 0.01782299 0.3202451
0002a0 23 73 e8 3d fe f7 3b 3e 5d 04 d1 3e a1 9a 10 3f
       0.113500856 0.1835632 0.4082364 0.56485945
0002b0 fd 6e 40 3f 51 7f 24 3e f9 e8 90 bd 6f 62 11 bf
       0.75169355 0.16064192 -0.07075686 -0.5679082
0002c0 a4 31 df be b8 3b 27 bf c4 67 b3 be be 4c 39 3f
       -0.4359256 -0.653255 -0.35040104 0.72382724
0002d0 39 69 a8 3e 1e 72 90 3d 69 54 bb 3e 8e 93 44 3f
       0.3289278 0.07053016 0.36587837 0.7678765
0002e0 66 04 da be 04 15 1c 3f 9c 12 21 3e e2 1c 2d 3f
       -0.4258148 0.6096957 0.15729755 0.67622197
0002f0 cc b5 83 3e cf 19 8c bd 36 c8 59 bc c8 89 41 be
       0.25724638 -0.0684086 -0.013292363 -0.18900216
000300 68 04 8a bd 6c b7 80 bf 76 66 c7 3e e6 a0 d1 be
       -0.06739122 -1.0055976 0.3894536 -0.40943068
000310 5a a0 84 bf c4 8d 5c 3e c3 26 4b 3e 42 31 b1 be
       -1.0361435 0.21538454 0.19839005 -0.34607893
000320 62 a8 11 3f 88 ab 85 be 57 c8 35 bf 23 a8 12 3e
       0.56897557 -0.2610743 -0.7100882 0.14321952
000330 50 b3 33 3e b8 92 34 3e 7a 6f 99 3e 0f 9e 4f 3f
       0.17548871 0.17634094 0.29967862 0.81100553
000340 96 f0 3f bc 29 36 04 3e a6 cc c7 be ce c6 81 be
       -0.011715075 0.12911285 -0.39023322 -0.25346988
000350 29 8b db be 95 53 6e be e4 a5 2c 3e 6d 36 a5 be
       -0.42879608 -0.23274072 0.16860157 -0.32268086
000360 df 5a e7 3e 04 70 1e 3e 6a a0 a9 3c 0e 16 b3 3c
       0.45186517 0.15472418 0.020706374 0.021861102
000370 0a cf 98 3d 5b 97 97 bd 38 0c a0 3e 5d bf 79 3f
       0.074613646 -0.07401916 0.31259322 0.9755762
000380 2c 05 e1 bd ce bb 16 3f 2e dd 37 3f e2 42 5b be
       -0.109873146 0.5888032 0.7182187 -0.21412233
000390 97 d2 ae be bb 63 10 3f 41 0a 58 3e 01 f3 fb 3d
       -0.34145042 0.56402177 0.21097662 0.12302209
0003a0 40 b3 17 3f f8 e7 e2 3e b3 27 15 bf 1c 7c 10 3f
       0.5925789 0.44317603 -0.582637 0.56439376
0003b0 76 bf c9 3e 24 27 8e be af b9 88 3c 1d 2c 95 be
       0.39403886 -0.27764237 0.016690103 -0.29135218
0003c0 ef f5 b3 3e 8a 56 68 3d 59 4c a5 3c f4 60 1d 3e
       0.3514857 0.056723155 0.020178007 0.15369016
0003d0 34 9d 6d 3e a9 0c 2f 3d b3 0a ba be 9d 7e 9c 3d
       0.232045 0.042736683 -0.36336288 0.07641337
0003e0 fb 06 7e be 80 97 41 be cc c2 39 be 0e eb c3 be
       -0.2480735 -0.18905449 -0.18140715 -0.3826527
0003f0 ce 3d 18 bf d9 15 54 3d b2 bf b6 3d 61 2e f2 be
       -0.59469306 0.051778648 0.08923282 -0.4730101

layers.6.fc.bias f4 [16]
000000 fa 72 24 3e d6 bb d1 bd c4 48 4b be e7 d9 91 bc
       0.16059485 -0.10240905 -0.19851977 -0.0178041
000010 7d 8b 2e 3e e5 b9 8c bd 81 79 46 3e 27 0d 67 bd
       0.17045398 -0.06871394 0.19382288 -0.056409027
000020 fc 0e 2a 3d e3 77 8e 3e f5 48 1a 3e 3d 19 85 3e
       0.041518196 0.2782584 0.15066893 0.25995818
000030 a4 2f 38 be 76 6d df bd 31 9a 18 bd 67 39 3b be
       -0.17986923 -0.1090955 -0.037256423 -0.18283616
