models/TPC_PID_RESPONSE/net_LHC18b_apass1_mean_medium_5inputs.onnx (onnx, 8579 bytes, 27 tensors)

layers.0.fc.weight f4 [10, 5]
0	0xbf4f3841	-0.8094521
1	0x3fb7703f	1.433113
2	0xbe8584fa	-0.26078016
3	0xbea2f79d	-0.3182954
4	0x3e846289	0.25856426
5	0x3e9a6378	0.30154014
6	0xbf290b05	-0.6603244
7	0x3ee4fb72	0.44723088
8	0x3f65d051	0.8977099
9	0xbe913ce6	-0.28366774
10	0xbc2bc3ef	-0.010483726
11	0xbf77e72b	-0.9683711
12	0x3f6871cb	0.90798634
13	0x3efe9a85	0.49727264
14	0xbf891e6f	-1.0712413
15	0x3d16b615	0.03679474
16	0x3f58f282	0.8474504
17	0xbfb1a35e	-1.3877981
18	0x3f9a0084	1.2031407
19	0xbf5bf317	-0.859178
20	0x3b498753	0.0030750826
21	0x3eadb8a6	0.33929938
22	0xbdd1df46	-0.10247664
23	0x3e94f9c6	0.29096812
24	0x3eaef9e9	0.3417504
25	0x3eb12107	0.3459551
26	0x3e90e4eb	0.2829965
27	0x3efd2502	0.49442297
28	0xbe4ab237	-0.19794546
29	0xbf280c67	-0.65643924
30	0x3ccd5573	0.02506516
31	0x3f9e04ed	1.2345253
32	0xbf66c201	-0.90139776
33	0x3ee16aaf	0.44026706
34	0x3ec31773	0.38103828
35	0x3e8ef791	0.27923253
36	0xbf54022d	-0.8281582
37	0x3db2fc18	0.08739489
38	0x3d9c2956	0.07625072
39	0xbe9814b4	-0.29703295
40	0x3f6b041b	0.9180314
41	0x3e9390b8	0.2882135
42	0x3ebcf6a8	0.36906934
43	0x3e39ac88	0.18132222
44	0x3eb439f4	0.35200465
45	0xbe7142ca	-0.23560634
46	0xbe06ad2b	-0.13151996
47	0xbde8ec51	-0.11373199
48	0x3dd499e9	0.103809185
49	0x3f35dfa3	0.7104437

layers.0.fc.bias f4 [10]
0	0xbe4f9a4d	-0.20273705
1	0xbea7af1f	-0.32750794
2	0x3e660dd5	0.22466214
3	0xbebae204	-0.3650056
4	0x3e8a1464	0.26968682
5	0x3e88a634	0.26689303
6	0xbe58140e	-0.211014
7	0x3c48c39d	0.012253669
8	0xbef90994	-0.4864012
9	0xbec1a633	-0.37822112

layers.1.fc.weight f4 [10, 10]
0	0x3d63e267	0.055635836
1	0x3f623ee1	0.88377196
2	0x3f2470b2	0.6423446
3	0xbe5fd8eb	-0.21860091
4	0x3f1b3a51	0.6063586
5	0x3e300db6	0.1719273
6	0xbf086972	-0.53285897
7	0xbeabfe0d	-0.33592263
8	0x3f0f4a64	0.55972886
9	0x3f013839	0.50476414
10	0xbd879267	-0.06619721
11	0x3f578d2d	0.8419979
12	0x3d82a1a7	0.06378489
13	0x3f280836	0.6563753
14	0xbe1fcebf	-0.15606211
15	0x3e17fead	0.14843245
16	0x3f9cae2f	1.2240657
17	0xbed5d43e	-0.4176349
18	0x3f5c9552	0.86165345
19	0xbeceebac	-0.40414178
20	0x3deb14cb	0.11478575
21	0xbf47387b	-0.7782056
22	0x3f26fcb1	0.65229326
23	0x3e88395f	0.2660627
24	0xbeac1b15	-0.33614412
25	0x3e9fb643	0.31193742
26	0xbde37b5c	-0.11107513
27	0xbe3282b3	-0.1743267
28	0xbf41c463	-0.7569029
29	0xbf1b272b	-0.6060664
30	0x3e2e85a7	0.17043172
31	0x3e0d0ab1	0.1377361
32	0xbe85eeed	-0.26158848
33	0x3ed2a3ac	0.41140497
34	0xbe04e6ee	-0.12978718
35	0x3e05023c	0.12989134
36	0xbf961fd0	-1.1728458
37	0x3f781930	0.96913433
38	0x3dff5627	0.12467604
39	0x3f45e8c6	0.7730831
40	0xbd9210a5	-0.07132081
41	0xbecf9e53	-0.4055048
42	0xbe80f926	-0.25190085
43	0x3d79e436	0.061008655
44	0x3cdc0ea4	0.02686245
45	0xbec88232	-0.3916183
46	0x3e4ba7f2	0.19888285
47	0x3f478f2e	0.7795285
48	0xbdbcc2e1	-0.09216858
49	0x3f3bc94c	0.7335403
50	0xbec1b804	-0.37835705
51	0x3ee6fb2f	0.45113513
52	0xbe54f351	-0.20795943
53	0xbf779da1	-0.967249
54	0x3e88ab15	0.26693025
55	0xbdc597fd	-0.0964813
56	0x3e8e455a	0.27787286
57	0xbec5612e	-0.38550705
58	0x3eb78fcd	0.358519
59	0xbf5551c2	-0.8332788
60	0x3f0212b1	0.5080977
61	0xbf08b261	-0.53397185
62	0xbf857fec	-1.0429664
63	0x3f343ef3	0.7040855
64	0xbebe9753	-0.37224826
65	0x3e44d6de	0.1922259
66	0xbf25cd34	-0.6476624
67	0xbe66d556	-0.22542319
68	0x3eb85cec	0.36008394
69	0x3d465d51	0.048428837
70	0x3be495b6	0.0069758547
71	0x3e581db9	0.21105088
72	0xbef955fd	-0.48698416
73	0xbf4c35ed	-0.79769784
74	0x3e3ee9be	0.18643853
75	0x3d97ffa5	0.07421807
76	0x3eb15907	0.34638235
77	0xbdd3d6bb	-0.10343691
78	0xbecbeb28	-0.39827847
79	0xbe114fb4	-0.1419056
80	0x3f49dc23	0.78851527
81	0xbed33d3e	-0.41257662
82	0x3e4a6490	0.19764924
83	0x3e6744ad	0.22584791
84	0x3f413a18	0.7547927
85	0x3e831221	0.2559977
86	0xbf1dcff8	-0.6164546
87	0xbe83474f	-0.25640342
88	0xbf6f9c84	-0.935982
89	0x3e067a5a	0.13132611
90	0x3e272a00	0.16324615
91	0x3e32f1a8	0.17474997
92	0x3f0ec110	0.5576334
93	0x3f2f82e3	0.6855909
94	0x3f8b7a94	1.0896783
95	0xbf953cd5	-1.165919
96	0x3f919c75	1.1375872
97	0x3ec4565d	0.3834714
98	0x3ede0da4	0.43369782
99	0x3e8d6192	0.27613503

layers.1.fc.bias f4 [10]
0	0xbe0e3461	-0.13887168
1	0xbdb66e01	-0.089077
2	0x3eb6d42d	0.35708752
3	0xbea7be0a	-0.32762176
4	0x3ecfeaeb	0.40608916
5	0x3eafb26f	0.34315822
6	0x3e22bd1f	0.15892456
7	0x3d596f5b	0.053084712
8	0xbd353fa2	-0.044250138
9	0xbdffc9d0	-0.124896646

layers.2.fc.weight f4 [10, 10]
0	0xbf0aedfc	-0.54269385
1	0xbf08ff8c	-0.53514934
2	0xbe082c21	-0.13298084
3	0xbd5a82d8	-0.05334744
4	0xbf6e3ee3	-0.9306471
5	0xbedc2e75	-0.43004194
6	0x3ed535c1	0.41642573
7	0x3e0c2919	0.13687553
8	0x3ece45e5	0.402877
9	0x3da7e186	0.08197312
10	0xbf283c45	-0.65716964
11	0x3e8ae46d	0.271274
12	0x3f30933e	0.68974674
13	0xbe033cf9	-0.12816228
14	0xbeb1000a	-0.34570342
15	0x3f7a8673	0.97861403
16	0x3e5602ec	0.20899552
17	0xbf695173	-0.91139907
18	0x3d8fb2fb	0.0701656
19	0xbed53ee0	-0.41649532
20	0x3eb58bff	0.3545837
21	0x3e9f349a	0.3109482
22	0x3f6bc79a	0.9210144
23	0xbd9d1af7	-0.07671159
24	0xbf17f221	-0.59353834
25	0x3f24047c	0.6406934
26	0xbe3cbc46	-0.18431196
27	0xbeb92e63	-0.36168203
28	0xbf22b85b	-0.63562554
29	0xbe610452	-0.21974304
30	0xbeead813	-0.45867977
31	0xbe60c44f	-0.21949886
32	0xbe225d90	-0.15856004
33	0x3f955116	1.166537
34	0x3f14d8f9	0.58143574
35	0x3eb1026b	0.34572157
36	0xbdcd0afd	-0.100118615
37	0x3dbb8b4f	0.091574304
38	0xbe861718	-0.26189494
39	0xbeb20f9f	-0.34777543
40	0xbf64eb79	-0.894218
41	0xbe8e4d5a	-0.2779339
42	0x3f63ec3b	0.89032334
43	0xbea0436e	-0.31301445
44	0x3f24da56	0.64395654
45	0x3f5753e6	0.84112394
46	0xbf41fbd3	-0.7577488
47	0x3f2eacfb	0.682327
48	0x3e44b492	0.19209507
49	0xbe986aa3	-0.29768857
50	0x3f45a907	0.7721104
51	0x3fc6f6cf	1.554407
52	0xbed34900	-0.41266632
53	0x3f0df738	0.5545535
54	0x3f1b8e87	0.60764354
55	0xbddfbf4a	-0.10925157
56	0xbf1b5788	-0.6068044
57	0x3f30c629	0.6905237
58	0x3eacb56e	0.3373217
59	0x3e91558e	0.28385586
60	0xbefe635f	-0.4968519
61	0x3e365ab3	0.17808037
62	0x3e76c19c	0.24097294
63	0xbd43ff69	-0.047851
64	0xbed35447	-0.41275236
65	0xbdb5a13c	-0.08868644
66	0x3eb287eb	0.34869322
67	0xbf1e45ae	-0.6182507
68	0xbf7b6f21	-0.98216444
69	0x3f08e985	0.5348132
70	0x3e8398a8	0.25702405
71	0xbeb5f183	-0.3553582
72	0xbdde4c90	-0.10854447
73	0x3efa4793	0.48882732
74	0xbe9a1a11	-0.30098012
75	0x3dc9b6a0	0.09849286
76	0xbe8a17dd	-0.2697133
77	0xbf0a34e4	-0.53986955
78	0xbeaebf50	-0.34130335
79	0x3f24e9b7	0.6441912
80	0x3f149c2d	0.58050805
81	0xbe9b38a6	-0.30316657
82	0x3e8785b0	0.26469183
83	0xbf4a43a8	-0.79009485
84	0xbf385051	-0.71997553
85	0xbd5c5019	-0.053787325
86	0xbe5f840a	-0.21827713
87	0xbebdb8c1	-0.3705502
88	0x3e9727a2	0.29522425
89	0x3f695b33	0.91154784
90	0x3ed105f9	0.4082487
91	0x3e93e0e9	0.2888253
92	0x3df4b6a8	0.119489014
93	0x3f09ec68	0.5387635
94	0xbe42e6e3	-0.19033389
95	0xbf1beb29	-0.609057
96	0x3e9cc55b	0.3061932
97	0xbf8d08b2	-1.1018279
98	0xbef39687	-0.4757578
99	0xbe9736bc	-0.29533947

layers.2.fc.bias f4 [10]
0	0xbde19656	-0.110150024
1	0xbda0b6ec	-0.078473896
2	0x3e8ee08f	0.279057
3	0x3d183d36	0.03716775
4	0xbde40349	-0.11133439
5	0x3e20a8fe	0.15689465
6	0xbda5c8db	-0.08094951
7	0x3e362a15	0.1778949
8	0xbe343e7c	-0.17601961
9	0x3e49ebf0	0.1971891

layers.3.fc.weight f4 [10, 10]
0	0xbf2480f5	-0.6425927
1	0xbeaf2ccb	-0.34213862
2	0xbf4343b1	-0.76275164
3	0xbf72d366	-0.9485382
4	0x3e3e3842	0.18576148
5	0xbe5f0dfe	-0.21782681
6	0x3e1cb1cb	0.15302198
7	0xbf34a736	-0.70567644
8	0xbf1328f5	-0.5748437
9	0xbf16e27d	-0.58939344
10	0xbeb72979	-0.3577383
11	0x3f0e6396	0.55620706
12	0x3e4e7929	0.20163406
13	0xbdae0c18	-0.084984004
14	0x3e71f5bf	0.23628901
15	0xbf206c33	-0.626651
16	0xbc30d2d0	-0.010792449
17	0x3eb7799c	0.35834968
18	0xbeef9b44	-0.46798146
19	0x3f65db58	0.89787817
20	0x3ef350e6	0.47522658
21	0xbec6b2fb	-0.38808426
22	0x3e9e4773	0.30913886
23	0xbdb71086	-0.089386985
24	0x3eb15250	0.34633112
25	0xbdc307ef	-0.095229976
26	0x3ed56d62	0.41685015
27	0xbceb64b7	-0.028734548
28	0xbf62054c	-0.8828933
29	0xbe0e51b2	-0.13898352
30	0xbf43bfde	-0.7646464
31	0xbe753ae7	-0.2394825
32	0xbe865ad3	-0.26241168
33	0x3f0a6551	0.54060847
34	0xbf6ad641	-0.91733176
35	0x3f5cc7f4	0.86242604
36	0xbf4a9cec	-0.79145694
37	0x3f47947c	0.77960944
38	0x3e7d151a	0.24715081
39	0xbf97227f	-1.1807402
40	0x3e55b303	0.20869069
41	0x3e8b20cc	0.2717346
42	0xbf934bdc	-1.1507525
43	0x3ea3dc1e	0.32003874
44	0x3f257087	0.6462483
45	0xbf591f77	-0.84813637
46	0xbe4ffd88	-0.20311558
47	0xbf986ae8	-1.1907625
48	0xbed6e29b	-0.4196976
49	0xbe66c47c	-0.2253589
50	0x3e5b1eb6	0.21398434
51	0x3e653bf7	0.22386156
52	0x3f1bb756	0.60826623
53	0x3f2e4adb	0.6808297
54	0x3e80eea9	0.25182083
55	0x3f00a2d8	0.5024848
56	0xbf41fa50	-0.7577257
57	0x3ea79fca	0.32739097
58	0xbd973f6e	-0.07385145
59	0x3e4ca568	0.19984972
60	0x3c710fc4	0.0147132315
61	0xbf7defe9	-0.991942
62	0xbf0dd21a	-0.55398715
63	0xbf18fdac	-0.5976207
64	0x3d176bb9	0.036967967
65	0xbdd857ab	-0.10563596
66	0xbdfd5460	-0.12369609
67	0xbeee0362	-0.46486956
68	0x3e995f52	0.29955536
69	0x3eb2f470	0.34952116
70	0x3f4581d5	0.7715123
71	0x3f8802d5	1.0625864
72	0x3efe6cbc	0.49692333
73	0x3f4f04d0	0.8086672
74	0x3f3e4b1e	0.7433337
75	0x3ed63a89	0.41841534
76	0xbe6077d8	-0.21920717
77	0x3d1114a6	0.035420083
78	0x3f6a7151	0.9157916
79	0xbf3dfcb4	-0.7421372
80	0x3f9c6aff	1.2220153
81	0xbe9e414a	-0.30909187
82	0x3e4af79a	0.19821015
83	0xbcccccfc	-0.025000088
84	0x3e0503be	0.12989709
85	0x3f1522ea	0.582564
86	0xbe61b724	-0.22042519
87	0xbd881df6	-0.066463396
88	0xbe1bd562	-0.15218118
89	0x3e981d6f	0.29709956
90	0x3f43942e	0.7639798
91	0x3f1046e8	0.56358194
92	0xbdb6ed8d	-0.08932028
93	0xbf0f5894	-0.55994534
94	0xbef3138a	-0.47475845
95	0x3e6e702f	0.23284982
96	0xbf8e735a	-1.1128953
97	0x3e70c362	0.23512033
98	0xbe356df9	-0.17717732
99	0xbe033af0	-0.12815452

layers.3.fc.bias f4 [10]
0	0xbd2ad358	-0.04170546
1	0xbd81d816	-0.06340043
2	0xbda445e7	-0.08021145
3	0xbe0b75b2	-0.13619116
4	0x3e210bf7	0.1572722
5	0xbe26a4b8	-0.16273773
6	0xbe7f8ce7	-0.24956094
7	0x3e16744a	0.14692798
8	0xbe44a18b	-0.19202249
9	0xbde05046	-0.10952811

layers.4.fc.weight f4 [10, 10]
0	0x3f3327bc	0.69982505
1	0xbf849d97	-1.0360593
2	0xbf646d3c	-0.8922918
3	0x3d9e6778	0.07734579
4	0x3f2ce78c	0.6754081
5	0xbf971134	-1.1802125
6	0x3e5130a8	0.20428717
7	0x3fd22f72	1.6420729
8	0x3f35c63f	0.71005625
9	0xbf294800	-0.6612549
10	0xbe2c2cf6	-0.16814026
11	0x3f08aab2	0.5338546
12	0x3bd925c1	0.006626815
13	0xbf195da3	-0.59908503
14	0xbe1f28e5	-0.15542944
15	0xbe5c6902	-0.21524432
16	0x3f036e7c	0.5134046
17	0x3f3ac1ed	0.7295216
18	0x3ed9b5de	0.42521566
19	0x3c74f503	0.0149509935
20	0x3e863261	0.2621031
21	0xbdd5befe	-0.104368195
22	0x3f1927e4	0.59826493
23	0x3ed1057a	0.4082449
24	0xbdc2a2bd	-0.09503696
25	0xbed9499a	-0.42438966
26	0xbb73f1f5	-0.0037223075
27	0xbf092ec6	-0.53586996
28	0x3f055b9d	0.52092916
29	0xbdb48d03	-0.08815958
30	0x3f0a89eb	0.54116696
31	0x3edb0445	0.42776695
32	0xbe6efdf3	-0.23339061
33	0xbe2a529d	-0.16633077
34	0xbf4ab843	-0.7918741
35	0x3f4f1007	0.8088383
36	0x3f5dc602	0.8663026
37	0xbe593f44	-0.2121554
38	0xbe82b06e	-0.2552523
39	0x3f8e1c13	1.1102318
40	0xbea27e9d	-0.31737223
41	0xbd342d7f	-0.0439887
42	0xbefece37	-0.49766704
43	0x3f263715	0.649278
44	0x3c6c740c	0.014431965
45	0x3e0d3149	0.13788332
46	0x3e3ae671	0.18251969
47	0xbf78e993	-0.97231406
48	0x3e467daa	0.19383875
49	0xbe032f17	-0.12810932
50	0x3e48134c	0.19538611
51	0xbe1dcb6b	-0.15409629
52	0x3e002ed3	0.12517862
53	0x3ec6e2e0	0.38844967
54	0xbeb66150	-0.3562112
55	0x3f2836c3	0.6570856
56	0xbe8e9a9c	-0.27852333
57	0x3d81377f	0.06309413
58	0xbe738f58	-0.2378515
59	0xbf3ad3d4	-0.72979474
60	0x3ed34f46	0.41271418
61	0x3ed38ca3	0.41318235
62	0xbf31b42f	-0.69415563
63	0x3d007182	0.03135825
64	0xbea85f9a	-0.32885438
65	0xbf4798a2	-0.77967274
66	0x3ea6a46f	0.32547328
67	0xbf20bcc5	-0.6278804
68	0xbe80a22c	-0.25123727
69	0x3c7540b1	0.014969037
70	0xbefaa3ce	-0.48953098
71	0x3f1f70a5	0.62281257
72	0xbe9fbab0	-0.3119712
73	0xbea9f8c4	-0.33197606
74	0xbf37b97e	-0.71767414
75	0xbd63348d	-0.05547004
76	0x3e48b6c7	0.19600974
77	0x3dacb226	0.084324166
78	0xbefdeabb	-0.49593148
79	0x3d7d305d	0.0618137
80	0x3e56f903	0.20993428
81	0x3f2b002f	0.66797155
82	0x3f39ed6d	0.7262791
83	0xbd43491a	-0.047677137
84	0x3e9df968	0.30854344
85	0xbdc1d9ed	-0.09465394
86	0x3ef857e6	0.4850456
87	0x3f14de41	0.5815163
88	0xbfa6c129	-1.3027698
89	0xbf0a0f0b	-0.53929204
90	0xbf26edaf	-0.65206426
91	0x3e494f4c	0.19659156
92	0xbd84f8b6	-0.0649275
93	0xbef26afe	-0.47347254
94	0xbb75ba23	-0.003749498
95	0x3ec7abe8	0.38998342
96	0x3c158a42	0.0091272015
97	0x3f31cd4f	0.694539
98	0xbe3f9d65	-0.18712385
99	0xbe76ce38	-0.24102104

layers.4.fc.bias f4 [10]
0	0xbd5c322d	-0.05375879
1	0x3e609fd6	0.21935973
2	0xbc0a6bae	-0.008448524
3	0xbd4a1625	-0.049337525
4	0xbe142e9c	-0.14470905
5	0xbea8373e	-0.32854646
6	0x3e42ece2	0.19035676
7	0xbe3d8eca	-0.18511501
8	0xbe688450	-0.22706723
9	0x3e685ca3	0.22691588

layers.5.fc.weight f4 [10, 10]
0	0xbddfab44	-0.10921338
1	0x3edc9218	0.4308021
2	0xbe612f2c	-0.21990651
3	0xbeb286d3	-0.34868488
4	0xbf50325f	-0.8132686
5	0x3e9f9b4e	0.31173176
6	0x3efad844	0.48993123
7	0xbf13f56b	-0.57796353
8	0xbce5b2f4	-0.028039433
9	0x3f673d87	0.9032826
10	0xbe370525	-0.17873056
11	0xbe229b87	-0.15879641
12	0x3e9a7c89	0.30173138
13	0xbf34618e	-0.70461357
14	0x3dffb854	0.1248633
15	0x3e9646f8	0.2935102
16	0xbf81f81f	-1.0153846
17	0x3d98d3a2	0.07462241
18	0xbe987894	-0.29779494
19	0xbf341176	-0.70339143
20	0xbf7058a4	-0.93885255
21	0xbea92c34	-0.33041537
22	0x3ebbb1d6	0.36659116
23	0xbfadd675	-1.3581072
24	0xbe973e30	-0.29539633
25	0xbee572b2	-0.44814068
26	0xbf4b1081	-0.7932206
27	0xbf145f5a	-0.57957995
28	0x3efefe7b	0.49803528
29	0xbd0beecf	-0.034163292
30	0xbf0aacbc	-0.5416982
31	0x3f204d0c	0.62617564
32	0x3e9d5a06	0.30732745
33	0x3f59c0b0	0.8505964
34	0x3e15ff34	0.14648134
35	0xbee27871	-0.44232515
36	0xbf066e96	-0.5251249
37	0xbdeddcea	-0.11614402
38	0x3e6767e8	0.22598231
39	0x3db7e924	0.08980015
40	0x3bdff5c7	0.006834719
41	0xbef2c329	-0.4741452
42	0x3f8503dd	1.0391804
43	0x3d822642	0.06354953
44	0x3f82fd47	1.0233544
45	0x3f591ff1	0.84814364
46	0x3f6015fd	0.8753355
47	0x3f6b3f89	0.9189382
48	0xbdd0c2cf	-0.10193407
49	0x3f6e4c9c	0.93085647
50	0x3ed401b1	0.4140754
51	0xbf245dbb	-0.6420552
52	0xbf2c50ef	-0.67310995
53	0x3e2751a8	0.16339743
54	0x3edf97d7	0.43670532
55	0xbe9213b8	-0.2853067
56	0x3daca39c	0.084296435
57	0x3f7651a6	0.96218336
58	0x3e697dae	0.22801849
59	0x3dc09800	0.09403992
60	0xbe79d771	-0.2439859
61	0x3f247682	0.6424333
62	0x3f13dc85	0.5775836
63	0x3e9f493f	0.3111057
64	0xbeda1658	-0.42595172
65	0x3e9127a8	0.28350568
66	0xbeeb8422	-0.45999247
67	0x3ed34466	0.4126312
68	0x3ef01d25	0.46897236
69	0x3e88bf5b	0.26708493
70	0x3e4e4053	0.20141725
71	0x3fb97cfe	1.449127
72	0x3d982a77	0.074299745
73	0x3ce823fd	0.028337473
74	0xbe13f869	-0.1445023
75	0x3e9240e1	0.28565124
76	0xbf749c3c	-0.95550895
77	0xbe746e89	-0.23870291
78	0xbe82fb66	-0.25582427
79	0x3f2096a7	0.6272988
80	0xbdbf629c	-0.0934498
81	0x3f10e3fe	0.5659789
82	0xbe883133	-0.26600036
83	0xbe4c993d	-0.19980331
84	0x3f129e4f	0.5727281
85	0x3f2dc994	0.6788571
86	0xbf4e37c1	-0.80553824
87	0xbf1281a1	-0.5722905
88	0x3f91123f	1.1333693
89	0xbe07b1a7	-0.13251363
90	0xbf475d78	-0.77876997
91	0x3e7d26a8	0.24721777
92	0x3f76007e	0.960945
93	0x3be61bf8	0.007022377
94	0xbf025bad	-0.50921136
95	0xbf080fc0	-0.5314903
96	0xbe43b538	-0.19112098
97	0x3e1de094	0.15417701
98	0x3f6ca503	0.9243929
99	0x3ebb7290	0.36610842

layers.5.fc.bias f4 [10]
0	0x3df960ca	0.12176664
1	0x3d5e65e4	0.05429639
2	0xbcc4482d	-0.023960197
3	0x3d1e3553	0.038625073
4	0x3e26bb51	0.16282393
5	0xbe3322c8	-0.17493737
6	0xbe6cd0d1	-0.23126532
7	0xbc0d63b9	-0.008629733
8	0x3e825f43	0.25463304
9	0xbce4efc5	-0.027946362

layers.6.fc.weight f4 [10, 10]
0	0x3e51f78a	0.20504585
1	0x3e15803d	0.145997
2	0x3faa1a85	1.3289343
3	0x3e868c97	0.26279137
4	0x3f1411ff	0.5783996
5	0x3c7dd332	0.015492247
6	0xbf3caa9d	-0.73697835
7	0x3f23bcfb	0.63960236
8	0x3e216850	0.15762448
9	0xbf7142d9	-0.94242626
10	0xbe916788	-0.283993
11	0xbf92f7e9	-1.1481906
12	0x3f101ec5	0.5629695
13	0x3ead5547	0.33854124
14	0x3f94bdc1	1.1620408
15	0xbf3c6e33	-0.7360565
16	0x3eaa5a69	0.33272102
17	0xbce15292	-0.027505193
18	0x3f0bc5bf	0.5459861
19	0xbcfde861	-0.030994596
20	0x3e9d97dd	0.30779925
21	0xbe9489ce	-0.29011387
22	0xbe4d7e36	-0.20067677
23	0xbee580a7	-0.44824716
24	0x3ebd5c48	0.36984468
25	0x3e94e9dd	0.29084674
26	0x3f21f478	0.63263655
27	0x3f308592	0.6895381
28	0x3eaa5d52	0.33274323
29	0x3f1103ad	0.56646234
30	0x3df4b853	0.119492196
31	0xbdde851a	-0.10865231
32	0xbf41fa9a	-0.7577301
33	0x3ecb7f36	0.39745492
34	0xbe77c8a1	-0.24197628
35	0xbe7a2bfc	-0.24430841
36	0x3eb171b5	0.34657064
37	0xbec73dba	-0.3891428
38	0x3c79c3c7	0.015244431
39	0x3e3641d2	0.17798546
40	0xbcc8c7ad	-0.024509275
41	0xbf8e39dc	-1.1111407
42	0x3de8aa62	0.11360623
43	0xbea5cfa1	-0.3238497
44	0xbf5ccf8a	-0.8625418
45	0xbf5b488b	-0.85657567
46	0x3f1350de	0.5754527
47	0x3dcd6cbf	0.10030507
48	0x3f169227	0.5881676
49	0xbf45b26b	-0.7722537
50	0x3dd6a293	0.10480227
51	0x3f4accb1	0.79218584
52	0x3db56e6a	0.088589504
53	0x3e7cce3e	0.2468805
54	0xbee173ca	-0.44033653
55	0x3e08c602	0.13356784
56	0x3eec20d9	0.4611881
57	0x3bafc6d4	0.0053642783
58	0xbf751914	-0.9574139
59	0x3c9b8f83	0.01898933
60	0xbeb86e1b	-0.36021504
61	0xbf2f99c7	-0.6859402
62	0x3f11d667	0.56967777
63	0xbdb22458	-0.08698338
64	0xbe6df4ff	-0.2323799
65	0xbef47f83	-0.47753534
66	0xbf851b2e	-1.039892
67	0xbf4fd1dd	-0.811796
68	0xbf12fc64	-0.5741637
69	0xbf99e1b6	-1.2022007
70	0xbe0d8318	-0.1381954
71	0x3e5e3b55	0.21702321
72	0x3e8b599c	0.27216804
73	0x3eb4b965	0.35297695
74	0x3ed08aaf	0.40730807
75	0x3ef0635b	0.46950802
76	0x3ede419c	0.4340943
77	0xbe6286fe	-0.22121808
78	0xbf0e622f	-0.55618566
79	0x3efb9a46	0.4914114
80	0xbf19d613	-0.60092276
81	0x3ed740d8	0.4204166
82	0xbdc3959b	-0.09550019
83	0x3ec7f0be	0.3905086
84	0xbe8c7dea	-0.27439815
85	0x3e47c186	0.19507417
86	0x40010a6a	2.0162606
87	0x3ed847e4	0.42242348
88	0xbe9d9e3f	-0.30784795
89	0x3f3dd6f4	0.7415612
90	0xbdd827f9	-0.10554499
91	0x3ef90e91	0.48643926
92	0xbebcaa9e	-0.3684892
93	0x3edef75c	0.43548095
94	0x3e8a0030	0.26953268
95	0xbe418075	-0.18896659
96	0x3db25cff	0.08709144
97	0x3f386c32	0.7204009
98	0xbddf5f3c	-0.109068364
99	0x3c84dffd	0.016220087

layers.6.fc.bias f4 [10]
0	0x3e920b93	0.28524455
1	0x3d9fce37	0.07803004
2	0xbe06c731	-0.13161923
3	0x3db91a49	0.090382166
4	0x3d496f15	0.0491782
5	0x3d255d39	0.040372107
6	0xbe39fc6b	-0.18162696
7	0x3e44d7c8	0.19222939
8	0x3e4252b2	0.18976858
9	0xbeae4786	-0.34038943

layers.7.fc.weight f4 [10, 10]
0	0xbc4a7321	-0.01235655
1	0x3eb6ea2b	0.3572553
2	0x3e5189ed	0.20462771
3	0x3f0a64dc	0.5406015
4	0x3e679d09	0.22618498
5	0xbf3f11ff	-0.74636835
6	0xbd85b64a	-0.065289095
7	0x3d8cd077	0.06875699
8	0xbf05183b	-0.519901
9	0x3ec07d1b	0.37595448
10	0xbd8807e4	-0.0664213
11	0xbedf6148	-0.43628907
12	0x3efcbd44	0.49363148
13	0x3f1eb761	0.61998564
14	0x3f3d199f	0.7386722
15	0x3d8c5499	0.06852073
16	0xbe72f558	-0.23726404
17	0x3eeb6e22	0.45982462
18	0xbe9e48ca	-0.3091491
19	0xbf539549	-0.82649666
20	0xbf29a782	-0.6627122
21	0x3f31882d	0.6934841
22	0x3fa794f2	1.309233
23	0xbed1a66d	-0.40947285
24	0xbe3f3fa3	-0.18676619
25	0x3f0f1c8b	0.5590293
26	0xbf950948	-1.1643457
27	0xbfa22d3d	-1.2670056
28	0x3f19c1e0	0.60061455
29	0x3e13d994	0.14438468
30	0xbdf6af7a	-0.12045188
31	0x3f464f13	0.7746441
32	0x3c518a5a	0.012789333
33	0xbe9a3785	-0.30120483
34	0xbe5beb75	-0.21476538
35	0x3f33b445	0.70196944
36	0xbf0023ec	-0.5005481
37	0x3f3e60e0	0.7436657
38	0x3d984140	0.074343204
39	0x3ee3c623	0.44487104
40	0xbda57a4d	-0.08079968
41	0x3ebfa843	0.3743306
42	0x3f47a2dd	0.77982885
43	0x3e808361	0.25100234
44	0x3f545a74	0.8295052
45	0x3f5d0f9c	0.86351943
46	0xbf53e4ea	-0.8277117
47	0xbf0b3055	-0.54370624
48	0xbc8ee548	-0.017443314
49	0x3e0b36ca	0.13595119
50	0xbf29fb3b	-0.6639897
51	0xbeed8e11	-0.4639745
52	0xbe85b356	-0.26113385
53	0xbed80b66	-0.42196196
54	0x3d3a76b7	0.04552337
55	0x3e56af98	0.20965421
56	0x3ed12789	0.40850475
57	0x3fc8bbac	1.5682273
58	0xbf3f1972	-0.746482
59	0x3ed6fad0	0.4198823
60	0xbe8294c6	-0.2550413
61	0xbf0eab47	-0.557301
62	0xbed59eb1	-0.41722634
63	0xbdbe375f	-0.09287905
64	0x3ec599d9	0.3859394
65	0x3dfba4ae	0.122872695
66	0x3f5e7a4d	0.86905366
67	0xbee2d55e	-0.4430341
68	0xbf0c2d4a	-0.54756606
69	0x3e846fda	0.25866586
70	0xbed96d19	-0.42466047
71	0x3e467f07	0.19384395
72	0x3e9ad09a	0.30237275
73	0x3d6043f4	0.054752305
74	0xbee34bc1	-0.44393733
75	0x3e1cda80	0.15317726
76	0x3e4697f3	0.19393902
77	0xbe8c9edd	-0.27464953
78	0xbdf910d3	-0.12161412
79	0xbe746506	-0.23866662
80	0x3f05a4c2	0.52204525
81	0x3e505870	0.20346236
82	0x3ef3e9f4	0.4763943
83	0x3e214da8	0.1575228
84	0xbe954963	-0.29157552
85	0xbe177654	-0.14791232
86	0x3e876c55	0.26449838
87	0x3dfc9e98	0.12334937
88	0xbeb04817	-0.3443
89	0x3edf14a6	0.4357044
90	0x3dfb90ca	0.12283476
91	0x3ee8d433	0.45474395
92	0xbf5759be	-0.8412131
93	0xbd92a286	-0.07159905
94	0xbefc2600	-0.49247742
95	0x3b9690ab	0.0045948825
96	0xbee42af7	-0.4456403
97	0xbe9a204a	-0.3010276
98	0x3f202c22	0.6256734
99	0x3e1658c2	0.14682296

layers.7.fc.bias f4 [10]
0	0xbea57eed	-0.323234
1	0x3e2ef637	0.17086111
2	0x3e08dd2c	0.1336562
3	0xbe39138c	-0.18073863
4	0x3dc2e8fc	0.095170945
5	0xbe9c6108	-0.3054278
6	0x3d85e010	0.06536877
7	0x3da56b7d	0.080771424
8	0xbda3b21b	-0.07992955
9	0x3d5a27c3	0.053260576

layers.8.fc.weight f4 [10, 10]
0	0x3fa0d474	1.2564836
1	0xbf3a8ab8	-0.7286792
2	0x3f55e47b	0.8355176
3	0xbedc3540	-0.43009377
4	0x3ef14379	0.4712179
5	0xbecb8bf5	-0.39755216
6	0xbe794a7d	-0.24344821
7	0x3e29fad6	0.16599593
8	0xbe9c2fcd	-0.3050522
9	0x3dde8e96	0.1086704
10	0xbeab7815	-0.33490053
11	0xbf218ac9	-0.63102394
12	0xbe77b3f3	-0.24189739
13	0x3e0e65b5	0.13905986
14	0xbf2d00d8	-0.6757941
15	0xbf2e17f6	-0.6800531
16	0xbd3540a7	-0.04425111
17	0x3e285564	0.16438824
18	0xbfbb4ff2	-1.4633772
19	0xbf3955ff	-0.72396845
20	0xbe039ef1	-0.128536
21	0xbdaacdc7	-0.0834003
22	0x3e4130eb	0.18866317
23	0x3f13f3c4	0.5779383
24	0x3e8bc8cc	0.27301633
25	0x3f35b04d	0.7097214
26	0x3eb158ba	0.34638005
27	0xbefdcd7b	-0.49570832
28	0xbe08190b	-0.13290803
29	0xbeab58ff	-0.33466336
30	0x3ec6740c	0.38760412
31	0xbf4679ea	-0.77529776
32	0x3f80204c	1.0009856
33	0x3b75968f	0.0037473773
34	0x3c35ac5c	0.011088457
35	0x3e8d98d2	0.27655655
36	0x3c98f9be	0.018673774
37	0x3e6543a3	0.22389083
38	0xbd2667ac	-0.040626213
39	0x3ea51292	0.3224073
40	0xbc8d88f7	-0.017277224
41	0xbe8055ef	-0.25065562
42	0x3f2aa91b	0.66664284
43	0xbe80d833	-0.25164947
44	0xbed1166a	-0.40837413
45	0x3c565cd0	0.013083652
46	0xbf75fbb6	-0.96087205
47	0x3efaafb7	0.48962185
48	0x3e2b98d5	0.1675752
49	0x3c77d480	0.015126348
50	0xbded3243	-0.11581852
51	0xbeb11ca4	-0.34592164
52	0x3f47b923	0.7801687
53	0xbedc6115	-0.43042818
54	0xbeb2d7a4	-0.34930146
55	0x3f062b0f	0.5240945
56	0x3d9b0849	0.0756994
57	0xbf582a2b	-0.84439343
58	0xbd111559	-0.03542075
59	0xbf42da92	-0.7611476
60	0xbf4a47dd	-0.79015905
61	0x3da86227	0.08221846
62	0xbdc1031d	-0.09424422
63	0xbeb1d6d0	-0.347342
64	0xbf9e7c76	-1.2381732
65	0xbf3f4889	-0.74720055
66	0xbe6c05e7	-0.23049127
67	0xbf4f80c9	-0.81055886
68	0x3d2cc611	0.04218108
69	0x3eed418a	0.46339065
70	0xbe120140	-0.1425829
71	0xbee413f2	-0.44546467
72	0x3f31c83f	0.69446176
73	0x3f21d10d	0.6320961
74	0x3e1826b1	0.1485851
75	0x3f10cd65	0.5656341
76	0x3eac698c	0.33674276
77	0xbe3543ff	-0.1770172
78	0xbf182f57	-0.59447235
79	0x3e89d8d3	0.26923236
80	0xbea8422c	-0.32862985
81	0x3f467bd2	0.77532685
82	0x3d68ce69	0.056837473
83	0x3e7f398f	0.249243
84	0x3f1d6f74	0.6149819
85	0x3e1ba815	0.15200837
86	0xbf8426ae	-1.0324304
87	0x3f591be0	0.8480816
88	0xbf4c2745	-0.7974742
89	0xbf1b7e4b	-0.6073958
90	0xbe151575	-0.14558966
91	0xbf8fcb83	-1.1233982
92	0x3eddbb1c	0.43306816
93	0x3f377dd2	0.7167636
94	0x3f3d1d0b	0.7387244
95	0x3d77268a	0.060339488
96	0xbe2ca0ff	-0.1685829
97	0xbf7243c1	-0.94634634
98	0xbec5e0af	-0.38647982
99	0xbf3f8e1b	-0.7482621

layers.8.fc.bias f4 [10]
0	0xbc5dbf9e	-0.013534455
1	0xbea7d9ef	-0.32783458
2	0x3e944b01	0.28963473
3	0xbe57bb9e	-0.21067664
4	0xbeae7612	-0.34074455
5	0x3a13a3a1	0.00056319876
6	0xbe107aac	-0.14109296
7	0x3e7f97dd	0.24960275
8	0x3e86ee18	0.26353526
9	0x3da2f901	0.0795765

layers.9.fc.weight f4 [10, 10]
0	0x3f97c717	1.1857632
1	0x3eb34e56	0.35020703
2	0x3f00aa34	0.5025971
3	0xbf63adc8	-0.88937044
4	0xbee8c357	-0.45461532
5	0x3f3d2741	0.7388802
6	0xbe357a31	-0.17722394
7	0x3def8a1b	0.116962634
8	0xbf2d19bb	-0.67617387
9	0x3e8f9f9c	0.2805146
10	0x3ef7d91c	0.4840783
11	0x3ec85191	0.3912473
12	0x3d8eaf97	0.06967085
13	0x3ed37fcb	0.41308436
14	0xbd5591df	-0.052141067
15	0xbeeff064	-0.4686309
16	0xbeb45177	-0.35218403
17	0xbd0f0371	-0.03491539
18	0xbf1ecaa2	-0.62027943
19	0xbc8cb956	-0.017178219
20	0x3fa697f0	1.3015118
21	0xbe0a3d22	-0.13499883
22	0x3e9fa6b7	0.3118188
23	0x3f2f4d40	0.6847725
24	0xbd2d12c6	-0.042254232
25	0x3e8d1487	0.27554724
26	0x3ef8650f	0.48514602
27	0xbe74b3cc	-0.23896712
28	0x3f5b47cc	0.8565643
29	0xbf49c4f0	-0.7881613
30	0xbdc0b0bf	-0.09408712
31	0x3e85dbb9	0.26144198
32	0xbd0a206c	-0.033722326
33	0x3d8920d1	0.06695712
34	0xbd9e4d11	-0.07729543
35	0xbe7fd25c	-0.2498259
36	0x3e849783	0.25896844
37	0x3d89a66f	0.06721198
38	0xbf8051bb	-1.0024942
39	0x3d121c22	0.03567136
40	0xbe851b41	-0.25997356
41	0xbec97fc8	-0.39355302
42	0xbe9fd524	-0.312173
43	0xbe8fa226	-0.28053397
44	0x3f193271	0.5984259
45	0x3d3c4346	0.045962594
46	0xbf791bf3	-0.9730827
47	0xbf069761	-0.52574736
48	0xbf3e8996	-0.7442869
49	0xbe425ad4	-0.1897996
50	0xbe32a98c	-0.1744749
51	0xbdbcc13e	-0.092165455
52	0x3ca9fe7f	0.020751236
53	0x3f30b61a	0.69027865
54	0x3faa1bb2	1.3289702
55	0xbeea1b3d	-0.45723906
56	0xbd8d38f8	-0.068956316
57	0xbf2097b0	-0.62731457
58	0x3e921dfc	0.285385
59	0xbe0d137b	-0.13776962
60	0x3e46c8d4	0.19412547
61	0xbebf835a	-0.374049
62	0x3f19f189	0.6013418
63	0x3ec84dab	0.39121756
64	0x3f500c86	0.8126911
65	0xbf3c29f9	-0.73501545
66	0xbe80a243	-0.25123796
67	0x3d8ef98e	0.069811925
68	0xbf254a24	-0.64566255
69	0xbeecce23	-0.4625102
70	0x3e2b7a88	0.1674596
71	0xbd5f7bd4	-0.05456145
72	0x3e9600f3	0.292976
73	0x3f97f1af	1.1870631
74	0x3ce297a5	0.0276602
75	0xbeb3899f	-0.35065934
76	0xbfd925ac	-1.6964622
77	0x3edca050	0.4309106
78	0xbeb8e66c	-0.36113298
79	0xbe2c9f8c	-0.16857737
80	0xbeab9eb2	-0.33519512
81	0x3f9bdf2b	1.217748
82	0x3e12948a	0.14314476
83	0xbf17a920	-0.5924244
84	0xbf0cd989	-0.5501943
85	0xbe7707d6	-0.24124083
86	0x3f93e748	1.1554956
87	0x3f481f48	0.7817273
88	0xbf1df9dd	-0.61709386
89	0x3ea575ff	0.32316586
90	0xbe52cc12	-0.20585659
91	0x3f3d2e2b	0.7389857
92	0x3ee19012	0.4405523
93	0xbe2ff966	-0.17184982
94	0xbe8e5161	-0.27796462
95	0xbef86720	-0.48516178
96	0x3f2a5f43	0.6655161
97	0xbef4d77e	-0.47820657
98	0xbf6ce6c0	-0.92539597
99	0x3f279c1d	0.65472585

layers.9.fc.bias f4 [10]
0	0x3e9aabdb	0.3020924
1	0xbe48265e	-0.19545886
2	0xbda0c347	-0.07849746
3	0x3e5e94a6	0.21736392
4	0xbb630af1	-0.0034643973
5	0x3e47339d	0.19453283
6	0xbe7fe358	-0.24989069
7	0xbef2aed4	-0.47399008
8	0x3d34c299	0.044130895
9	0xbd4d1425	-0.05006804

layers.10.fc.weight f4 [10, 10]
0	0x3f104576	0.5635599
1	0x3f75381e	0.95788753
2	0x3e90b446	0.28262538
3	0x3d580064	0.052734748
4	0xbec71180	-0.3888054
5	0xbe7267cb	-0.23672406
6	0xbf125542	-0.57161343
7	0xbd76feb5	-0.0603015
8	0x3d1f421c	0.038881406
9	0xbf2ab23b	-0.6667821
10	0xbf2f7a0e	-0.68545616
11	0xbf9cbbcc	-1.2244811
12	0x3eb6cef7	0.35704777
13	0x3df44919	0.11928005
14	0x3e97983b	0.2960833
15	0xbfb1c757	-1.3888959
16	0x3c2bacff	0.010478257
17	0xbe8ec2ba	-0.2788294
18	0xbe920c03	-0.2852479
19	0x3f144588	0.57918596
20	0xbdbe8e67	-0.09304505
21	0xbec7a32e	-0.38991684
22	0x3e6ced88	0.23137486
23	0x3e8529fc	0.26008594
24	0x3f7885fa	0.9707943
25	0xbdf14692	-0.11781038
26	0xbf076642	-0.5289041
27	0x3eca5ad4	0.3952242
28	0xbefc9faa	-0.49340564
29	0x3eeaddf3	0.4587246
30	0xbf0e9992	-0.5570308
31	0x3e897244	0.2684499
32	0xbea54a36	-0.3228318
33	0xbf38eda5	-0.72237617
34	0x3cccec7d	0.02501511
35	0x3eb6369e	0.35588545
36	0x3e688fc8	0.22711098
37	0xbeded0dd	-0.43518725
38	0x3ee7d3b6	0.4527871
39	0x3e0003a6	0.12501392
40	0x3efeaa48	0.4973929
41	0x3de91390	0.113806844
42	0xbf3966b8	-0.7242236
43	0xbe90814d	-0.2822365
44	0xbf2063fb	-0.6265256
45	0xbe8a9180	-0.27064133
46	0xbdb75aea	-0.08952887
47	0xbec55a13	-0.38545284
48	0x3eaae708	0.33379388
49	0xbef21edf	-0.47289178
50	0x3f4fd716	0.8118757
51	0xbe8177b7	-0.25286648
52	0xbd3de6af	-0.046362575
53	0xbeb04f2c	-0.34435403
54	0xbf67c89d	-0.90540487
55	0xbf1be4c1	-0.60895926
56	0xbfb121fd	-1.3838497
57	0xbea33dca	-0.3188308
58	0x3c1df18d	0.00964011
59	0x3f1dd992	0.6166011
60	0xbe5dde34	-0.21666795
61	0xbe33d7ae	-0.17562744
62	0x3f94da7f	1.162918
63	0xbf40f7f2	-0.75378335
64	0x3f8615a1	1.0475351
65	0x3efd82e2	0.49513918
66	0x3f1d5ae6	0.61466825
67	0x3e60cebd	0.21953864
68	0xbe9833f1	-0.29727128
69	0x3ec557e4	0.38543618
70	0x3d8792f4	0.06619826
71	0xbe8fb2d2	-0.28066117
72	0xbe9e23b1	-0.30886605
73	0xbe98a0b4	-0.29810107
74	0xbf10ab7a	-0.5651165
75	0xbebe3b1c	-0.37154472
76	0xbbb96f6e	-0.0056590354
77	0x3dc89f6d	0.09796033
78	0x3ee43cff	0.44577786
79	0xbe30cbe6	-0.17265281
80	0xbf55a0e7	-0.8344864
81	0xbce40290	-0.027833253
82	0xbeb1ee30	-0.34752035
83	0xbdc0b725	-0.09409932
84	0xbe66dadc	-0.22544426
85	0xbf183513	-0.59455985
86	0x3f0dbf49	0.55370003
87	0xbe1a11c5	-0.15045841
88	0x3ed0723a	0.40712148
89	0xbeb75f8d	-0.35815087
90	0xbf24cca4	-0.64374757
91	0xbf5d2393	-0.86382407
92	0xbdc907a8	-0.098159134
93	0xbef69be0	-0.48165798
94	0xbe88712c	-0.26648843
95	0x3f2d6818	0.6773696
96	0xbdebc3f9	-0.11511988
97	0xbe918e91	-0.28429082
98	0x3fad8794	1.3557
99	0x3eae64c1	0.34061244

layers.10.fc.bias f4 [10]
0	0xbe4b2dc3	-0.19841675
1	0x3e9f99b4	0.31171954
2	0xbda10658	-0.07862538
3	0x3e9abf15	0.3022391
4	0xbdfe78ad	-0.12425361
5	0x3e6f0152	0.23340347
6	0xbe13bccc	-0.14427489
7	0xbe93c152	-0.2885843
8	0x3e3b48e1	0.1828952
9	0xbe4b24df	-0.19838284

layers.11.fc.weight f4 [10, 10]
0	0xbf408a8b	-0.752114
1	0x3e8f24a8	0.27957654
2	0x3f00fad5	0.5038274
3	0x3e602c82	0.21891978
4	0x3f131a47	0.5746197
5	0x3f21b88c	0.6317222
6	0x3ea43d50	0.32078028
7	0x3e793383	0.24336056
8	0x3f83f7e2	1.0310023
9	0xbf522a4b	-0.82095784
10	0x3e21d718	0.15804708
11	0xbd91ad19	-0.07113094
12	0xbeb7a809	-0.35870388
13	0xbf4d1723	-0.8011343
14	0xbe0cab4e	-0.13737223
15	0xbe8719f1	-0.2638698
16	0x3f68f254	0.90994763
17	0x3ef3747b	0.47549805
18	0x3d167682	0.03673411
19	0x3d4582f3	0.048220586
20	0x3f3a9088	0.7287679
21	0xbed95e38	-0.42454696
22	0x3f623e14	0.88375974
23	0x3f398570	0.72469234
24	0xbe32abe9	-0.17448391
25	0x3d18561d	0.0371915
26	0xbf06d7fb	-0.5267331
27	0xbf2729c5	-0.6529811
28	0xbec4eafc	-0.3846053
29	0x3fa34891	1.275652
30	0x3e9f229e	0.31081098
31	0xbdaf656a	-0.08564265
32	0x3f2371b5	0.6384538
33	0xbf04e34b	-0.5190932
34	0xbe713c1a	-0.23558083
35	0xbf1c8f04	-0.61155725
36	0x3edb6f08	0.42858148
37	0x3dfb9990	0.12285149
38	0xbeab9be4	-0.33517373
39	0xbf351c9c	-0.7074678
40	0x3f2dc376	0.67876375
41	0x3ed0c244	0.40773213
42	0xbe89af92	-0.26891762
43	0xbde8e497	-0.11371725
44	0x3d7dd818	0.06197366
45	0x3e18a055	0.14904912
46	0x3ef9ceee	0.48790687
47	0x3ead7a60	0.33882427
48	0xbea488bb	-0.32135567
49	0x3e5452e5	0.20734747
50	0xbf14c6e0	-0.5811596
51	0xbe27f8d0	-0.16403508
52	0x3eeca669	0.4622071
53	0xbf9a4d7c	-1.2054896
54	0x3f77d4fb	0.9680936
55	0x3dcdbae6	0.10045414
56	0x3efefd3d	0.4980258
57	0x3f01c131	0.5068541
58	0xbe8b8f5b	-0.2725781
59	0xbdb1525d	-0.08658288
60	0xbe8e270b	-0.27764162
61	0x3dc25fa5	0.09490899
62	0xbe5557cd	-0.20834275
63	0x3f1772b2	0.59159386
64	0xbead809c	-0.33887184
65	0x3edc1b57	0.4298961
66	0xbea4cda4	-0.3218814
67	0xbeb91bca	-0.36154014
68	0x3e98eb5d	0.29867068
69	0xbe2643a2	-0.16236737
70	0xbe9391c8	-0.2882216
71	0x3f3c51bc	0.73562217
72	0x3ecf3c43	0.40475664
73	0xbf4debe4	-0.80438066
74	0x3d91add1	0.07113231
75	0xbec3140d	-0.38101235
76	0x3f22a300	0.6352997
77	0x3ea9c585	0.33158508
78	0x3f29d347	0.6633801
79	0xbf52636c	-0.82182956
80	0x3e3c5ccd	0.18394776
81	0x3e8b4baa	0.27206165
82	0x3cbe19c9	0.023205655
83	0xbe8b5c19	-0.27218702
84	0xbdb5e588	-0.0888167
85	0xbdfdf8d6	-0.12400977
86	0xbf03aec3	-0.5143854
87	0xbe664e16	-0.22490725
88	0xbf68e653	-0.90976447
89	0xbf1bc44d	-0.60846406
90	0xbd26955f	-0.040669795
91	0xbee3f3c0	-0.44521904
92	0x3eb65dd6	0.35618466
93	0x3ecbf69d	0.39836589
94	0xbe3e77e8	-0.18600428
95	0xbd2871fc	-0.04112433
96	0x3cc56bbe	0.024099227
97	0xbe9c90fb	-0.3057936
98	0xbfaf401d	-1.3691441
99	0x3d73431f	0.059390184

layers.11.fc.bias f4 [10]
0	0x3ea076b2	0.31340557
1	0x3e088e1d	0.13335462
2	0xbb65298a	-0.0034967386
3	0x3ddd1d90	0.10796654
4	0xbdf6de49	-0.12054116
5	0xbc3b22aa	-0.011421839
6	0x3dffd2a7	0.124913506
7	0xbe8ea60c	-0.2786106
8	0xbd8ec4ce	-0.06971131
9	0x3c75f279	0.015011423

layers.12.fc.weight f4 [10, 10]
0	0x3d67fc24	0.056636944
1	0x3d90b3f2	0.07065572
2	0xbdc77b76	-0.09740345
3	0x3f1b3f20	0.60643196
4	0x3eb98330	0.362329
5	0xbf649c48	-0.89300966
6	0x3ecfc3bf	0.4057903
7	0x3ec2314a	0.3792823
8	0x3ec8049c	0.39066017
9	0x3e6830fe	0.22674939
10	0xbe5bf143	-0.21478753
11	0x3f10d326	0.56572187
12	0x3eef7eb9	0.4677637
13	0x3bcd2d8f	0.0062615345
14	0x3f5224ae	0.8208722
15	0xbe53f46c	-0.20698708
16	0x3f245923	0.6419851
17	0xbe6a23d1	-0.22865225
18	0x3eb65704	0.35613263
19	0xbcee155e	-0.029062923
20	0x3e477fcf	0.19482349
21	0xbf62590d	-0.8841713
22	0x3fa40141	1.2812883
23	0xbee6133c	-0.4493655
24	0xbd970f1d	-0.073759295
25	0x3eee8cab	0.46591696
26	0xbe687a91	-0.22703005
27	0xbf0ba5c2	-0.545498
28	0xbf096839	-0.53674656
29	0xbda07210	-0.07834256
30	0x3ed7dfd1	0.42162946
31	0xbc7e8e56	-0.015536865
32	0xbd200e7a	-0.039076306
33	0xbeebd7be	-0.46063036
34	0x3e9bcd13	0.30429897
35	0x3ee419ad	0.4455084
36	0xbe9a97a1	-0.3019381
37	0x3ebf7c7c	0.37399662
38	0x3f486698	0.78281546
39	0x3e1dfe8d	0.15429135
40	0x3f7f0d8f	0.99630064
41	0xbe768f43	-0.24078088
42	0xbea60c42	-0.32431227
43	0x3f33cad8	0.7023139
44	0x3f18eab2	0.59733117
45	0xbe6c92d9	-0.23102893
46	0xbe27891a	-0.16360894
47	0x3f91ec4c	1.1400237
48	0x3e69a47c	0.22816652
49	0xbe93ff19	-0.28905562
50	0xbe81d94c	-0.25361097
51	0x3ec63274	0.38710368
52	0x3ed0029c	0.4062699
53	0xbd3ecbd2	-0.046581097
54	0xbe45dfeb	-0.19323699
55	0x3f1381d5	0.5761998
56	0xbeb25bcd	-0.34835663
57	0xbdca8b9e	-0.09889911
58	0x3d8ca83d	0.068680264
59	0xbd9094cc	-0.07059631
60	0x3ed5ccbb	0.4175776
61	0xbf0f0b06	-0.55876195
62	0xbec384d1	-0.38187268
63	0x3f4f7133	0.81032103
64	0xbf038f02	-0.5139009
65	0xbf19f7ab	-0.60143536
66	0x3e0a6668	0.13515627
67	0xbee699f9	-0.45039347
68	0xbed1dbfc	-0.40988147
69	0xbf603419	-0.87579495
70	0xbec26486	-0.37967318
71	0x3e83853c	0.25687587
72	0xbe09d152	-0.13458756
73	0x3d4b36b6	0.049612723
74	0x3f7e0dce	0.99239814
75	0xbe7dbd89	-0.24779333
76	0xbd4f4491	-0.0506025
77	0x3e0816f8	0.13290012
78	0x3f296fdb	0.661863
79	0x3d0cdc98	0.034390062
80	0x3bca73c3	0.0061783507
81	0x3d91852d	0.071054794
82	0xbcba7477	-0.022760613
83	0xbf21aa68	-0.63150644
84	0xbe2c7590	-0.16841722
85	0x3ec52b56	0.38509625
86	0xbf2bc339	-0.6709476
87	0x3f5bdd60	0.85884666
88	0x3eb49515	0.3526999
89	0x3f2c3045	0.67261153
90	0x3f58ed9f	0.8473758
91	0xbf2117d5	-0.6292699
92	0xbd1f4e4d	-0.038893033
93	0xbe8895b3	-0.2667671
94	0xbe0914c4	-0.13386828
95	0xbf744851	-0.95422846
96	0xbe0cbf50	-0.13744855
97	0x3ec3a1b6	0.38209313
98	0x3e63197f	0.22177695
99	0xbf8b3c65	-1.0877806

layers.12.fc.bias f4 [10]
0	0xbd577839	-0.052604888
1	0x3e873a29	0.2641156
2	0xbdee46f9	-0.11634631
3	0x3ddb88fc	0.10719487
4	0x3e6f2293	0.23353033
5	0xbe80ad2b	-0.25132117
6	0x3bb827c4	0.005619975
7	0xbe53acdc	-0.2067141
8	0xbe5af1c2	-0.21381286
9	0x3e39e8f2	0.18155268

layers.13.fc.weight f4 [1, 10]
0	0xbe355c55	-0.17711003
1	0xbe837aa6	-0.2567951
2	0x3f8f4699	1.119342
3	0xbd444ce8	-0.047924906
4	0xbe92ac2e	-0.28646988
5	0x3f24b51c	0.6433885
6	0x3f0a4210	0.54007053
7	0x3f4778d4	0.77918744
8	0xbda29a99	-0.079396434
9	0x3ed07377	0.40713093
