models/TPC_PID_RESPONSE/net_LHC18b_apass1_mean_small_7inputs.onnx (onnx, 4355 bytes, 23 tensors)

layers.0.fc.weight f4 [6, 7]
0	0xbf5ad8dc	-0.8548715
1	0xbf18a95e	-0.59633434
2	0x3cf2db96	0.029645722
3	0x3ee3040f	0.44339034
4	0x3e967bc1	0.29391292
5	0x3ec53ff4	0.38525355
6	0x3efe38d7	0.4965274
7	0x3f1d2031	0.61377245
8	0x3f0932d0	0.5359316
9	0x3dad9518	0.08475703
10	0xbeff5b81	-0.498745
11	0x3f45a978	0.77211714
12	0xbdb9133f	-0.09036874
13	0xbf1c4a83	-0.61051196
14	0x3f1816be	0.594097
15	0xbeadb066	-0.33923644
16	0x3ed3906f	0.41321132
17	0x3e10501d	0.14093061
18	0x3f0e5a1e	0.5560626
19	0xbdae26ca	-0.08503492
20	0x3f6792a3	0.90458125
21	0x3eb92326	0.3615963
22	0xbf12fc03	-0.5741579
23	0xbd0adc4a	-0.03390149
24	0xbf1c5e60	-0.61081505
25	0x3f2a77e6	0.665892
26	0xbf2ab7ac	-0.6668651
27	0xbeacc2b7	-0.33742306
28	0xbf29e922	-0.6637136
29	0xbf139cb1	-0.5766097
30	0x3d182f45	0.037154455
31	0x3f10fdf6	0.56637514
32	0xbf9668a7	-1.1750687
33	0x3e2f945b	0.17146437
34	0x400658bd	2.0991662
35	0x3f882c89	1.0638591
36	0xbfbb5929	-1.4636585
37	0x3e141b11	0.1446345
38	0xbe9a9702	-0.30193335
39	0x3fd2c78c	1.6467147
40	0xbe142f5f	-0.14471196
41	0x3f0403c6	0.5156826

layers.0.fc.bias f4 [6]
0	0x3d2b769c	0.04186116
1	0x3da08a89	0.078389235
2	0xbde3b856	-0.11119144
3	0xbf044465	-0.5166686
4	0xbd1c79ad	-0.038201977
5	0x3f05d2f8	0.5227504

layers.1.fc.weight f4 [6, 6]
0	0x3ec16ca3	0.37778196
1	0x3fafbf71	1.3730298
2	0x3f1e84d6	0.6192144
3	0xbd0b1063	-0.033951174
4	0xbe952665	-0.29130855
5	0xbf29f4da	-0.6638924
6	0x3f696aef	0.9117879
7	0x3e1eaec9	0.15496363
8	0x3f244f0c	0.64183116
9	0x3f9293ed	1.1451393
10	0xbedfb51e	-0.4369287
11	0xbf7fbc24	-0.99896455
12	0xbf3cf85d	-0.7381647
13	0xbdcd9606	-0.1003838
14	0x3eb28bea	0.3487237
15	0x3fa07613	1.2536033
16	0xbf291f05	-0.6606296
17	0xbfb10cf3	-1.3832077
18	0xbf709ea8	-0.9399209
19	0x3f204277	0.6260142
20	0xbf3e753f	-0.74397653
21	0x3e79e91a	0.24405327
22	0x3f2143c6	0.6299404
23	0x3f439f48	0.7641492
24	0x3e8b958e	0.2726254
25	0xbefdc87c	-0.4956702
26	0x3f39b2af	0.72538275
27	0x3f030c25	0.51190406
28	0xbe1e7cff	-0.1547737
29	0xbf12601d	-0.5717791
30	0x3d1f8a46	0.038950227
31	0xbe2d1dc3	-0.16905884
32	0xbe300522	-0.17189458
33	0xbe4132c4	-0.18867022
34	0x3f0cba98	0.5497222
35	0xbe5fd0cb	-0.21856992

layers.1.fc.bias f4 [6]
0	0x3ebc308a	0.36755782
1	0xbe57a82c	-0.21060246
2	0xbdcf3c1e	-0.10118888
3	0xbed9f5ab	-0.42570242
4	0xbdc7495d	-0.0973079
5	0xbe989207	-0.2979891

layers.2.fc.weight f4 [6, 6]
0	0xbf834a3e	-1.0257032
1	0xbea4d19b	-0.32191166
2	0x3dc5dfcb	0.09661826
3	0xbca7533c	-0.020425431
4	0x3fa8775b	1.3161424
5	0xbef563b8	-0.47927642
6	0x3ea726d2	0.32646805
7	0x3e1126d0	0.14174962
8	0x3f5ab330	0.8542967
9	0xbf7e81a8	-0.9941659
10	0xbf59f355	-0.8513692
11	0xbf7c3a28	-0.9852624
12	0x3bf08995	0.00734062
13	0xbe339658	-0.1753782
14	0x3d452391	0.048129622
15	0xbf77049c	-0.9649141
16	0xbe2127aa	-0.15737787
17	0xbed2bb36	-0.41158456
18	0x3f8824a3	1.0636181
19	0x3f5ac86e	0.8546208
20	0xbf449836	-0.76794755
21	0xbf5d328c	-0.86405253
22	0xbd323369	-0.04350606
23	0xbee8002a	-0.45312625
24	0x3e31bb97	0.17356716
25	0xbecb0276	-0.39650315
26	0x3f405642	0.7513162
27	0x3f96c87d	1.1779934
28	0x3f035675	0.513038
29	0x3e532782	0.2062054
30	0x3f679c7f	0.9047317
31	0xbea2aa83	-0.31770715
32	0xbeeefcb0	-0.4667716
33	0xbfaf17e7	-1.367917
34	0xbe154b2a	-0.14579454
35	0x3ed45740	0.41472816

layers.2.fc.bias f4 [6]
0	0xbe8bf85c	-0.2733792
1	0xbe366e9f	-0.17815636
2	0x3ea01efd	0.31273642
3	0xbefca649	-0.49345616
4	0x3e373800	0.17892456
5	0x3efd4ee1	0.49474242

layers.3.fc.weight f4 [6, 6]
0	0xbdb3c269	-0.08777315
1	0x3ea52c86	0.3226053
2	0x3e8ec970	0.2788806
3	0x3be4dc28	0.0069842525
4	0x3f68ac9a	0.9088837
5	0xbff2a6b0	-1.8957119
6	0xbf9010b5	-1.1255099
7	0xbf66816a	-0.9004122
8	0x3f2637f3	0.6492912
9	0xbf6cb994	-0.9247067
10	0xbf933d05	-1.1502997
11	0xbf17542e	-0.59112823
12	0x3f1fe43b	0.6245763
13	0x3c622537	0.013802818
14	0x3f390565	0.72273856
15	0x3ed4a278	0.41530204
16	0xbe35b1a9	-0.17743553
17	0x3ebc2a92	0.3675123
18	0x3f9ddfa7	1.2333878
19	0x3f54452e	0.8291806
20	0x3e9ae415	0.30252138
21	0x3fbe29bb	1.4856485
22	0x3f22485a	0.6339165
23	0xbee7224c	-0.45143354
24	0x3cc4f04b	0.024040362
25	0xbe6e8c2b	-0.23295657
26	0xbed2b868	-0.41156316
27	0x3f0af406	0.542786
28	0x3f8ef55d	1.1168629
29	0xbe2dffa6	-0.16992053
30	0x3fdea0bd	1.7392803
31	0xbf0a4160	-0.54006004
32	0xbed9388e	-0.4242596
33	0x3ece91c6	0.4034559
34	0xbf863616	-1.0485256
35	0x3e4e4b84	0.20145994

layers.3.fc.bias f4 [6]
0	0x3d0ddf6f	0.03463691
1	0x3ec82e22	0.39097697
2	0x3e221486	0.15828142
3	0x3e41d89b	0.18930285
4	0x3e0a885f	0.13528584
5	0xbe52009f	-0.2050805

layers.4.fc.weight f4 [6, 6]
0	0x3f23b88e	0.63953483
1	0x3f6c8345	0.923878
2	0xbe0260ab	-0.12732188
3	0xbea0a23e	-0.3137378
4	0x3f0beb9c	0.54656386
5	0x3efc2b9d	0.49252024
6	0x3de27e68	0.11059266
7	0xbea4fbc8	-0.32223344
8	0x3f075ffe	0.5288085
9	0x3e856652	0.26054627
10	0x3edc7d87	0.4306452
11	0x3f2795a8	0.6546273
12	0xbf801a4c	-1.0008025
13	0x3df2b981	0.11851788
14	0x3e8bf657	0.2733638
15	0x3f2dcc4f	0.67889875
16	0xbfa9b590	-1.3258533
17	0x3efc8ccb	0.49326167
18	0xbf62aa90	-0.8854151
19	0x3f90e6a7	1.132039
20	0x3e4158ad	0.18881483
21	0x3ef52bf0	0.47885084
22	0xbf0e3de1	-0.5556317
23	0xbcc416b3	-0.023936605
24	0xbf8f3a8e	-1.1189744
25	0x3e851d5c	0.25998962
26	0x3e29ce5f	0.1658263
27	0xbcb40696	-0.021975797
28	0x3f400f31	0.7502318
29	0xbeb058ac	-0.3444265
30	0x3f9110fa	1.1333306
31	0xbeae7c06	-0.34078997
32	0xbea47b95	-0.32125536
33	0xbf480080	-0.7812576
34	0x3facc553	1.3497719
35	0xbfc87e46	-1.5663536

layers.4.fc.bias f4 [6]
0	0xbea2233b	-0.31667504
1	0xbe59e7d0	-0.21279836
2	0xbeb63026	-0.3558361
3	0x3db53585	0.08848099
4	0xbecf47da	-0.40484506
5	0xbd1ef0c4	-0.03880383

layers.5.fc.weight f4 [6, 6]
0	0xbed5d39e	-0.41763014
1	0xbf53813e	-0.8261908
2	0x3e197333	0.14985351
3	0xbfd0bc78	-1.6307516
4	0x3e13c56c	0.14430779
5	0xbd92201c	-0.071350306
6	0x3f13830a	0.57621825
7	0x3f27295d	0.6529749
8	0x3c9ed189	0.019387024
9	0x3f8c092e	1.0940301
10	0x3eae2c28	0.34018064
11	0x3ed9f6bd	0.4257106
12	0x3eb256b0	0.34831762
13	0xbdf36a93	-0.11885562
14	0x3f28fba2	0.6600896
15	0x3ed44926	0.41462058
16	0x3f7d6bb2	0.98992455
17	0x3e3d28b3	0.18472557
18	0x3e73edad	0.23821135
19	0x3f5b0456	0.8555349
20	0x3deff300	0.117162704
21	0xbe8d6f28	-0.27623868
22	0xbf8bbb8c	-1.091661
23	0x3f035e29	0.5131555
24	0x3f63a5e1	0.88924986
25	0xbe6f8e45	-0.23394115
26	0xbe1c8e49	-0.15288652
27	0xbf71ac71	-0.9440375
28	0x3e9e4eba	0.3091944
29	0xbf6f9b34	-0.93596196
30	0x3dfb86e2	0.12281586
31	0xbe67da0b	-0.2264177
32	0x3ec98dcd	0.39365998
33	0xbf6c7bd0	-0.9237642
34	0xbe99c319	-0.3003166
35	0xbf46df3f	-0.77684397

layers.5.fc.bias f4 [6]
0	0xbe933ad4	-0.2875582
1	0xbe2303e4	-0.15919453
2	0xbec32903	-0.38117227
3	0x3cddbbf8	0.02706717
4	0x3e3d0c42	0.18461707
5	0xbee2b892	-0.4428144

layers.6.fc.weight f4 [6, 6]
0	0xbeb75e9e	-0.35814375
1	0x3eb07c75	0.34469953
2	0xbd2afc26	-0.041744374
3	0x3ec4d7b0	0.38445807
4	0x3f5a4a9d	0.852701
5	0x3f0956b3	0.5364792
6	0x3fa22838	1.2668524
7	0xbf5106da	-0.8165108
8	0x3f8816cf	1.0631961
9	0xbe985e18	-0.29759288
10	0xbe3e83ba	-0.18604937
11	0xbf2dbc17	-0.6786513
12	0xbf024104	-0.50880456
13	0x3f9ab4ce	1.2086427
14	0xbefbe3ce	-0.4919724
15	0x3f93d298	1.1548643
16	0xbf8b3a9b	-1.087726
17	0xbe8de3fa	-0.27712995
18	0xbedcc7e1	-0.43121246
19	0xbe633094	-0.221865
20	0xbefb09bb	-0.4903086
21	0xbf8e5704	-1.1120305
22	0xbda5402d	-0.08068881
23	0xbf7d31d7	-0.98904175
24	0xbedb12c3	-0.42787752
25	0xbfc22609	-1.5167857
26	0x3f8663e0	1.049923
27	0x3f582877	0.84436744
28	0xbf2c75ec	-0.67367435
29	0x3f82cefc	1.0219417
30	0x3d2685f8	0.040655106
31	0xbe865f41	-0.26244548
32	0xbfc3cba0	-1.5296516
33	0x3f662b7a	0.8991009
34	0xbfae6525	-1.3624617
35	0x3ee77d31	0.452127

layers.6.fc.bias f4 [6]
0	0x3d11136f	0.035418924
1	0xbd9710d5	-0.07376257
2	0x3e30c8ad	0.17264052
3	0x3e678dc4	0.22612673
4	0xbe585440	-0.21125889
5	0xbe1084c7	-0.1411315

layers.7.fc.weight f4 [6, 6]
0	0x3e24600b	0.16052262
1	0x3db5e1a5	0.08880929
2	0x3ec8896b	0.39167342
3	0xbe2021a5	-0.15637834
4	0xbf49ac47	-0.787785
5	0x3e7a0191	0.2441466
6	0x3fa63775	1.2985674
7	0xbce72b2c	-0.028218828
8	0x3eda4936	0.4263398
9	0xbf62a2db	-0.8852975
10	0x3f4a14d1	0.78938013
11	0xbf11bde6	-0.5693039
12	0xbfaa43c7	-1.3301934
13	0x3ca99be5	0.02070422
14	0xbf83bc22	-1.0291789
15	0x3d8b01ce	0.067874536
16	0xbf5cf6a1	-0.86313826
17	0xbf84336a	-1.032819
18	0x3e8a78f2	0.270454
19	0x3f912566	1.1339538
20	0xbee60186	-0.44923037
21	0x3f852516	1.0401943
22	0x3f72be57	0.94821686
23	0x3d36295e	0.044473045
24	0xbd810bc2	-0.06301071
25	0x3f10da2d	0.5658291
26	0xbf8cd8a8	-1.1003618
27	0xbea95356	-0.33071393
28	0x3f4d46d8	0.80186224
29	0x3ef4da79	0.4782293
30	0xbebdc0d5	-0.37061182
31	0x3f8642a6	1.048909
32	0xbec6ffb7	-0.3886697
33	0x3f06fb05	0.52726775
34	0xbe52d718	-0.20589864
35	0x3f3daccb	0.74091786

layers.7.fc.bias f4 [6]
0	0x3d26cc7e	0.040722363
1	0x3cf01633	0.02930746
2	0x3ea206cb	0.31645808
3	0x3ea0249a	0.31277925
4	0xbe00d2d5	-0.12580426
5	0x3e857ac1	0.26070216

layers.8.fc.weight f4 [6, 6]
0	0x3e2dffb1	0.1699207
1	0x3e128728	0.1430937
2	0xbfa9b8f0	-1.3259563
3	0x3f01cc2f	0.50702184
4	0x3e82093b	0.25397667
5	0xbf1f05cd	-0.62118226
6	0xbbb4affa	-0.005514142
7	0x3e28d440	0.16487217
8	0xbf5bdd9b	-0.8588502
9	0x3e83711c	0.25672233
10	0x3f3b7eb9	0.7324024
11	0xbe179861	-0.14804222
12	0x3ec774ef	0.389564
13	0x3f11e4c5	0.569897
14	0xbe0dca37	-0.1384667
15	0xbe6100df	-0.21972989
16	0x3e38ecd4	0.18059093
17	0xbef28446	-0.47366542
18	0x3eb42e8d	0.35191765
19	0xbeab0f69	-0.33410195
20	0x3e896983	0.26838312
21	0x3f5762d3	0.8413517
22	0xbf77e300	-0.9683075
23	0x3ef27d7c	0.47361362
24	0x3ef63930	0.48090506
25	0xbf189aa2	-0.5961095
26	0x3d15723b	0.03648589
27	0x3e865155	0.26233926
28	0xbf017f12	-0.5058452
29	0xbe66b89d	-0.22531362
30	0xbf6b99a7	-0.9203133
31	0xbd518f83	-0.051162254
32	0x3f4cdb21	0.80021864
33	0x3f35cc09	0.7101446
34	0x3f53a382	0.8267137
35	0xbe728646	-0.23684034

layers.8.fc.bias f4 [6]
0	0xbde60cda	-0.1123292
1	0xbdf864b5	-0.12128583
2	0x3e79b78b	0.24386422
3	0x3e0a1fbc	0.13488668
4	0xbe1f3afa	-0.15549842
5	0x3eb7c2de	0.3589086

layers.9.fc.weight f4 [6, 6]
0	0xbeeb8eb5	-0.46007314
1	0x3e4db9f9	0.20090474
2	0xbe41df5d	-0.18932863
3	0xbf6a8ca0	-0.91620827
4	0xbf22d04d	-0.6359909
5	0x3e927e4d	0.28611985
6	0x3c0c7012	0.0085716415
7	0xbfb09189	-1.3794414
8	0x3d9682e6	0.07349186
9	0x3e158230	0.14600444
10	0x3da065dd	0.07831929
11	0x3ec464a4	0.38358033
12	0xbec47337	-0.38369152
13	0xbcaa490d	-0.020786786
14	0xbcc9856b	-0.024599751
15	0xbf61a258	-0.8813834
16	0x3e98cf95	0.29845873
17	0x3f3ab445	0.7293132
18	0xbe87dbe9	-0.26534966
19	0x3f562c8b	0.8366172
20	0xbf977d20	-1.183506
21	0xbe8ccd92	-0.27500588
22	0xbf73dac0	-0.9525566
23	0xbf032559	-0.51228863
24	0x3f050a5f	0.5196895
25	0xbd0fae57	-0.035078373
26	0x3e433701	0.19063951
27	0xbfe722f9	-1.8057548
28	0xbe1ab223	-0.15107016
29	0xbf7189ac	-0.94350696
30	0x3f43150e	0.76204
31	0x3ef2a400	0.47390747
32	0xbf49bb41	-0.7880135
33	0xbe972fd2	-0.29528672
34	0xbef47a0d	-0.47749367
35	0xbe910d1e	-0.2833032

layers.9.fc.bias f4 [6]
0	0x3e84eaa1	0.25960258
1	0x3ec9c3f8	0.39407325
2	0x3cdfbaae	0.027310695
3	0x3e6e39fa	0.23264304
4	0xbd89e961	-0.067339666
5	0xbddf8059	-0.10913152

layers.10.fc.weight f4 [6, 6]
0	0xbe60f242	-0.21967414
1	0xbf6d8f43	-0.92796725
2	0xbfa4ea36	-1.2883976
3	0xbf9c2e30	-1.2201595
4	0x3ef96210	0.48707628
5	0x3e5db113	0.2164958
6	0xbeb677bd	-0.35638228
7	0x3e20ef7d	0.15716358
8	0xbe6fe7b4	-0.23428231
9	0xbedde414	-0.43338072
10	0x3eee0e26	0.4649517
11	0x3e0c58a9	0.13705696
12	0xbe8b00e5	-0.2714912
13	0xbecd9a2f	-0.40156695
14	0xbe37a8aa	-0.17935434
15	0x3e9542f9	0.2915266
16	0x3e34c923	0.17654853
17	0x3f8b6d34	1.0892701
18	0xbf93dfbb	-1.1552652
19	0x3edccc38	0.43124557
20	0xbf1b3863	-0.60632914
21	0x3e810793	0.2520109
22	0xbeb9b542	-0.362711
23	0x3e821b5e	0.25411505
24	0xbd26bc1a	-0.04070673
25	0xbee0f9e0	-0.4394064
26	0x3f770878	0.964973
27	0x3f4cd0fc	0.80006385
28	0x3f846e43	1.0346149
29	0xbf05ab5c	-0.522146
30	0xbf974de7	-1.1820649
31	0x3f6dd08b	0.92896336
32	0x3d8e240b	0.069404684
33	0xbea8d286	-0.32973117
34	0x3f793cdc	0.9735849
35	0x3fb82b6e	1.4388254

layers.10.fc.bias f4 [6]
0	0xbb9faeec	-0.0048731472
1	0xbe5d7e24	-0.2163015
2	0xbdd307b2	-0.10304202
3	0x3ee8ae1a	0.4544533
4	0xbe45be57	-0.1931089
5	0xbdbe28e3	-0.09285142

layers.11.fc.weight f4 [1, 6]
0	0xbe280fbc	-0.16412252
1	0xbdcf4016	-0.10119645
2	0xbf50ba97	-0.81534714
3	0x3f2cbdec	0.674773
4	0x3f3ed9a0	0.7455082
5	0xbec37a48	-0.3817923
