models/PID_ML/All/simple_model_321.onnx (onnx, 27705 bytes, 5 tensors)

input.bias f4 [100]
0.19519961 0.038000934 0.12085312 -0.32198212 -0.1047562 -0.21852864 -0.06798517 -0.1725329
-0.20746179 -0.34464836 0.28913453 -0.14653295 -0.13283019 0.032888398 0.12191912 -0.12627561
-0.34450325 0.47394904 0.1686511 -0.28185105 0.42421874 -0.0074500875 -0.098524034 -0.38889712
-0.19235015 0.19395415 -0.16495048 0.24811244 0.2188438 -0.14571407 0.025173513 -0.18345308
-0.2509787 -0.065257534 0.05134345 -0.35888112 0.10746103 -0.16746882 -0.10347416 0.13031138
-0.2534203 0.2748324 -0.17482187 -0.1368861 0.16927849 0.04368642 -0.08085138 0.17545477
-0.13346839 0.09315777 -0.15091166 0.09770123 0.012547025 -0.10720613 -0.17207111 -0.38563317
0.068818636 0.25072032 -0.012285504 0.065221846 0.13079889 -0.40067866 -0.108061045 0.23286758
0.012044283 -0.1994763 0.3639029 0.19811341 0.22854957 -0.25316608 0.07205333 0.059314728
0.080732904 -0.30524585 -0.05049506 0.078370556 0.1874314 0.033202693 0.13075851 0.20150132
-0.17078517 0.1923397 0.15771742 -0.008982012 0.11830901 -0.37485924 -0.049817413 -0.24503325
-0.023992741 -0.3437523 0.111346595 0.070940495 0.3047413 0.0037032475 0.013761956 0.014420789
-0.19258593 -0.3642495 0.20889431 0.14482187
00000000: 68e2 473e dea6 1b3d d781 f73d d7da a4be
00000010: 6b8a d6bd f9c5 5fbe cf3b 8bbd 77ac 30be
00000020: dd70 54be c075 b0be 7109 943e bc0c 16be
00000030: a304 08be fcb5 063d bbb0 f93d 654e 01be
00000040: bb62 b0be 73a9 f23e e0b2 2c3e c84e 90be
00000050: 3333 d93e dd1f f4bb f8c6 c9bd 861d c7be
00000060: 70f7 44be eb9b 463e c7e8 28be 3011 7e3e
00000070: 9718 603e 1236 15be af38 ce3c 20db 3bbe
00000080: 4880 80be bea5 85bd 824d 523d 44bf b7be
00000090: 8714 dc3d f27c 2bbe 43ea d3bd 5970 053e
000000a0: 4ec0 81be d5b6 8c3e 8104 33be df2b 0cbe
000000b0: 5757 2d3e 88f0 323d 6995 a5bd 6aaa 333e
000000c0: f0ab 08be 80c9 be3d 9688 1abe 9517 c83d
000000d0: 0a92 4d3c e38e dbbd 6933 30be b671 c5be
000000e0: c9f0 8c3d 6a5e 803e 2349 49bc 0893 853d
000000f0: 25f0 053e c125 cdbe 1c4f ddbd d774 6e3e
00000100: 6255 453c 8443 4cbe 7b51 ba3e 3ede 4a3e
00000110: e608 6a3e fc9e 81be b290 933d 00f4 723d
00000120: 4b57 a53d 2f49 9cbe e8d3 4ebd be80 a03d
00000130: 04ee 3f3e 8cff 073d 8fe5 053e 5d56 4e3e
00000140: 4fe2 2ebe b3f4 443e ad80 213e 4a29 13bc
00000150: ff4b f23d 8ded bfbe 580d 4cbd ffe9 7abe
00000160: 6d8c c4bc 4d00 b0be af09 e43d 4049 913d
00000170: 0d07 9c3e 2fb2 723b d479 613c 2c45 6c3c
00000180: 3f35 45be e97e babe 64e8 553e 2f4c 143e

l_2.bias f4 [50]
1.0283031 0.22708836 0.25206244 -0.9868379 -0.041892488 -1.5127267 -0.9743212 0.44287765
-0.0697512 0.37329084 -0.9319757 0.21676597 0.026797082 -2.6437855 0.11348733 0.06871808
-0.3980662 0.7805852 -0.88317585 -1.6444396 0.42808846 -1.2767584 0.16912112 0.14241262
0.93058354 -0.16916643 0.15897793 -1.7374475 0.6162388 -0.0016327047 1.0026586 -0.07964467
0.26204836 0.44325393 0.4696784 0.96369356 1.0189881 0.11209732 -0.21317047 0.947112
0.55933267 -1.5356764 0.29413357 -0.20214646 0.75104976 -1.0124704 0.49883515 -0.8445949
0.1946333 -0.29911974
00000000: 709f 833f da89 683e 540e 813e 69a1 7cbf
00000010: 7597 2bbd 07a1 c1bf 1d6d 79bf dcc0 e23e
00000020: b8d9 8ebd fa1f bf3e f695 6ebf e6f7 5d3e
00000030: 8e85 db3c c833 29c0 0c6c e83d 11bc 8c3d
00000040: 55cf cbbe 6fd4 473f d017 62bf ff7c d2bf
00000050: 692e db3e d26c a3bf 162e 2d3e 9dd4 113e
00000060: b93a 6e3f f739 2dbe 1ccb 223e ae64 debf
00000070: d3c1 1d3f 7b00 d6ba 1e57 803f bf1c a3bd
00000080: 342b 863e 2ef2 e23e b079 f03e 9fb4 763f
00000090: 346e 823f 4893 e53d 5c49 5abe ef75 723f
000000a0: 6d30 0f3f 0b91 c4bf ad98 963e 7bff 4ebe
000000b0: cc44 403f a198 81bf 5267 ff3e 5f37 58bf
000000c0: f44d 473e 3926 99be

18 f4 [16, 100]
-0.08989797 0.39705354 2.0659485 -7.8934674 4.6992464 3.8838077 4.5060344 4.481261
6.0476284 -0.55640984 -4.154942 3.031878 0.8483529 2.8852558 -1.0388068 2.7419853
1.8544505 1.9126263 -8.449439 -10.091539 -0.43254524 -4.6194034 4.954505 5.736774
-9.530709 -0.10663629 5.333509 -5.078574 -4.2453413 2.2805312 0.44765487 -0.52692777
1.5819863 3.0864325 2.2045865 -0.54687536 0.33114016 -0.44657677 -7.173948 2.719638
3.042039 -2.7430434 8.396175 3.529668 0.18716118 2.9735875 2.326316 1.1866529
4.357196 0.98176336 -0.48721072 -4.9260306 6.357521 1.8905051 -2.2576287 3.1682248
2.7663095 -0.09814283 0.9465059 3.6181111 0.7559748 -2.7688782 1.5471241 0.20135455
1.7760185 2.5904884 -2.3993878 -1.8783554 2.740891 3.157449 12.850021 11.250387
-3.7836115 -10.062405 -5.131253 1.4226975 -3.823964 0.42013285 -2.5031955 -2.6488142
2.116901 -9.522475 -0.45935702 8.133445 2.8165812 1.7230322 4.6989007 2.1420357
-3.1726453 0.6708657 4.922319 2.2435126 -0.097573124 4.1064434 0.13970034 3.3082144
2.1865172 2.3575234 -0.11089179 -2.1741552 -2.1833396 -2.6722853 -0.7061278 -0.0021941026
1.2491974 0.58835745 0.33061057 0.008382708 0.08627671 -0.015626783 -0.34965762 1.6576889
-2.9756236 2.0173883 -2.3263378 0.7637218 1.6162091 -1.8119353 0.75159174 0.068553545
-0.5061746 -0.35716972 0.26687333 0.5917086 0.07490161 -2.4912953 0.10340883 -0.30188182
-0.6326748 0.6129587 -3.4064353 0.010828932 2.2455175 0.54149944 0.59318024 -0.008024183
0.4790294 -0.08717458 0.86686045 0.5178936 0.79872066 -0.28711742 0.74533266 0.4855322
-2.523106 0.73904586 -1.590688 0.49265552 0.14216046 0.45801198 -0.09521049 0.59972227
1.9471848 0.7102013 -0.3651667 -0.03382798 0.89863104 -2.1182873 0.57005924 0.35319623
-2.3659544 1.3355118 0.88682383 -2.6522532 2.2082465 0.90300745 -0.707105 -0.317538
0.7656392 0.28695387 0.34671816 0.20240863 -0.19233516 0.07728803 0.1555396 -2.3138156
-0.8443347 -2.3125832 -0.36960065 -0.027441282 -1.3986175 0.3268161 -2.3246267 1.1150349
0.37644672 2.127797 1.2330514 -0.7508359 0.44071847 -3.3974228 0.025254862 -1.5536277
-2.1544654 0.6525212 -2.5841484 0.111293934 2.118999 -0.1338672 -3.063605 -0.19191557
0.010499386 0.01099434 0.027120963 0.00087099674 -0.0013733356 -0.013468805 -0.00428486 0.013829276
-0.041624717 0.00036807984 -0.00986348 0.010729438 0.038828462 0.004669473 0.014908748 -0.0021602071
0.007336086 0.046548452 -0.0008487023 -4.8834037e-05 0.00058468024 -0.030246403 -0.0382215 0.014772819
-0.0015996724 0.013330009 0.0141131785 -0.031076675 -0.022703797 0.030555526 0.01487219 0.00013105368
0.003072274 0.019395139 -0.00965699 0.00093060796 0.0020132973 0.0007735556 -0.0031617808 0.011998916
-0.013253345 -0.018787544 -0.0012834477 -0.010558952 0.013681153 -0.004961049 0.011874239 0.014384582
0.0011174739 0.010141489 0.00044716254 -0.035698168 -0.0013737932 -0.0074747987 -0.026398173 0.017556017
00000000: 6d1c b8bd 9a4a cb3e 8038 0440 4997 fcc0
00000010: 3a60 9640 4e90 7840 6f31 9040 7d66 8f40
00000020: 2c86 c140 e070 0ebf 49f5 84c0 4a0a 4240
00000030: a82d 593f 08a8 3840 9ff7 84bf b07c 2f40
00000040: a25e ed3f f0d0 f43f e730 07c1 f276 21c1
00000050: 9276 ddbe 27d2 93c0 4e8b 9e40 a793 b740
00000060: c97d 18c1 2164 dabd 1bac aa40 ae83 a2c0
00000070: d6d9 87c0 39f4 1140 0533 e53e bde4 06bf
00000080: 877e ca3f 1c88 4540 f217 0d40 0600 0cbf
00000090: 348b a93e b6a5 e4be fb90 e5c0 8d0e 2e40
000000a0: c4b0 4240 068e 2fc0 bc56 0641 15e6 6140
000000b0: 2ea7 3f3e 424f 3e40 5de2 1440 3ee4 973f
000000c0: 266e 8b40 d854 7b3f af73 f9be 0ba2 9dc0
000000d0: d070 cb40 12fc f13f fd7c 10c0 32c4 4a40
000000e0: 370b 3140 1cff c8bd 364e 723f 228f 6740
000000f0: 9187 413f 4d35 31c0 2a08 c63f e32f 4e3e
00000100: 9354 e33f 90ca 2540 928f 19c0 f36d f0bf
00000110: c26a 2f40 a513 4a40 b099 4d41 9601 3441
00000120: b126 72c0 9cff 20c1 3933 a4c0 f41a b63f
00000130: d4bb 74c0 a71b d73e 5b34 20c0 2c86 29c0
00000140: 4e7b 0740 0f5c 18c1 d830 ebbe 9722 0241
00000150: de42 3440 528c dc3f 655d 9640 1d17 0940
00000160: 9f0c 4bc0 dbbd 2b3f a383 9d40 b695 0f40
00000170: 6bd4 c7bd fc67 8340 9b0d 0f3e c9b9 5340
00000180: e6ef 0b40 aae1 1640 3c1b e3bd 5c25 0bc0
00000190: d6bb 0bc0 b906 2bc0 cbc4 34bf efca 0fbb
000001a0: b3e5 9f3f 989e 163f ca45 a93e a057 093c
000001b0: d8b1 b03d bd03 80bc 5306 b3be 262f d43f
000001c0: 9e70 3ec0 e41c 0140 b8e2 14c0 4683 433f
000001d0: f1df ce3f 7fed e7bf 5168 403f cd65 8c3d
000001e0: a994 01bf f3de b6be 9fa3 883e 377a 173f
000001f0: 0466 993d 6271 1fc0 02c8 d33d 4190 9abe
00000200: faf6 21bf ddea 1c3f 0903 5ac0 d56b 313c
00000210: 8fb6 0f40 b59f 0a3f a9da 173f dd77 03bc
00000220: 5743 f53e 9688 b2bd 91ea 5d3f ad94 043f
00000230: f578 4c3f 0e01 93be 1fce 3e3f ad97 f83e
00000240: 927a 21c0 1c32 3d3f aa9b cbbf 583d fc3e
00000250: 8392 113e 8c80 ea3e b8fd c2bd 6687 193f
00000260: 5a3d f93f c1cf 353f 21f7 babe 358f 0abd
00000270: af0c 663f 0592 07c0 67ef 113f 23d6 b43e
00000280: cc6b 17c0 0df2 aa3f e306 633f 84be 29c0
00000290: e953 0d40 7f2b 673f d504 35bf 5794 a2be
000002a0: ee00 443f 9eeb 923e 0b85 b13e 3544 4f3e
000002b0: 82f3 44be 3049 9e3d c645 1f3e 8e15 14c0
000002c0: 5226 58bf 5d01 14c0 4c3c bdbe 8acc e0bc
000002d0: e605 b3bf 7154 a73e afc6 14c0 77b9 8e3f
000002e0: a0bd c03e d32d 0840 a1d4 9d3f c836 40bf
000002f0: daa5 e13e 606f 59c0 49e3 ce3c 46dd c6bf
00000300: c3e2 09c0 a10b 273f b062 25c0 13ee e33d
00000310: ae9d 0740 7c14 09be 1b12 44c0 8485 44be
00000320: 9e05 2c3c 9b21 343c c82c de3c 9a53 643a
00000330: 7f01 b4ba 43ac 5cbc 0368 8cbb 3094 623c
00000340: ae7e 2abd d7fa c039 6f9a 21bc 86ca 2f3c
00000350: 980a 1f3d 6102 993b d243 743c 4392 0dbb
00000360: 8d63 f03b 97a9 3e3d 727b 5eba 26d3 4cb8
00000370: 3a45 193a 4ec7 f7bc 268e 1cbd b209 723c
00000380: 19ac d1ba 1c66 5a3c f63a 673c 8394 febc
00000390: 50fd b9bc 954f fa3c 7caa 733c 746b 0939
000003a0: 3458 493b 8ee2 9e3c 5a38 1ebc 0bf4 733a
000003b0: 86f1 033b 70c8 4a3a e135 4fbb 1a97 443c
000003c0: 8f24 59bc 56e8 99bc 5c39 a8ba 74ff 2cbc
000003d0: ea26 603c 4c90 a2bb 2b8c 423c 4fad 6b3c
000003e0: 3478 923a 7d28 263c 2471 ea39 3e38 12bd
000003f0: da10 b4ba 28ef f4bb fb40 d8bc a3d1 8f3c

19 f4 [100, 50]
-0.05077005 0.29630128 0.08398611 -0.07272327 -0.09083012 0.046893667 -0.041065633 -0.013513954
-0.086961664 0.0829486 -0.10421893 0.11848209 -0.05155346 0.103253834 0.28335387 0.00034713285
-0.02084808 -0.1162108 0.024098558 0.16233242 0.24082066 0.15393263 0.25577968 0.28817177
-0.01691528 -0.096228346 0.22983404 0.32291985 0.15907511 -0.059605516 0.051840533 -0.40122247
0.33551872 0.23739411 0.2790197 0.036786392 -0.044480603 0.30020797 -0.6148639 -0.121904664
0.05402915 0.22693293 0.2879042 -0.41458634 -0.04364058 0.00076093525 0.0657009 -0.13869776
0.080548495 -0.13432798 -0.032163218 0.3190646 -0.043857407 0.06013395 -0.09461251 0.54532653
-0.16720146 -0.011496423 -0.1918422 -0.07124475 0.046932723 -0.08520241 -0.03604875 0.5274478
0.11466144 -0.071389854 -0.03367991 -0.049176723 -0.0013798096 0.34083703 0.007877784 0.15512101
0.25945905 0.16774637 0.0032359713 -0.0047339085 0.18289964 0.35409126 0.042197213 -0.0023453534
-0.007587474 -0.18387146 0.2307588 0.28520334 0.62561953 -0.08177051 -0.028078388 0.3106442
-0.3180873 -0.1448244 -0.03231618 0.18017589 0.19358255 -0.00223135 -0.009787464 -0.02754858
-0.015846333 -0.045068953 -0.0038198973 0.007176548 -0.13440606 -0.0071995603 -0.019751776 0.14085585
-0.012511297 0.33246467 -0.13154894 -0.044295482 -0.0527762 -0.01572765 0.043274455 0.0049081626
-0.01987761 0.7991525 0.12422677 -0.13053109 0.022546755 -0.09406695 0.13701494 0.53403467
0.058258697 0.001701994 -0.027763816 0.03620768 0.045790907 0.03132368 0.026842963 0.46101007
0.078310244 0.03269139 0.032859877 -0.12909319 0.04151441 -0.030071096 0.07210672 -0.09250149
-0.029446598 -0.0048787654 -0.16124898 -0.064979866 -0.06623965 0.40320197 0.0066580074 0.0010435638
-0.05235784 0.00690504 -0.13418472 -0.007228769 0.052922163 0.015258697 -0.043120347 -0.0015758034
0.046756126 -0.7314097 -0.358333 -0.9486086 -0.96452445 0.066607244 0.007039522 -1.079386
-0.9698836 0.03615509 -0.95976603 0.4090683 -0.7509064 0.02784044 -0.38336343 -0.02592044
-0.7891005 -0.9365751 0.04396946 -0.8800678 -0.013938383 0.000802941 -0.0046619456 -1.1020269
0.007989193 -0.64726377 0.024492698 -1.3699446 -0.063604034 -0.30022943 -0.002979672 -0.39112028
-0.26491892 -0.013284124 -0.02959681 0.008265631 -0.4217185 -0.011657998 0.016926486 -0.7665523
-0.008299014 -0.6943486 -0.0013067924 -1.0485628 -0.31057563 0.28693646 0.05227755 -0.849292
-0.012743177 -5.1722178e-05 -0.6490571 -0.029973222 0.006937481 -0.016556391 -0.045044333 -0.45570043
-0.08758756 0.0031729094 -0.02996313 -0.7683874 0.021546299 0.09382505 0.0022186663 -0.39916274
0.015566748 -0.16282374 0.0038916944 -0.02688376 -0.4161171 -0.0011277773 0.001266114 -0.006389167
-0.24429196 0.026780909 0.006884298 0.06932351 -0.27261722 0.01131679 -0.09231058 0.06127389
0.0032993548 -0.01652607 -0.020795483 -0.11235003 -0.062382787 -0.0027682874 0.044313915 -0.1642573
-0.29372185 -0.048706632 -0.0075705377 0.05473915 -0.2743798 -0.020603761 0.029070942 -0.01139487
-0.7021322 0.025993943 -0.06233559 0.013237818 0.06720644 -0.1208777 0.0511573 0.4381809
00000000: 42f4 4fbd cdb4 973e e900 ac3d f0ef 94bd
00000010: 2405 babd 9313 403d 7034 28bd a269 5dbc
00000020: f518 b2bd f5e0 a93d bc70 d5bd bda6 f23d
00000030: b929 53bd bf76 d33d c213 913e 62ff b539
00000040: 98c9 aabc eeff edbd 576a c53c 783a 263e
00000050: b199 763e 84a0 1d3e 8ef5 823e 408b 933e
00000060: ea91 8abc 5e13 c5bd 9d59 6b3e c055 a53e
00000070: 96e4 223e ea24 74bd bd56 543d 086d cdbe
00000080: 1cc9 ab3e 7117 733e acdb 8e3e 54ad 163d
00000090: 4b31 36bd dcb4 993e b867 1dbf 27a9 f9bd
000000a0: ac4d 5d3d 1b61 683e 2e68 933e a944 d4be
000000b0: 77c0 32bd 8079 473a 328e 863d c906 0ebe
000000c0: 9cf6 a43d 468d 09be 94bd 03bd 6f5c a33e
000000d0: d3a3 33bd 044f 763d 34c4 c1bd 859a 0b3f
000000e0: dc36 2bbe 7e5b 3cbc 4872 44be c4e8 91bd
000000f0: 873c 403d 9a7e aebd dba7 13bd d206 073f
00000100: 9ed3 ea3d d834 92bd f2f3 09bd 886d 49bd
00000110: bada b4ba 3182 ae3e d211 013c 0bd8 1e3e
00000120: d1d7 843e b4c5 2b3e 9712 543b e71e 9bbb
00000130: 0b4a 3b3e 734b b53e fcd6 2c3d 80b4 19bb
00000140: 58a0 f8bb cd48 3cbe 094c 6c3e 2c06 923e
00000150: 9a28 203f 4c77 a7bd a604 e6bc c20c 9f3e
00000160: 57dc a2be d94c 14be f95d 04bd 0780 383e
00000170: 813a 463e d73b 12bb 995b 20bc 8fad e1bc
00000180: 2bd0 81bc 399a 38bd 3e57 7abb 3f29 eb3b
00000190: bea1 09be 4aea ebbb 7ace a1bc 843c 103e
000001a0: 2ffc 4cbc cf38 aa3e c4b4 06be 2e6f 35bd
000001b0: db2b 58bd 46d7 80bc 8e40 313d a7d4 a03b
000001c0: 5fd6 a2bc 4295 4c3f 9b6a fe3d f1a9 05be
000001d0: f9b3 b83c 2ca6 c0bd a54d 0c3e 7fb6 083f
000001e0: aca0 6e3d 7115 df3a f170 e3bc 814e 143d
000001f0: 3f8f 3b3d 424d 003d c6e5 db3c 8309 ec3e
00000200: 1f61 a03d 68e7 053d 1498 063d 0131 04be
00000210: 040b 2a3d a957 f6bc b0ac 933d 6c71 bdbd
00000220: fe39 f1bc 0dde 9fbb 741e 25be 2a14 85bd
00000230: a7a8 87bd 7d70 ce3e 6a2b da3b 31c8 883a
00000240: 2d75 56bd ac43 e23b b867 09be 4fdf ecbb
00000250: e9c4 583d 9dff 793c f69e 30bd 308b ceba
00000260: 5a83 3f3d ab3d 3bbf 6c77 b7be 03d8 72bf
00000270: 13eb 76bf 6169 883d caab e63b 5229 8abf
00000280: 4b4a 78bf 5c17 143d 3ab3 75bf 6671 d13e
00000290: 673b 40bf a211 e43c 3648 c4be 1a57 d4bc
000002a0: 7e02 4abf 63c3 6fbf 5219 343d 204c 61bf
000002b0: d15d 64bc 757c 523a 3cc3 98bb 380f 8dbf
000002c0: 1be5 023c 14b3 25bf e9a4 c83c 585a afbf
000002d0: d542 82bd acb7 99be 9a46 43bb eb40 c8be
000002e0: 74a3 87be a8a5 59bc 0275 f2bc 926c 073c
000002f0: 7deb d7be 3001 3fbc 6aa9 8a3c c63c 44bf
00000300: 96f8 07bc d4c0 31bf ad48 abba 4e37 86bf
00000310: c503 9fbe 56e9 923e fc20 563d 336b 59bf
00000320: c2c8 50bc 44f0 58b8 9b28 26bf 678a f5bc
00000330: cf53 e33b 45a1 87bc 6880 38bd 9151 e9be
00000340: 1b61 b3bd 96f0 4f3b 3d75 f5bc 09b5 44bf
00000350: dd81 b03c 5927 c03d 0b67 113b 0f5f ccbe
00000360: ac0b 7f3c 44bb 26be cc0b 7f3b 553b dcbc
00000370: 4d0d d5be edd1 93ba bcf3 a53a 385c d1bb
00000380: ac27 7abe a363 db3c ad95 e13b 7cf9 8d3d
00000390: 7c94 8bbe 0f6a 393c 540d bdbd 55fa 7a3d
000003a0: fd39 583b ae61 87bc 4a5b aabc c617 e6bd
000003b0: 1885 7fbd 286c 35bb 8282 353d 1133 28be
000003c0: b662 96be 9b80 47bd 4612 f8bb 2936 603d
000003d0: 827b 8cbe 38c9 a8bc 2f26 ee3c 8cb1 3abc
000003e0: f0be 33bf 40f1 d43c 9b53 7fbd 6fe3 583c
000003f0: 88a3 893d ba8e f7bd 518a 513d 3f59 e03e

20 f4 [50, 1]
-0.06246608 -1.2162412 -0.17962272 -0.48752367 -0.09921891 -0.22801153 -0.45083 -0.14284724
-0.13973618 -0.19545387 -0.47168374 -0.1736587 -0.08543489 -0.049972374 -0.2594535 -0.21183787
-0.25825936 -0.06306153 -0.44947836 -0.23805362 -0.14497449 -0.29982546 -1.2208025 -1.2073638
-0.07775971 -0.1854286 -1.2791402 -0.024991171 -0.11067472 -0.28260487 -0.062141985 -0.05942613
-1.1635853 -0.114069045 -0.30111614 -0.06938442 -0.06364339 -1.1046005 -0.04975983 -0.064867646
-0.08931392 -0.13078319 -1.122773 -0.08647944 -0.07671873 -0.4300955 -0.0775758 -0.12856415
-0.14895983 -0.2952095
00000000: 6fdc 7fbd cbad 9bbf 05ef 37be b49c f9be
00000010: 4933 cbbd db7b 69be 31d3 e6be 8c46 12be
00000020: 0017 0fbe 0f25 48be 8880 f1be 96d3 31be
00000030: 7df8 aebd d5af 4cbd 17d7 84be 07ec 58be
00000040: 923a 84be 6726 81bd 0722 e6be 54c4 73be
00000050: 3174 14be b982 99be 4243 9cbf e68a 9abf
00000060: 7c40 9fbd ffe0 3dbe deba a3bf 49ba ccbc
00000070: 6da9 e2bd 96b1 90be 9888 7ebd d068 73bd
00000080: 5df0 94bf 089d e9bd e52b 9abe 6b19 8ebd
00000090: 7757 82bd 8d63 8dbf f7d0 4bbd 54d9 84bd
000000a0: 37ea b6bd 07ec 05be 07b7 8fbf 221c b1bd
000000b0: b61e 9dbd 7a35 dcbe 10e0 9ebd 52a6 03be
000000c0: ed88 18be b325 97be
