models/PID_ML/All/simple_model_2212.onnx (onnx, 27705 bytes, 5 tensors)

input.bias f4 [100]
-0.0841831 0.18760152 -0.0020196498 -0.13792408 -0.0064534503 0.17203853 -0.17871942 0.21778335
0.04897988 -0.29406223 -0.14424247 0.30476102 -0.008237983 -0.42770913 -0.12966397 0.39325637
-0.012540521 -0.10617931 0.016467648 0.32772797 -0.36841446 0.30254877 0.44730678 0.08726703
0.0008445878 -0.08401636 -0.3197452 -0.37520167 0.05780227 0.057201475 0.12527217 -0.08105369
0.14324151 0.17559971 0.28352153 0.3027456 -0.21517561 0.30234385 -0.16287908 -0.17261216
0.14321864 -0.09465508 0.37611276 -0.03381395 -0.3316613 0.12544957 0.022612512 0.24368086
-0.2889058 -0.004253587 0.1615085 0.04601644 -0.17991848 0.026524598 -0.0058988263 0.021163296
-0.09822758 -0.1968476 -0.14309949 -0.3093312 -0.29837495 0.22641942 -0.1311293 -0.25373703
0.026704188 -0.26021826 0.002223596 -0.10233859 -0.26009274 -0.11091498 0.040621504 0.11200329
0.34716043 -0.07960331 -0.033971444 -0.19185893 -0.32819346 -0.27015477 -0.114568286 -0.19788803
-0.0057266876 0.061762735 -0.15903968 0.1421294 -0.3224423 -0.006671901 -0.19144702 0.12764035
-0.11240819 0.09596424 0.037615526 0.08688764 0.1205553 -0.18904613 0.03885058 0.10897941
0.28152582 -0.32647744 0.019624177 0.094234385
00000000: 3068 acbd 9d1a 403e 1a5c 04bb f83b 0dbe
00000010: 7777 d3bb de2a 303e 3902 37be 9902 5f3e
00000020: 209f 483d 538f 96be 4cb4 13be a309 9c3e
00000030: 9bf8 06bc b1fc dabe a2c6 04be e658 c93e
00000040: c276 4dbc 8a74 d9bd 29e7 863c f6cb a73e
00000050: d2a0 bcbe ace7 9a3e 6505 e53e 0eb9 b23d
00000060: 5467 5d3a c510 acbd a5b5 a3be 6f1a c0be
00000070: 13c2 6c3d 184c 6a3d 5947 003e 7aff a5bd
00000080: e7ad 123e 69d0 333e bc29 913e 7901 9b3e
00000090: ff56 5cbe d0cc 9a3e c6c9 26be 3ec1 30be
000000a0: e8a7 123e 86da c1bd da91 c03e 7f80 0abd
000000b0: 83cf a9be da75 003e e03d b93c 7a87 793e
000000c0: 76eb 93be ad61 8bbb 7c62 253e bc7b 3c3d
000000d0: 8d3c 38be 1d4a d93c f14a c1bb a65e ad3c
000000e0: 8b2b c9bd 6b92 49be ac88 12be a960 9ebe
000000f0: 9ac4 98be 7eda 673e c246 06be d2e9 81be
00000100: bec2 da3c 543b 85be c0b9 113b e596 d1bd
00000110: e02a 85be 6527 e3bd bc62 263d fb61 e53d
00000120: 03bf b13e 0f07 a3bd a425 0bbd ab76 44be
00000130: f908 a8be ba51 8abe c7a2 eabd 29a3 4abe
00000140: f0a6 bbbb ecfa 7c3d 4cdb 22be 5f8a 113e
00000150: 2817 a5be f69f dabb b00a 44be 27b4 023e
00000160: 4436 e6bd e688 c43d bd12 1a3d 26f2 b13d
00000170: b2e5 f63d 4f95 41be c921 1f3d 9930 df3d
00000180: 2724 903e 0d28 a7be e2c2 a03c f5fd c03d

l_2.bias f4 [50]
0.29370177 -0.40642482 -0.31408715 -0.13468511 -0.35885614 0.26254788 0.14696866 0.28575164
0.4675258 -0.06760951 0.011498545 0.39342034 -0.2451248 -0.29808947 -0.09180832 -0.18756025
-0.0549316 -0.0044860397 -0.43842876 0.22758889 -0.27710402 -0.025357813 0.2585996 -0.042353872
-0.5717351 0.36985245 -0.2311413 -0.4075457 0.6001806 0.51052535 0.030937918 -0.3277528
0.36270353 0.354131 0.2798795 0.57197505 0.2862074 0.5967702 0.06313396 0.04434065
0.024215342 0.25031787 0.26173338 -0.37358013 0.4426871 0.4533338 0.040617533 -0.14773816
0.13281296 -0.0967163
00000000: 1460 963e ea16 d0be 08d0 a0be e5ea 09be
00000010: febb b7be ad6c 863e f47e 163e 0a4e 923e
00000020: 8b5f ef3e db76 8abd 6564 3c3c 646e c93e
00000030: ff01 7bbe 2f9f 98be 0006 bcbd cb0f 40be
00000040: f5ff 60bd a1ff 92bb bc79 e0be 100d 693e
00000050: 94e0 8dbe 30bb cfbc 2b67 843e 417b 2dbd
00000060: 3b5d 12bf 4d5d bd3e 4eb0 6cbe d4a9 d0be
00000070: 70a5 193f cab1 023f 8471 fd3c 37cf a7be
00000080: 47b4 b93e a950 b53e 5e4c 8f3e f56c 123f
00000090: c789 923e efc5 183f 614c 813d 8b9e 353d
000000a0: 415f c63c aa29 803e eb01 863e e545 bfbe
000000b0: e2a7 e23e 5e1b e83e 925e 263d ac48 17be
000000c0: 1f00 083e 3213 c6bd

18 f4 [16, 100]
-2.1660025 2.1537647 -1.100209 0.038553488 -3.2622814 -0.24232666 0.013305918 1.69102
0.7571431 -0.36298853 -3.9550126 -3.7640011 1.4205089 4.132316 5.381684 0.7508246
0.30166876 -1.5656983 -1.8740981 2.5032737 0.776987 0.52131474 1.8678089 4.9212465
-0.1528443 0.95089436 0.27771342 -0.3691547 0.063595936 -1.7135285 0.6392284 0.41686335
-2.6995106 0.22234677 0.120686986 1.1587615 -0.01699941 2.0353491 0.59386235 0.52452934
-1.3130709 -1.8798702 0.010028745 0.46943682 0.1818762 -0.13242403 0.10676307 -2.964682
-0.73008937 -0.46336707 0.05615679 -2.6781857 -0.96743804 -0.5323282 0.41792536 -2.1295667
-0.5694498 -2.5094414 -3.471922 -0.63895345 -0.27963963 -2.4829042 1.0494318 3.0243263
-0.015254617 -1.5217314 -1.0651796 -2.277676 0.047323156 0.8182089 0.7275398 0.8779195
0.47259971 -0.032981534 4.4545403 -4.515925 5.46203 -0.09229265 -0.540492 -0.22882806
-1.7414109 0.5650386 5.486285 2.4049635 0.52628183 -2.2812955 -1.370608 0.98992616
0.45842186 1.2575405 4.888674 -1.3259014 0.0012334825 0.072210595 0.17351025 0.866488
-1.7089622 -4.032224 -3.0322893 -0.046118256 -0.7078605 0.37517062 0.13111933 -2.6999056
0.9188348 -2.4074223 -2.733392 0.9880994 0.5094265 -2.2761996 1.0599099 -1.3575261
0.33824757 0.07245392 0.48990256 0.18227267 -0.008788285 0.8895185 -1.2224996 0.5574363
-0.91065294 0.97993416 0.16208261 0.18485439 1.5404127 0.14906107 -2.0630972 1.5769995
-2.743727 0.1796141 0.13443187 0.07697608 -0.1542275 0.052093863 -1.0251994 -0.5193491
0.039444007 0.45332894 0.07082096 0.54461306 0.12420154 -0.28164142 -2.7306564 -3.19042
1.3669808 0.72095597 -2.3283641 0.07574258 -0.26033795 -0.6449187 0.053562548 -0.09172706
-0.80431366 -0.48257342 0.044074897 0.051611237 0.19061488 0.11197521 -0.08625454 0.17337427
-1.2313347 0.2412257 -0.023584103 0.17529432 -2.6174982 -0.4466637 0.7752467 0.07115912
0.5442934 -0.8090426 -0.9619279 0.19572175 0.12176693 -2.4434016 0.72115475 0.74805415
1.0891076 -1.8021368 -0.38517666 -2.6354651 0.29571152 0.10033254 0.8224909 0.17771608
2.195987 -0.6619542 1.2605947 -0.51469105 0.07805079 0.23873985 0.24156758 0.112195514
-2.7772558 -3.4204454 -1.332645 0.15281689 -0.054680523 0.8823009 -0.5217172 -2.219921
0.0031791527 0.06465476 0.07757088 0.011468677 0.0006737149 0.01265598 0.0153079275 0.004962801
-0.0026698657 0.0059367754 0.00080616854 -0.0021505728 0.068234734 -0.01538862 0.0013121949 0.09006228
0.10069735 0.0046248287 0.00601785 0.030160004 -0.0012311838 0.01823743 0.01556121 -0.009906899
0.012349578 0.014382448 0.12543234 0.02605491 0.008560969 0.0095786825 0.09137873 0.12326957
-0.010248349 0.105695836 0.11004002 -0.0018306145 0.124587275 0.03292572 0.096339464 -0.0026702608
0.0181371 -0.031571355 0.006208927 0.014915185 0.0046899254 0.0014951227 0.011266993 0.0023611689
0.006773736 0.0031620022 0.0020526394 -0.05180231 -0.0052484497 0.007375186 0.100838974 -0.023517882
00000000: c99f 0ac0 48d7 0940 a6d3 8cbf 43ea 1d3d
00000010: 38c9 50c0 7b24 78be 1101 5a3c 5873 d83f
00000020: 21d4 413f a2d9 b9be ed1e 7dc0 65e5 70c0
00000030: 3cd3 b53f ef3b 8440 c136 ac40 0a36 403f
00000040: 5474 9a3e cd68 c8bf 72e2 efbf a335 2040
00000050: 9fe8 463f e274 053f 5d14 ef3f da7a 9d40
00000060: 3783 1cbe d06d 733f 7430 8e3e d801 bdbe
00000070: 963e 823d e754 dbbf 79a4 233f 1d6f d53e
00000080: c8c4 2cc0 dfae 633e bd2a f73d 4c52 943f
00000090: 5942 8bbc 2943 0240 5d07 183f 8e47 063f
000000a0: b512 a8bf 969f f0bf 9b4f 243c 065a f03e
000000b0: c13d 3a3e 2a9a 07be 99a6 da3d 5abd 3dc0
000000c0: 23e7 3abf 733e edbe aa04 663d 6567 2bc0
000000d0: 05aa 77bf a946 08bf 50fa d53e d24a 08c0
000000e0: 76c7 11bf b09a 20c0 f833 5ec0 7492 23bf
000000f0: ed2c 8fbe e7e7 1ec0 c853 863f 908e 4140
00000100: 80ee 79bc 18c8 c2bf ce57 88bf 72c5 11c0
00000110: edd5 413d 2376 513f 0c40 3a3f 55bf 603f
00000120: 97f8 f13e a517 07bd 988b 8e40 7582 90c0
00000130: f3c8 ae40 ee03 bdbd af5d 0abf e751 6abe
00000140: 8de6 debf 5fa6 103f a68f af40 ecea 1940
00000150: 68ba 063f bf00 12c0 1570 afbf cd6b 7d3f
00000160: 45b6 ea3e 16f7 a03f 0470 9c40 23b7 a9bf
00000170: ceac a13a 26e3 933d acac 313e 28d2 5d3f
00000180: 46bf dabf fb07 81c0 0711 42c0 7fe6 3cbd
00000190: 5936 35bf 5d16 c03e 2544 063e 41cb 2cc0
000001a0: c238 6b3f 3513 1ac0 e5ef 2ec0 15f4 7c3f
000001b0: c669 023f 41ad 11c0 21ab 873f 6ac3 adbf
000001c0: c92e ad3e b962 943d 82d4 fa3e b0a5 3a3e
000001d0: bdfc 0fbc 7cb7 633f de7a 9cbf 25b4 0e3f
000001e0: 8d20 69bf f7dc 7a3f fcf8 253e 784a 3d3e
000001f0: 3e2c c53f 77a3 183e c909 04c0 1fdb c93f
00000200: 3999 2fc0 c2ec 373e 82a8 093e a3a5 9d3d
00000210: d0ed 1dbe 6060 553d bc39 83bf 10f4 04bf
00000220: 0a90 213d bb1a e83e 940a 913d c36b 0b3f
00000230: 615d fe3d 4e33 90be 13c3 2ec0 d72f 4cc0
00000240: 3af9 ae3f 9290 383f eb03 15c0 ed1e 9b3d
00000250: 044b 85be 6419 25bf 6764 5b3d 66db bbbd
00000260: 80e7 4dbf dd13 f7be e187 343d 4e66 533d
00000270: 8c30 433e 4253 e53d 38a6 b0bd 0689 313e
00000280: 609c 9dbf df03 773e 7333 c1bc 5b80 333e
00000290: 1785 27c0 1bb1 e4be 9176 463f dfbb 913d
000002a0: d056 0b3f 6a1d 4fbf e840 76bf 486b 483e
000002b0: f160 f93d b160 1cc0 999d 383f 7a80 3f3f
000002c0: e167 8b3f 6bac e6bf e035 c5be 76ab 28c0
000002d0: 8067 973e 267b cd3d c38e 523f 34fb 353e
000002e0: 0d8b 0c40 d575 29bf 2b5b a13f cbc2 03bf
000002f0: 18d9 9f3d 3878 743e 7e5d 773e c3c6 e53d
00000300: 8fbe 31c0 94e8 5ac0 1d94 aabf 087c 1c3e
00000310: aff8 5fbd 79de 613f 428f 05bf 3013 0ec0
00000320: 5559 503b b769 843d 7bdd 9e3d 1ee7 3b3c
00000330: 3e9c 303a 075b 4f3c 1ace 7a3c fe9e a23b
00000340: eaf8 2ebb 4889 c23b 0e55 533a a0f0 0cbb
00000350: a7be 8b3d 8d20 7cbc f4fd ab3a 9372 b83d
00000360: 6a3a ce3d e08b 973b 6231 c53b 1d12 f73c
00000370: ac5f a1ba aa66 953c 72f4 7e3c 8c50 22bc
00000380: e255 4a3c 5ca4 6b3c 5671 003e 1b71 d53c
00000390: 4e43 0c3c e8ef 1c3c c624 bb3d c274 fc3d
000003a0: b1e8 27bc 0f77 d83d a95c e13d 3bf1 efba
000003b0: 9d27 ff3d 1fdd 063d a04d c53d 8bff 2ebb
000003c0: 4194 943c f750 01bd 4174 cb3b d25e 743c
000003d0: f2ad 993b fef7 c33a 3299 383c d7bd 1a3b
000003e0: 37f6 dd3b 9839 4f3b 9385 063b a92e 54bd
000003f0: 30fb abbb 8bab f13b aa84 ce3d 93a8 c0bc

19 f4 [100, 50]
-0.05669393 -0.117421366 -0.031148802 0.14787883 -0.045959968 -0.11420166 -0.09942319 -0.018961733
-0.020483823 0.018109918 -0.0053348285 -0.09010538 -0.2512953 -0.19584273 0.065371186 0.08631234
0.11096948 -0.06991635 -0.16299835 -0.17868662 -0.1621889 0.08905976 -0.020190487 0.022767643
0.031703405 0.04115414 -0.07379 0.064013734 0.039650306 -0.1031294 0.030097235 -0.20207363
-0.07573619 -0.10200121 -0.11567673 -0.024528697 0.07717501 -0.03442236 0.0045165657 0.06471223
-0.02351199 -0.07742925 0.006367428 -0.19563685 0.019158367 0.128513 0.054391332 0.089387774
0.0040548625 -0.090905786 0.14704524 0.00013604618 -0.01703425 0.047838185 0.0103278505 0.04253182
0.1376304 0.03182352 0.03789725 0.03192686 -0.040175468 0.014528388 -0.07092436 -0.004792818
0.060357723 0.03396939 0.023580633 0.1490492 -0.02735726 0.03993831 0.04281407 0.0019515322
0.13399157 0.0663632 0.035376534 0.012257437 -0.042704556 0.09695788 -0.07224187 -0.08317102
-0.03916913 -0.0797416 0.024151672 -0.042295206 0.09424141 -0.08954567 -0.017325204 -0.052798197
-0.014502673 0.026140532 -0.060091846 0.12449774 0.03770705 -0.017408216 -0.11487168 -0.06842734
-0.0054245945 0.08314653 -0.13482499 0.022214055 -0.002139525 -0.08475359 -0.051120598 0.07392439
-0.06097517 0.057409275 0.059069533 0.049389355 0.075878784 0.013798911 0.01929606 0.0646469
-0.066304885 -0.14795539 0.07067463 -0.046199203 0.0042938255 -0.01433732 -0.084139444 0.11147366
-0.0867577 0.047585372 0.029536596 -0.008527026 0.028558169 0.21513124 0.079349265 0.07105821
-0.09814943 -0.056765735 0.084237024 -0.029868431 0.0958656 0.20349148 0.06845046 -0.07679401
0.20470697 -0.073021725 0.093556404 0.08209228 0.05934729 0.049254794 0.06347659 -0.07615176
-0.024332082 -0.106008425 0.016573029 0.09921235 -0.029807357 0.04408807 -0.60413885 0.16226408
0.25317708 0.05933745 0.08355842 -0.17204154 -0.67841756 -0.4723007 -0.7965863 0.07011348
1.2677336 -0.6628971 0.09460975 0.21628875 0.009448431 0.013033371 0.04333796 0.9412182
0.20355439 -0.153192 0.19065878 -0.007913848 -0.46674746 0.6999281 0.101098396 -0.4787373
0.045588963 -0.16739622 -0.1548284 -0.205877 1.0896485 0.26429588 -0.7745658 -0.26479998
-0.40358323 -0.22321631 -0.5674262 -0.18614283 1.3894945 1.1868527 1.2912027 -0.53883064
-0.119482085 0.20859721 -0.0097477995 -0.12483975 1.0825546 0.06176445 1.2764956 0.044236314
-0.012321563 -0.674426 -0.67243487 0.09882353 -0.552108 -0.035588488 -0.035105575 -0.050019927
-0.01251029 0.031151932 -0.011288088 0.007130629 -0.63767374 -0.5698938 0.0033705942 0.029894128
0.05438439 -0.16866231 -0.5494576 0.0044295867 -0.71798795 -0.013274735 -0.020127837 -0.25302806
-0.09259913 -0.024745869 0.08211785 -0.33880764 -0.048956204 -0.05681629 0.01401544 -0.63276035
0.01448592 0.0051080636 -0.012105955 -0.006745092 0.0065118973 0.018593756 -0.07474356 0.0050790636
-0.023477789 -0.044455398 -0.0254545 -0.4800624 -0.007261316 5.2427247e-05 -0.017753633 0.073023506
-0.020658558 0.050777167 -0.43067706 -1.0450706 -1.100418 -0.1941847 -0.83984 -0.39268753
00000000: e537 68bd 9d7a f0bd c62b ffbc 8c6d 173e
00000010: 8540 3cbd 8fe2 e9bd 639e cbbd a355 9bbc
00000020: b1cd a7bc 405b 943c c9cf aebb 2b89 b8bd
00000030: c7a9 80be ff8a 48be 54e1 853d 86c4 b03d
00000040: f743 e33d 4e30 8fbd 0ae9 26be a0f9 36be
00000050: d914 26be f764 b63d 8566 a5bc 3583 ba3c
00000060: 6edb 013d 3e91 283d 361f 97bd a219 833d
00000070: 5c68 223d 8235 d3bd 7a8e f63c 64ec 4ebe
00000080: 931b 9bbd 03e6 d0bd ece7 ecbd 68f0 c8bc
00000090: ef0d 9e3d 76fe 0cbd b3ff 933b d887 843d
000000a0: 389c c0bc 3a93 9ebd dca5 d03b 0755 48be
000000b0: 02f2 9c3c e998 033e 72c9 5e3d f010 b73d
000000c0: a7de 843b d02c babd 0793 163e 9ea7 0e39
000000d0: 698b 8bbc f9f1 433d 2536 293c d835 2e3d
000000e0: fcee 0c3e 6159 023d 263a 1b3d bdc5 023d
000000f0: 088f 24bd 7a08 6e3c ca40 91bd 120d 9dbb
00000100: a939 773d 7d23 0b3d 2c2c c13c 5aa0 183e
00000110: 551c e0bc 5a96 233d ce5d 2f3d 8eca ff3a
00000120: 1635 093e 6ee9 873d fce6 103d 6bd3 483c
00000130: f9ea 2ebd da91 c63d 8cf3 93bd 9155 aabd
00000140: cf6f 20bd 904f a3bd bad9 c53c bd3d 2dbd
00000150: a401 c13d b863 b7bd 96ed 8dbc ec42 58bd
00000160: 9f9c 6dbc ab24 d63c de22 76bd acf8 fe3d
00000170: b572 1a3d ad9b 8ebc d841 ebbd a223 8cbd
00000180: ccc0 b1bb ba48 aa3d 900f 0abe 40fa b53c
00000190: 4637 0cbb 4a93 adbd d563 51bd ac65 973d
000001a0: 1ac1 79bd fd25 6b3d e5f2 713d 7e4c 4a3d
000001b0: 5666 9b3d d414 623c c512 9e3c 9865 843d
000001c0: dbca 87bd 9e81 17be dcbd 903d 603b 3dbd
000001d0: 38b3 8c3b 14e7 6abc 4d51 acbd 4d4c e43d
000001e0: 05ae b1bd e1e8 423d bbf6 f13c f0b4 0bbc
000001f0: d2f2 e93c 5d4b 5c3e de81 a23d f886 913d
00000200: 9102 c9bd 3083 68bd 7684 ac3d a4ae f4bc
00000210: 2f55 c43d 1260 503e c12f 8c3d 2e46 9dbd
00000220: b49e 513e 6a8c 95bd 809a bf3d ff1f a83d
00000230: 2516 733d 65bf 493d 0400 823d 74f5 9bbd
00000240: 1354 c7bc f21a d9bd 29c4 873c d82f cb3d
00000250: 8f2e f4bc b195 343d d8a8 1abf 8e28 263e
00000260: 6da0 813e d30b 733d ad20 ab3d a82b 30be
00000270: c6ac 2dbf 66d1 f1be 14ed 4bbf a897 8f3d
00000280: 1845 a23f a0b3 29bf c2c2 c13d cc7a 5d3e
00000290: 98cd 1a3c ec89 553c 2583 313d adf3 703f
000002a0: 9070 503e 5dde 1cbe 0e3c 433e 16a9 01bc
000002b0: 86f9 eebe 7d2e 333f ad0c cf3d 0e1d f5be
000002c0: 7ebb 3a3d ea69 2bbe 568b 1ebe 6cd1 52be
000002d0: 9a79 8b3f ca51 873e f249 46bf dd93 87be
000002e0: 76a2 cebe d192 64be d842 11bf 3a9c 3ebe
000002f0: f5da b13f caea 973f 2146 a53f cef0 09bf
00000300: 06b3 f4bd 829a 553e 3cb5 1fbc fcab ffbd
00000310: 2691 8a3f b8fc 7c3d 3564 a33f 2331 353d
00000320: 62e0 49bc 2fa7 2cbf b124 2cbf fe63 ca3d
00000330: f356 0dbf 3cc5 11bd ddca 0fbd b2e1 4cbd
00000340: f6f7 4cbc 5632 ff3c acf1 38bc 0da8 e93b
00000350: 963e 23bf 8fe4 11bf 30e5 5c3b 88e4 f43c
00000360: 2bc2 5e3d d0b5 2cbe 41a9 0cbf 1126 913b
00000370: 0fce 37bf 467e 59bc 22e3 a4bc e58c 81be
00000380: 9da4 bdbd d9b7 cabc 672d a83d 3278 adbe
00000390: 4d86 48bd 33b8 68bd 04a1 653c 95fc 21bf
000003a0: 5a56 6d3c 8b61 a73b 0e58 46bc ef05 ddbb
000003b0: c161 d53b ef51 983c 2713 99bd 466e a63b
000003c0: 7e54 c0bc dd16 36bd f585 d0bc bdca f5be
000003d0: 55f0 edbb 54e5 5b38 1170 91bc 598d 953d
000003e0: 233c a9bc b8fb 4f3d b481 dcbe e0c4 85bf
000003f0: 7fda 8cbf 5bd8 46be c1ff 56bf 570e c9be

20 f4 [50, 1]
0.63466275 0.104971625 0.10429441 0.040250577 0.13096036 0.21167128 0.65509105 0.50517195
0.49583048 0.067975365 -0.8443053 0.4700041 0.07585293 0.037711594 0.11750028 0.06121123
0.067347966 -0.7327538 0.09698584 0.22446291 0.12494313 0.07143412 0.68471617 -0.45092466
0.16356337 0.38894692 0.050555952 -0.2980409 -0.36245608 -0.26011086 -0.8083523 0.08939845
0.5460549 0.2164894 0.38179597 -0.25042897 0.43054003 -0.25168824 -0.6371013 -0.6951395
-0.6164951 0.6094263 0.18511891 0.055264782 -0.39434016 -0.36460575 -0.77551305 0.034450453
-0.5395557 0.048318967
00000000: 4279 223f 5dfb d63d 4f98 d53d cadd 243d
00000010: 791a 063e 5bc0 583e 0cb4 273f f352 013f
00000020: 7edd fd3e ab36 8b3d 6424 58bf 61a4 f03e
00000030: c858 9b3d 7977 1a3d fda3 f03d a0b8 7a3d
00000040: bbed 893d c195 3bbf 83a0 c63d 9bd9 653e
00000050: 2fe2 ff3d 0d4c 923d 8f49 2f3f 99df e6be
00000060: 287d 273e 0d24 c73e c213 4f3d d198 98be
00000070: d893 b9be 402d 85be 2df0 4ebf 8916 b73d
00000080: 41ca 0b3f 66af 5d3e c37a c33e 3a38 80be
00000090: be6f dc3e 48dd 80be 1219 23bf aaf4 31bf
000000a0: 9fd2 1dbf 5d03 1c3f d08f 3d3e 535d 623d
000000b0: f4e6 c9be 9bad babe 0688 46bf eb1b 0d3d
000000c0: 5320 0abf 1cea 453d
